Unity-projects/Reacher/DDPG/checkpoint_critic.pth (torch_old, 308669 bytes, 9 tensors)

fcs1.weight f4 [256, 33]
-0.009912322 0.21513686 0.011231109 -0.13422942 -0.003968222 0.27574438 0.0723361 -0.00055000355
0.046369918 0.13354765 0.0631132 0.0035554033 -0.04463119 0.113108724 -0.28256658 -0.063766554
0.08346238 0.027105492 0.13145421 0.025550282 -0.007940672 -0.018544797 -0.050479386 -0.0127852885
-0.09401189 -0.04124001 -0.074542165 0.008197539 0.14715879 -0.0058282465 0.022977991 0.056224845
-0.83664775 -0.05745401 -0.07013986 0.1295998 0.07804437 -0.07962783 -0.08324313 0.086990334
0.14416194 0.32808056 -0.081196845 -0.10952237 -0.21281993 0.034865674 -0.052051112 -0.31733286
-0.14130758 -0.19213836 -0.12081336 0.024550058 -0.2035544 0.032379217 0.049752343 -0.025741175
0.10419081 0.009834877 -0.060277537 0.14993106 0.043586094 0.020290654 0.049984537 0.022421695
0.04344616 0.54325444 0.11498884 -0.14596649 -0.0710329 -0.12118381 0.2048628 -0.60034126
-0.05246353 -0.013517087 0.20619987 0.007966394 -0.014665041 -0.02854545 -0.08328607 0.109808676
-0.13317841 -0.27410087 0.21954876 -0.09889386 0.16316468 0.3733865 -0.06489947 0.050031263
0.064050406 -0.08037898 -0.015157248 -0.16576743 -0.055155337 0.047665812 0.057365704 -0.0019819662
0.045355506 0.046436578 -0.114558786 0.3294894 0.08035542 0.19986019 -0.11845448 0.083464704
-0.40354833 0.34638527 -0.15206045 0.07872658 0.0783104 -0.07958913 0.05117922 0.064495675
0.052670024 -0.21452244 -0.12143827 -0.36158025 0.01044026 -0.42842612 0.21656954 0.07914862
-0.12967749 -0.054449845 0.06299636 0.0092469985 0.106461234 0.005784058 -0.030507037 -0.0013226514
-0.055002116 0.061332446 -0.036299236 0.31034273 0.09891623 0.017550256 -0.037861925 -0.0988316
0.123566836 -0.06524317 -0.41019276 0.0048957327 -0.108714886 0.11500191 0.20815758 -0.106467724
-0.078235045 -0.17157382 0.16764913 0.16045628 0.04726528 -0.089744814 -0.2100568 -0.42305502
0.033202987 -0.15698422 0.042234562 -0.019443316 0.1043404 0.01681388 0.119954206 -0.021799745
0.07458398 -0.008129232 -0.026821425 0.00934276 -0.3958361 -0.20014507 -0.13653706 0.044587713
-0.09707904 -0.26868984 0.098726854 -0.24672112 -0.10932751 -0.10359859 0.24447453 -0.040266503
-0.08928696 -0.018887132 -0.020145014 0.0025032235 -0.13008365 0.28760776 0.44712725 -0.33615813
0.15295008 0.009517721 0.23515962 -0.016460244 0.061085824 0.108560145 0.010112879 -0.01976414
-0.012522206 0.006317964 0.03309132 -0.0077220784 -0.05874519 0.7452289 0.19253474 0.39864346
0.0016581053 0.016678397 0.018079016 0.01954939 0.021348357 0.0010885977 0.0055945236 -0.07742791
0.012347965 0.01341775 0.00071509107 -0.22696088 -0.45913583 -0.0050654756 -0.043319333 0.018812545
-0.00066714577 0.015429567 -0.009521734 0.01922289 -0.00053677213 -0.011311595 -0.044816695 0.004068029
0.11491911 -0.005574409 0.008730653 -0.016460612 0.015821906 0.02489718 0.06439247 0.2655174
0.1309754 0.07971798 -0.39271936 0.3193272 -0.33371994 -0.0333257 0.15596914 0.41379905
-0.14489435 0.004349058 -0.0011025323 -0.041698623 -0.14164032 -0.032242045 -0.1234048 0.26522896
0.2085433 0.28519657 -0.042619105 -0.17510964 0.23424633 0.108927496 0.05397736 0.029604958
00000000: 4b67 22bc d64c 5c3e af02 383c 7073 09be
00000010: dc07 82bb 5e2e 8d3e f324 943d 1d2e 10ba
00000020: 62ee 3d3d b7c0 083e 7e41 813d c501 693b
00000030: 32cf 36bd 8ca5 e73d 91ac 90be 0a98 82bd
00000040: 53ee aa3d 560c de3c ef9b 063e d34e d13c
00000050: 9819 02bc 42eb 97bc 79c3 4ebd 6379 51bc
00000060: 4e89 c0bd 49eb 28bd 90a9 98bd f84e 063c
00000070: cbb0 163e e0fa bebb 573c bc3c 064c 663d
00000080: 8c2e 56bf e554 6bbd 7da5 8fbd cfb5 043e
00000090: bad5 9f3d ea13 a3bd 607b aabd fd27 b23d
000000a0: 309f 133e 2dfa a73e 884a a6bd 444d e0bd
000000b0: 78ed 59be 4fcf 0e3d 8c33 55bd 7479 a2be
000000c0: efb2 10be ebbf 44be ff6c f7bd 341d c93c
000000d0: 9170 50be 12a0 043d 1dc9 4b3d 28df d2bc
000000e0: fe61 d53d 7722 213c 94e5 76bd 8787 193e
000000f0: 5587 323d 9638 a63c 96bc 4c3d b4ad b73c
00000100: 9af4 313d b912 0b3f 457f eb3d 3d78 15be
00000110: b279 91bd 382f f8bd 8ec7 513e f7af 19bf
00000120: 00e4 56bd c676 5dbc 0f26 533e 7a85 023c
00000130: a445 70bc 26d8 e9bc e391 aabd 5fe3 e03d
00000140: ec5f 08be f356 8cbe 64d1 603e dd88 cabd
00000150: a414 273e 842c bf3e 03ea 84bd 95ed 4c3d
00000160: dc2c 833d bc9d a4bd 1b56 78bc f0be 29be
00000170: 90ea 61bd 3a3d 433d 4df8 6a3d e0e3 01bb
00000180: b2c6 393d 4834 3e3d cc9d eabd d6b2 a83e
00000190: 6291 a43d 26a8 4c3e 4398 f2bd 8bef aa3d
000001a0: e39d cebe 6959 b13e bcb5 1bbe 673b a13d
000001b0: 3461 a03d a0ff a2bd 4da1 513d 4f16 843d
000001c0: 86bc 573d c5ab 5bbe a1b4 f8bd 0c21 b9be
000001d0: a00d 2b3c ab5a dbbe 68c4 5d3e ac18 a23d
000001e0: 2dca 04be cd06 5fbd 3c04 813d b980 173c
000001f0: 5908 da3d 3288 bd3b e5e9 f9bc d15c adba
00000200: e649 61bd bb37 7b3d 82ae 14bd 3ee5 9e3e
00000210: 9894 ca3d 8ec5 8f3c 1b15 1bbd 3968 cabd
00000220: 9c10 fd3d 369e 85bd c904 d2be 626c a03b
00000230: e9a5 debd 1f86 eb3d 4327 553e c00b dabd
00000240: b239 a0bd 0cb1 2fbe 37ac 2b3e a74e 243e
00000250: 3d99 413d 21cc b7bd 2119 57be ab9a d8be
00000260: dbff 073d 79c0 20be 26fe 2c3d 9747 9fbc
00000270: 6bb0 d53d 43bd 893c 8daa f53d 6195 b2bc
00000280: 7cbf 983d 7830 05bc 9bb8 dbbc 6012 193c
00000290: 08ab cabe d4f2 4cbe 5fd0 0bbe 9ba1 363d
000002a0: 60d1 c6bd b791 89be 4e31 ca3d 76a4 7cbe
000002b0: 1ae7 dfbd 7f2b d4bd 8857 7a3e 7dee 24bd
000002c0: 15dc b6bd 30b9 9abc 2807 a5bc 1f0d 243b
000002d0: a634 05be 5341 933e dded e43e eb1c acbe
000002e0: f29e 1c3e 37f0 1b3c afcd 703e a2d7 86bc
000002f0: 2135 7a3d c854 de3d 7db0 253c 68e8 a1bc
00000300: f029 4dbc ec06 cf3b c48a 073d 7d09 fdbb
00000310: cc9e 70bd 52c7 3e3f d427 453e ff1a cc3e
00000320: c854 d93a 22a1 883c 721a 943c 0b26 a03c
00000330: c0e2 ae3c 47af 8e3a 4452 b73b 8692 9ebd
00000340: 1e4f 4a3c 1fd6 5b3c f374 3b3a 6f68 68be
00000350: da13 ebbe 4afc a5bb 9d6f 31bd c41c 9a3c
00000360: 65e3 2eba 4bcc 7c3c 0c01 1cbc 5279 9d3c
00000370: 2bb6 0cba 4554 39bc b691 37bd 1a4d 853b
00000380: b65a eb3d 88a9 b6bb 030b 0f3c 68d8 86bc
00000390: f19c 813c 2cf5 cb3c 33e0 833d e6f1 873e
000003a0: 6a1e 063e 2e43 a33d 8312 c9be db7e a33e
000003b0: 57dd aabe 8780 08bd 60b6 1f3e 78dd d33e
000003c0: 2f5f 14be 8b82 8e3b d882 90ba 2dcc 2abd
000003d0: 290a 11be 3c10 04bd a8bb fcbd 17cc 873e
000003e0: 608c 553e 4905 923e 5f91 2ebd f14f 33be
000003f0: 45de 6f3e 6115 df3d 5d17 5d3d 1986 f23c

fcs1.bias f4 [256]
-0.02835631 -0.0913519 0.13546401 -0.053392153 0.07687721 -0.005550582 -0.17264292 0.0469608
0.0773507 0.15354952 -0.15000461 0.12456113 -0.070560776 0.14443126 0.16964719 0.16343601
0.07720442 0.017056946 -0.08751291 -0.10297262 0.04856079 -0.07420183 0.035116144 0.15716362
-0.07853999 0.02253853 0.16730455 0.037311807 0.03225881 -0.086917445 -0.058924746 -0.03475749
0.048807546 -0.12371785 -0.09925546 0.12064082 -0.11731719 -0.119626 0.15481646 0.064683914
-0.14298171 0.03782447 0.133928 0.15647094 0.14783505 -0.028972097 0.11619511 -0.009369013
0.14430285 0.111294545 -0.12721433 0.08257851 -0.054247223 -0.013396286 -0.04770126 0.09277496
-0.02894712 0.08211633 -0.15815882 0.057112824 -0.056287367 -0.053514693 0.029182458 0.016820243
-0.048844375 -0.13346808 0.16370884 0.0043067336 0.059492625 -0.07045723 0.13632831 -0.11310684
-0.1642905 0.08850509 0.07526695 0.09765969 -0.08951939 0.011643682 -0.11328256 0.042912353
0.16380763 0.043145362 -0.10485495 -0.0048585064 0.07169681 0.09742987 -0.17406724 -0.07726164
-0.06148818 0.1437837 -0.015760753 0.0856424 0.077601075 0.14804451 0.0053961705 0.01040737
-0.028920302 -0.16030706 -0.026658336 0.09882692 0.0812389 0.08650958 0.046860643 0.06072324
0.042754877 -0.01641309 -0.067647405 0.036123276 0.014741856 0.004297872 0.16420037 -0.048026834
-0.15228929 -0.14803982 0.07618295 -0.018000433 -0.09966155 -0.07242127 0.123587534 -0.024254307
0.13692291 0.13173284 -0.04200105 0.12564828 0.16262174 0.091672264 -0.09758122 -0.065655105
-0.08053983 -0.16835928 -0.10700935 -0.15016972 0.1319601 -0.07651827 -0.04108448 0.055821195
0.0195123 -0.10869466 -0.07171379 -0.032241236 0.0043844786 -0.00908771 0.076307096 0.0008880318
-0.101254016 -0.06945889 -0.04026435 0.11840991 0.12449433 -0.1478093 -0.1342186 0.023764098
0.077689745 -0.03230212 0.0570941 0.00070823927 -0.08728105 0.08833128 -0.058368213 -0.11286688
-0.004304513 -0.07292556 0.096215524 0.15559857 0.10781371 -0.053958107 -0.08523983 -0.062574744
-0.09956491 -0.050843157 0.14667355 0.17238188 -0.066074386 0.05687049 0.010763905 0.044559702
-0.13482833 -0.09496966 -0.041051786 -0.05440305 -0.03748405 0.047851972 -0.0053823767 -0.14338222
0.0073082284 0.034519594 0.12591201 -0.09404978 -0.09851965 0.12264042 -0.06394237 0.059710525
0.1420335 -0.03144024 -0.015329575 -0.10259418 0.08316514 0.08953467 -0.14699897 0.10502644
0.16949858 0.16107452 0.063262604 0.16768007 0.030604664 -0.08906096 -0.13686323 -0.13802803
0.06911329 0.07386185 -0.088001296 0.013423005 -0.074919954 0.074743494 -0.122866094 0.020590536
-0.051832326 -0.09917801 -0.062372554 0.17093623 0.039708912 -0.1408381 0.06587565 -0.14878519
0.13875343 -0.14591585 -0.056631267 -0.16232565 -0.06009441 0.12554184 0.078839086 0.007324193
-0.12121681 0.13256411 -0.017866284 -0.024139637 0.08086125 0.089215994 -0.12132976 0.008962392
-0.11704528 -0.117488295 0.0005643273 -0.0048211147 0.04459034 -0.110018216 0.046578825 0.11100019
0.014609174 0.15042901 0.0025624845 -0.12720038 -0.077435754 0.052769475 -0.11915181 -0.103470266
00000000: 7e4b e8bc b416 bbbd 14b7 0a3e bbb1 5abd
00000010: cc71 9d3d a8e1 b5bb 4ec9 30be f859 403d
00000020: 0b6a 9e3d 163c 1d3e cf9a 19be e819 ff3d
00000030: 2b82 90bd cae5 133e feb7 2d3e c55b 273e
00000040: 5a1d 9e3d 02bb 8b3c f839 b3bd 4fe3 d2bd
00000050: aee7 463d 21f7 97bd f2d5 0f3d 80ef 203e
00000060: 93d9 a0bd b9a2 b83c e251 2b3e 44d4 183d
00000070: d021 043d c601 b2bd 135b 71bd df5d 0ebd
00000080: 6cea 473d c95f fdbd 7246 cbbd 8912 f73d
00000090: ff43 f0bd 7afe f4bd 3588 1e3e 0079 843d
000000a0: cc69 12be d5ed 1a3d 6c24 093e eb39 203e
000000b0: 1262 173e e456 edbc b4f7 ed3d 7d80 19bc
000000c0: 20c4 133e 65ee e33d 7944 02be ec1e a93d
000000d0: 5632 5ebd 197c 5bbc 6562 43bd cc00 be3d
000000e0: 8322 edbc 9b2c a83d 63f4 21be 23ef 693d
000000f0: 958d 66bd 3932 5bbd 0d10 ef3c 9bca 893c
00000100: 0a11 48bd dbab 08be 4aa3 273e 801f 8d3b
00000110: 8aae 733d e14b 90bd a699 0b3e 8fa4 e7bd
00000120: c53b 28be 2842 b53d 8f25 9a3d ce01 c83d
00000130: f155 b7bd 24c5 3e3c b000 e8bd ddc4 2f3d
00000140: 30bd 273e 31b9 303d 31be d6bd 1b34 9fbb
00000150: c7d5 923d 5089 c73d af3e 32be 5a3b 9ebd
00000160: 08db 7bbd 093c 133e b21c 81bc 4865 af3d
00000170: 50ed 9e3d fb98 173e 5cd2 b03b ac83 2a3c
00000180: 45ea ecbc 8927 24be 9562 dabc c565 ca3d
00000190: 9560 a63d ef2b b13d f2f0 3f3d efb8 783d
000001a0: bd1f 2f3d bf74 86bc b98a 8abd 00f6 133d
000001b0: d387 713c 2ad5 8c3b 2424 283e c9b7 44bd
000001c0: b9f1 1bbe c097 17be ce05 9c3d a575 93bc
000001d0: 5b1b ccbd 9a51 94bd 761b fd3d f8b0 c6bc
000001e0: 8535 0c3e f9e4 063e 4b09 2cbd f1a9 003e
000001f0: 5086 263e abbe bb3d aad8 c7bd 2f76 86bd
00000200: 11f2 a4bd 6066 2cbe b827 dbbd 17c6 19be
00000210: 8c20 073e 9cb5 9cbd 3348 28bd c4a4 643d
00000220: 42d8 9f3c 4e9b debd aede 92bd 630f 04bd
00000230: acab 8f3b 9ee4 14bc e546 9c3d ceca 683a
00000240: 445e cfbd 7640 8ebd 3bec 24bd e580 f23d
00000250: e2f6 fe3d 525b 17be 9a70 09be edac c23c
00000260: cd1b 9f3d 3a4f 04bd 81db 693d 22a9 393a
00000270: 68c0 b2bd 08e7 b43d 8213 6fbd c026 e7bd
00000280: df0c 8dbb ff59 95bd a50c c53d 3b55 1f3e
00000290: 6fcd dc3d 2d03 5dbd 3892 aebd 3027 80bd
000002a0: b0e8 cbbd ea40 50bd 9731 163e e084 303e
000002b0: 0252 87bd 08f1 683d 175b 303c 3c84 363d
000002c0: 7010 0abe 747f c2bd eb25 28bd bcd5 5ebd
000002d0: e088 19bd 6e00 443d a65e b0bb cad2 12be
000002e0: dd79 ef3b 6b64 0d3d 14ef 003e 2c9d c0bd
000002f0: acc4 c9bd e72a fb3d 38f4 82bd 0693 743d
00000300: 3b71 113e 7bc7 00bd e628 7bbc e61c d2bd
00000310: 7c52 aa3d f45d b73d e686 16be 1a18 d73d
00000320: 0991 2d3e b8f0 243e d38f 813d 53b4 2b3e
00000330: a2b6 fa3c 9865 b6bd e025 0cbe 3857 0dbe
00000340: 458b 8d3d e244 973d 063a b4bd 2aec 5b3c
00000350: a26f 99bd 1e13 993d 38a1 fbbd 7cad a83c
00000360: 224e 54bd d71d cbbd 5d7a 7fbd e809 2f3e
00000370: d0a5 223d dd37 10be d0e9 863d 255b 18be
00000380: 6115 0e3e f76a 15be 30f6 67bd b238 26be
00000390: 8e25 76bd 0a8e 003e 6376 a13d c9ff ef3b
000003a0: 8540 f8bd e3be 073e 505c 92bc 7dc0 c5bc
000003b0: 959a a53d e0b6 b63d bd7b f8bd ffd6 123c
000003c0: 70b5 efbd b49d f0bd 5def 133a 71fa 9dbb
000003d0: 5ca4 363d 3b51 e1bd 70c9 3e3d 1154 e33d
000003e0: 515b 6f3c 100a 1a3e 5bef 273b d140 02be
000003f0: a396 9ebd ce24 583d dd05 f4bd 38e8 d3bd

fc2.weight f4 [256, 260]
-0.26838976 0.05264106 -0.08241785 -0.10910826 -0.05066706 0.04422276 0.25796103 -0.06702156
-0.024030231 -0.15836799 0.018505108 0.18322413 0.039876264 -0.14203219 0.022828372 -0.35395232
-0.011455079 0.179153 0.0557943 -0.090772174 0.16959372 -0.42771107 -0.09017257 -0.075443484
-0.1208648 -0.09484199 0.11026519 -0.52552503 -0.3624549 0.02843191 -0.01883381 -0.064328454
0.2012297 0.027673054 -0.3408377 -0.09989256 -0.19892547 0.10333453 0.14600572 -0.5040884
-0.009932068 0.05155367 0.028641239 0.18662634 0.056035317 -0.21675794 -0.27277994 0.14746031
0.02797204 0.037519243 0.06684326 0.021969993 0.08070659 -0.24563359 0.14864935 0.14358968
0.12837744 0.05602748 -0.116247706 -0.007272081 -0.2675892 0.077282734 0.12910049 -0.14954108
0.16474669 -0.10101542 0.024020178 -0.10615848 0.020262515 0.00066157023 -0.08777903 -0.20065206
-0.10494637 -0.7448499 0.16983178 -0.09684428 -0.22377919 0.11618253 -0.16394258 0.015392598
0.09067993 0.06703744 -0.26792374 0.21942395 -0.40546978 -0.006561853 0.113215886 -0.05272029
0.03159969 0.12797779 0.023127293 -0.009365443 0.2483505 -0.121737994 -0.08067232 -0.63929665
-0.0986472 -0.0028963208 0.002427482 -0.024184292 -0.11779082 -0.2995783 -0.020075494 -0.3931824
-0.21570045 0.014835973 0.06558016 0.03629863 -0.21063015 -0.34501004 0.07220826 -0.093480445
0.009502214 -0.31220806 -0.122156076 -0.07769738 -0.030171964 0.033022597 0.10731579 0.017961428
0.08699944 0.07152156 0.20825934 -0.17416774 -0.36996123 0.06129201 -0.098938204 -0.1994046
-0.0952911 -0.14791828 -0.14349943 -0.12372526 -0.07199993 0.13852842 0.13888243 -0.019332897
0.015802195 -0.01942034 0.0017046962 0.07075068 0.20841572 0.08217045 -0.35028893 -0.07095679
0.029152779 0.08603579 -0.002033573 -0.024072776 -0.075906806 0.05957013 0.061786976 -0.4060039
0.025639387 0.09611956 0.07560763 -0.024517085 -0.07578702 0.11387897 0.11297275 -0.15723665
-0.18498473 0.09742857 -0.6402862 0.12123953 0.068089485 -0.06728674 -0.059010178 -0.3597179
-0.43671238 0.02164667 -0.031663194 -0.20258267 -0.64263934 -0.015896453 0.06701824 0.015836151
0.049123835 0.041066956 0.05580409 -0.102193356 -0.005155397 -0.13879018 -0.021390958 -0.47901323
-0.22584061 0.0056889146 0.019915763 -0.21348396 -0.3015063 -0.07214708 0.13335013 -0.26846555
-0.022222968 0.14225806 -0.006203892 0.034929756 -0.024509832 -0.066710494 -0.13696021 -0.10457155
-0.17086464 0.039607726 -0.13439631 -0.1876353 -0.3884742 -0.019722776 0.0022265841 0.058154862
-0.01013827 -0.055337522 0.13956487 -0.33398247 -0.25382593 0.17903273 -0.2051092 -0.010678962
-0.04589271 -0.00921279 0.018119024 0.19358516 -0.23253493 0.005042909 0.10025696 -0.37311068
0.047098342 -0.046367384 0.19649993 0.056279577 -0.005222896 0.111302115 -0.048907004 -0.17060019
-0.0882741 0.0647911 -0.030694835 -0.02311996 -0.3231784 -0.07139324 -0.10918966 0.0056418227
0.26885283 0.012366065 0.06561168 -0.16871642 0.08820108 0.2560605 -0.46206233 0.09008532
-0.28814223 -0.0060389726 -0.079645365 0.1213855 0.09361706 0.09755337 0.027412212 0.12743717
00000000: 626a 89be 279e 573d b1ca a8bd 2774 dfbd
00000010: 4388 4fbd ed22 353d 7813 843e 9a42 89bd
00000020: 0cdb c4bc 382b 22be 0698 973c 1b9f 3b3e
00000030: 4b55 233d e370 11be 9102 bb3c 3d39 b5be
00000040: 15ae 3bbc e273 373e 9088 643d c3e6 b9bd
00000050: faa9 2d3e f2fc dabe 65ac b8bd 1d82 9abd
00000060: f787 f7bd 843c c2bd b7d2 e13d cf88 06bf
00000070: b093 b9be 09ea e83c 5d49 9abc a3be 83bd
00000080: 290f 4e3e 9ab2 e23c 4782 aebe 7894 ccbd
00000090: 1eb3 4bbe 0ea1 d33d 8682 153e f00b 01bf
000000a0: 1dba 22bc f129 533d 08a1 ea3c fa1a 3f3e
000000b0: 4a85 653d cbf5 5dbe d0a9 8bbe d6ff 163e
000000c0: 9f25 e53c c7ad 193d 1ee5 883d 6afa b33c
000000d0: 7f49 a53d 5f87 7bbe 8937 183e 2c09 133e
000000e0: 6075 033e 127d 653d 4713 eebd a34a eebb
000000f0: 7401 89be 6946 9e3d eb32 043e 4c21 19be
00000100: 5bb3 283e 2ce1 cebd f7c5 c43c 9e69 d9bd
00000110: 93fd a53c 3a6d 2d3a 7ec5 b3bd bc77 4dbe
00000120: 1fee d6bd 7cae 3ebf 62e8 2d3e 4b56 c6bd
00000130: 5f26 65be 1bf1 ed3d 90e0 27be 3c31 7c3c
00000140: 66b6 b93d ed4a 893d 4d2d 89be acb0 603e
00000150: bc99 cfbe d004 d7bb bbdd e73d 3bf1 57bd
00000160: ad6e 013d 9c0c 033e 7375 bd3c 8471 19bc
00000170: 984f 7e3e c551 f9bd 8837 a5bd f2a8 23bf
00000180: 8b07 cabd 33d0 3dbb 6416 1f3b 231e c6bc
00000190: 503c f1bd 5462 99be 5d75 a4bc 344f c9be
000001a0: 94e0 5cbe 9512 733c e44e 863d dfad 143d
000001b0: 6eaf 57be 28a5 b0be ede1 933d ad72 bfbd
000001c0: 2daf 1b3c bcd9 9fbe f72c fabd ce1f 9fbd
000001d0: 322b f7bc b442 073d 62c8 db3d d823 933c
000001e0: c32c b23d e579 923d f041 553e 0759 32be
000001f0: 8f6b bdbe 550d 7b3d 1da0 cabd b830 4cbe
00000200: fb27 c3bd e477 17be 84f1 12be ab63 fdbd
00000210: b374 93bd 65da 0d3e 3237 0e3e 0660 9ebc
00000220: 9b73 813c 6817 9fbc 1d70 df3a bce5 903d
00000230: ee6a 553e fb48 a83d 1259 b3be cb51 91bd
00000240: cfd1 ee3c 8833 b03d b245 05bb 4534 c5bc
00000250: 0775 9bbd cfff 733d 5714 7d3d bedf cfbe
00000260: b109 d23c 55da c43d 2cd8 9a3d 0ed8 c8bc
00000270: 3a36 9bbd 6139 e93d 425e e73d a502 21be
00000280: a36c 3dbe a188 c73d cce9 23bf 6e4c f83d
00000290: 8072 8b3d a1cd 89bd a8b4 71bd f22c b8be
000002a0: c498 dfbe 5b54 b13c 44b1 01bd d571 4fbe
000002b0: 0384 24bf 4739 82bc dc40 893d d1ba 813c
000002c0: 1336 493d d335 283d d492 643d c04a d1bd
000002d0: 9bee a8bb 031f 0ebe 173c afbc 3941 f5be
000002e0: c342 67be 136a ba3b 6226 a33c 8a9b 5abe
000002f0: 095f 9abe d9c1 93bd f08c 083e 5174 89be
00000300: f10c b6bc 19ac 113e 054a cbbb 8112 0f3d
00000310: d8c8 c8bc 839f 88bd 4c3f 0cbe 9c29 d6bd
00000320: 24f7 2ebe b63b 223d 309f 09be 7823 40be
00000330: 17e6 c6be a991 a1bc e2eb 113b cb33 6e3d
00000340: fd1a 26bc 99a9 62bd 18ea 0e3e c0ff aabe
00000350: 79f5 81be 5b54 373e 2508 52be d0f6 2ebc
00000360: fff9 3bbd 3ef1 16bc 596e 943c 303b 463e
00000370: a31d 6ebe fd3e a53b 8553 cd3d 5d08 bfbe
00000380: 31ea 403d baeb 3dbd 4737 493e 6a85 663d
00000390: d424 abbb 5df2 e33d b652 48bd d1b1 2ebe
000003a0: 0dc9 b4bd 32b1 843d bc73 fbbc 1266 bdbc
000003b0: a477 a5be 9e36 92bd d49e dfbd 0adf b83b
000003c0: 14a7 893e 099b 4a3c 6b5f 863d ffc3 2cbe
000003d0: c5a2 b43d 5d1a 833e 6f93 ecbe a77e b83d
000003e0: 6187 93be 93e2 c5bb 1c1d a3bd f698 f83d
000003f0: 4dba bf3d 10ca c73d 938f e03c e47e 023e

fc2.bias f4 [256]
-0.15085083 0.14858577 -0.12812836 0.32123214 -0.08683402 0.121961944 0.099189915 0.047714796
0.06661014 0.1048682 0.18692929 0.0017119483 0.060569454 0.041201532 0.19203413 -0.012654413
-0.03650132 0.17105216 0.008061714 0.2567526 0.26719743 0.112486035 0.13261807 -0.071704574
0.0724471 0.07981717 0.030813375 0.13402475 0.059502464 0.0043499307 -0.091595545 -0.082892075
0.019485759 -0.0066344384 0.060918614 0.0109783495 -0.0030203343 -0.042109277 -0.060409456 0.09853529
0.06533685 -0.07224931 -0.007552456 -0.18869801 -0.07759789 0.04547422 -0.113367274 -0.015333504
0.049403775 -0.010803336 0.08913513 0.0029915678 -0.022361565 -0.06796103 -0.045156706 0.22886384
0.08392243 0.0045282426 -0.0059183515 0.011542877 -0.03910953 0.067291245 0.19137774 -0.027207851
0.06870534 0.11565091 0.20708632 -0.08519757 -0.02368864 0.3825814 0.21228142 -0.032800812
0.042549986 -0.04995629 0.2552156 0.08609116 -0.09216342 0.055965003 -0.07424748 0.08397012
-0.11999537 -0.02999755 -0.10832783 0.018321404 0.037965998 0.018755032 -0.11324116 0.11667788
-0.10863325 0.025127377 0.015025147 0.05805371 0.034385707 -0.08776859 0.03939638 -0.0052197464
0.15460712 0.021207435 -0.0072555575 -0.051795382 -0.015730863 -0.14135806 -0.1573997 0.09417618
0.10053903 0.026173454 0.040304128 -0.056507774 0.07768067 -0.08307469 -0.015607373 0.21586645
0.08333698 0.09829048 0.022547923 -0.011368195 0.13648543 0.009171634 0.020481106 0.07107528
0.07947134 -0.012817717 -0.14565162 -0.009745204 0.20561558 -0.03533834 -0.07219347 0.1737392
0.113815315 0.3274504 0.022131866 0.021321386 0.014780789 0.010522193 -0.038375273 -0.0046549374
-0.018718911 -0.053781867 0.31353444 -0.07257706 0.025284538 0.061384898 0.14634666 0.067131564
-0.031786438 -0.005780432 -0.055836186 -0.048408546 -0.15247713 0.06691849 0.021972695 0.17240293
0.015108485 -0.026077025 -0.04621603 0.06900188 -0.046183873 0.058838286 0.0068092514 -0.070535414
0.03520311 0.058776945 0.07971002 -0.055298164 0.009909637 0.036235962 -0.0019332293 -0.043012496
-0.02379295 0.26862463 -0.12487176 0.11060596 0.090727985 -0.09776769 -0.01828544 0.35233223
0.0026687065 0.20995656 -0.09174954 0.13236314 0.079086594 -0.007872912 0.09375989 0.20809053
-0.035263 -0.031365495 0.031442963 -0.02791155 0.024710217 -0.09769432 0.059447236 0.003356774
0.09753089 0.16838245 -0.010923983 -0.066830516 0.0057865214 0.023639519 -0.12301002 0.3933056
0.046853494 0.08091124 0.036203418 0.033717733 -0.0142661175 0.14958681 -0.03416676 0.041487258
-0.051687017 -0.013277117 -0.1134249 -0.046198275 0.19251984 -0.15124263 -0.15866934 0.10156951
-0.13204964 0.18162833 -0.084762774 0.15264945 -0.095931895 0.14666687 -0.054571144 -0.13937661
-0.053543217 0.0554875 -0.11448943 0.050928988 -0.033250485 0.09973929 0.01635442 -0.027260372
0.03393402 0.13118774 -0.10357684 -0.06092773 -0.13540417 -0.0667516 0.004922766 0.04361483
-0.02501365 -0.04272786 0.0069731097 0.14567319 -0.12175615 -0.010568211 -0.009578128 -0.08833053
-0.024220256 0.0005560316 0.10820515 -0.1077876 -0.033898737 0.1896711 -0.08173859 0.0050343275
00000000: a478 1abe de26 183e 1534 03be 8a78 a43e
00000010: 09d6 b1bd 2fc7 f93d 1524 cb3d 9770 433d
00000020: e66a 883d 24c5 d63d 646a 3f3e 7463 e03a
00000030: ad17 783d f0c2 283d 98a4 443e 7454 4fbc
00000040: 6882 15bd 4c28 2f3e 4715 043c 1475 833e
00000050: 1ace 883e 145f e63d 08cd 073e d9d9 92bd
00000060: 255f 943d 2f77 a33d 556c fc3c c93d 093e
00000070: dbb8 733d dd89 8e3b 7296 bbbd 52c3 a9bd
00000080: 99a0 9f3c b465 d9bb cc85 793d 89de 333c
00000090: cdf0 45bb c77a 2cbd e86f 77bd dfcc c93d
000000a0: 54cf 853d 72f7 93bd 987a f7bb 0d3a 41be
000000b0: a4eb 9ebd 2d43 3a3d 1a2d e8bd 6139 7bbc
000000c0: 9d5b 4a3d 7a00 31bc 7b8c b63d 2e0e 443b
000000d0: 9a2f b7bc 272f 8bbd 3df6 38bd 485b 6a3e
000000e0: 86df ab3d a761 943b bbee c1bb 561e 3d3c
000000f0: 5131 20bd fecf 893d 87f8 433e 00e3 debc
00000100: 63b5 8c3d 62da ec3d 700e 543e 107c aebd
00000110: ae0e c2bc b6e1 c33e 4d60 593e 255a 06bd
00000120: e548 2e3d f79e 4cbd 9eab 823e 9050 b03d
00000130: 2dc0 bcbd 8f3b 653d 100f 98bd 87f8 ab3d
00000140: 22c0 f5bd 6cbd f5bc fbda ddbd c516 963c
00000150: 3c82 1b3d 27a4 993c fbea e7bd d0f4 ee3d
00000160: 1c7b debd eed7 cd3c 092c 763c bac9 6d3d
00000170: 07d8 0c3d 05c0 b3bd 195e 213d 680a abbb
00000180: 5451 1e3e 37bb ad3c 07c0 edbb 6527 54bd
00000190: 03de 80bc 2bc0 10be 632d 21be 71df c03d
000001a0: 68e7 cd3d b669 d63c f115 253d b274 67bd
000001b0: 0b17 9f3d 1023 aabd 11b6 7fbc 180c 5d3e
000001c0: 94ac aa3d 854c c93d 6cb6 b83c aa41 3abc
000001d0: d6c2 0b3e 9f44 163c fec7 a73c eb8f 913d
000001e0: dfc1 a23d 6701 52bc b325 15be 59aa 1fbc
000001f0: e48c 523e efbe 10bd 2cda 93bd b0e8 313e
00000200: 0118 e93d 94a7 a73e e34d b53c 30aa ae3c
00000210: 1f2b 723c 4765 2c3c 642f 1dbd 7288 98bb
00000220: 6758 99bc 604a 5cbd 9687 a03e 48a3 94bd
00000230: 8521 cf3c bb6e 7b3d e6db 153e 467c 893d
00000240: 7f32 02bd c769 bdbb 7cb4 64bd 0a48 46bd
00000250: f722 1cbe 900c 893d 1500 b43c 658a 303e
00000260: 9489 773c 7c9f d5bc 054d 3dbd dc50 8d3d
00000270: 4d2b 3dbd 6a00 713d 2420 df3b df74 90bd
00000280: 2331 103d 18c0 703d 023f a33d 5480 62bd
00000290: 085c 223c 296c 143d 6964 fdba df2d 30bd
000002a0: 6fe9 c2bc 2b89 893e c4bc ffbd 6185 e23d
000002b0: 98cf b93d 6d3a c8bd 59cb 95bc e464 b43e
000002c0: 77e5 2e3b dafe 563e 2fe7 bbbd 348a 073e
000002d0: 27f8 a13d 63fd 00bc 2f05 c03d af15 553e
000002e0: ef6f 10bd 1b79 00bd 56ca 003d c3a6 e4bc
000002f0: 156d ca3c f613 c8bd f27e 733d 53fd 5b3b
00000300: 46be c73d 736c 2c3e 81fa 32bc 70de 88bd
00000310: dc9c bd3b aaa7 c13c adec fbbd 5a5f c93e
00000320: 73e9 3f3d cbb4 a53d 094a 143d 9b1b 0a3d
00000330: 6fbc 69bc 492d 193e 72f2 0bbd 8bee 293d
00000340: c4b5 53bd 4488 59bc 504b e8bd 673a 3dbd
00000350: ec23 453e 59df 1abe 377a 22be ad03 d03d
00000360: 0538 07be c7fc 393e 1b98 adbd 2350 1c3e
00000370: f177 c4bd d72f 163e fe85 5fbd beb8 0ebe
00000380: 2250 5bbd dc46 633d 6f79 eabd ea9a 503d
00000390: a931 08bd 1d44 cc3d b4f9 853c 2551 dfbc
000003a0: 66fe 0a3d 1456 063e 1820 d4bd 5b8f 79bd
000003b0: 64a7 0abe 10b5 88bd 274f a13b 77a5 323d
000003c0: 6de9 ccbc 6903 2fbd af7e e43b 5a2b 153e
000003d0: 4a5b f9bd 4a26 2dbc 95ed 1cbc a3e6 b4bd
000003e0: 8f69 c6bc a6c2 113a a99a dd3d bfbf dcbd
000003f0: 67d9 0abd 2439 423e 9066 a7bd 00f7 a43b

fc3.weight f4 [1, 256]
-0.06656019 0.024583291 -0.032604057 0.027097123 -0.032616526 0.027571976 0.03114444 -0.02714016
0.061083667 0.03995011 0.033410132 -0.051805638 -0.082999155 -0.049061596 0.021490289 -0.0734957
-0.05779844 -0.023409091 0.04916929 0.030796153 0.06222913 0.056501083 0.043439128 -0.060365643
0.044262324 -0.045611322 0.044056114 -0.04803623 0.053461585 -0.044453908 -0.044627126 -0.049977258
-0.004536848 -0.05717226 0.020176064 -0.04879825 0.07604182 -0.07269694 -0.068830684 0.04918572
0.049362317 -0.052405935 0.051974114 -0.08860437 -0.09245677 0.02488551 -0.059482604 -0.034803025
0.049853504 0.063080065 0.043217566 -0.066142134 0.068799086 -0.045762498 -0.055213343 0.049306706
0.04757818 -0.09099169 -0.056848407 -0.054290704 -0.029786743 -0.03445791 0.03593984 -0.14072323
-0.07894768 -0.024765754 0.05521962 -0.16427757 0.10067171 0.050319895 0.032488856 -0.0677684
0.030463912 -0.06212933 0.03717916 0.053424332 -0.04542455 -0.043926675 0.060509942 -0.03363795
-0.0630364 0.038424484 -0.07004901 0.035561956 0.047154695 -0.041962337 -0.049420297 0.028543739
-0.03626323 -0.046730142 -0.09067375 0.06690405 -0.054534927 -0.06702337 0.040696055 0.06260875
0.078088075 0.056480363 -0.051678278 -0.06692932 -0.063099064 0.078270406 -0.05208819 0.04205581
-0.023385737 0.025341362 0.042749435 -0.107032135 0.034045845 0.044072904 -0.04554269 0.0173042
0.04954971 0.028093789 -0.042837206 0.072248735 0.03459758 0.07374951 -0.06377326 -0.040491674
-0.040328883 0.11775208 -0.071852244 -0.03858358 0.016352097 0.059805952 -0.042554542 -0.035266217
0.0361381 0.10463678 -0.05347578 -0.07218469 0.033959694 -0.0591319 -0.061003294 -0.06760944
-0.04086765 -0.043380708 0.077472575 -0.027185334 0.07522861 0.052110333 0.03824057 0.013694943
0.056906186 -0.04787003 -0.06779431 -0.04121699 -0.034966066 0.03483145 -0.071562134 0.07261792
-0.04317595 0.047672044 -0.020241132 0.015334427 -0.04391578 0.050122373 0.071668744 -0.064107575
-0.049836766 -0.073053434 0.043446958 -0.09513936 -0.039831087 0.051733773 -0.04244521 0.034868523
-0.06570547 0.042263843 -0.06956227 0.05174975 -0.077549 -0.03937177 0.044741258 0.025179407
-0.02882218 0.030374443 -0.09324617 0.033036675 0.03848898 -0.053085838 0.032398496 0.05437995
0.09625538 -0.03582407 -0.040573355 0.054932617 -0.055847388 -0.06209082 0.04534335 -0.08772312
0.042496994 0.048318747 -0.048677087 -0.03491836 0.059980597 -0.031057859 -0.10676084 0.03155179
-0.07288601 0.05811563 -0.06911724 0.02628223 -0.12464153 0.045881037 -0.06716329 -0.050009675
-0.032562777 -0.067138314 -0.0813375 -0.05544576 0.025167534 -0.07784921 -0.11062472 0.033735193
-0.07717319 0.029243434 -0.07351549 0.052139625 -0.07563578 0.052515443 -0.03484873 -0.047933128
-0.05394232 -0.042441625 -0.09165292 -0.041732445 -0.10504747 0.055924445 0.034324463 0.040893417
0.04270299 -0.04874467 -0.10894199 -0.048356805 -0.062396605 -0.032086343 -0.05835423 0.029954793
-0.03708582 -0.066606395 -0.032544993 0.028727686 -0.054695867 -0.039016284 -0.07607765 -0.05230515
-0.052274432 -0.06699792 0.007856586 -0.14589307 -0.07081478 0.042018037 -0.037065413 -0.035966333
00000000: b550 88bd e662 c93c d58b 05bd c9fa dd3c
00000010: e898 05bd a0de e13c a022 ff3c 0a55 debc
00000020: de32 7a3d baa2 233d 10d9 083d 2632 54bd
00000030: 76fb a9bd d0f4 48bd 670c b03c ea84 96bd
00000040: 0fbe 6cbd 6cc4 bfbc bd65 493d 3748 fc3c
00000050: f9e3 7e3d ae6d 673d 3aed 313d f741 77bd
00000060: 694c 353d f0d2 3abd 2f74 343d a3c1 44bd
00000070: 89fa 5a3d 4d15 36bd efca 36bd f4b4 4cbd
00000080: d7a9 94bb 762d 6abd 4648 a53c ace0 47bd
00000090: d0bb 9b3d 22e2 94bd 1af7 8cbd f776 493d
000000a0: 2430 4a3d 9ba7 56bd cfe2 543d 3576 b5bd
000000b0: fa59 bdbd b2dc cb3c 08a4 73bd 9e8d 0ebd
000000c0: 3033 4c3d 1f30 813d e704 313d 8775 87bd
000000d0: 89e6 8c3d 7571 3bbd 6327 62bd d4f5 493d
000000e0: 56e1 423d da59 babd e0d9 68bd ee5f 5ebd
000000f0: 5403 f4bc bd23 0dbd a735 133d c019 10be
00000100: 52af a1bd 8de1 cabc f82d 623d 6138 28be
00000110: f82c ce3d 3c1c 4e3d 0913 053d 29ca 8abd
00000120: 748f f93c 537b 7ebd 2d49 183d 79d3 5a3d
00000130: 180f 3abd 75ec 33bd 46d9 773d f2c7 09bd
00000140: 3a19 81bd fe62 1d3d db75 8fbd 6aa9 113d
00000150: 4825 413d b3e0 2bbd f06c 4abd 8fd4 e93c
00000160: c188 14bd 1b68 3fbd 29b3 b9bd fe04 893d
00000170: 0460 5fbd 8c43 89bd e8b0 263d 0439 803d
00000180: a4ec 9f3d f457 673d 9aac 53bd 3d12 89bd
00000190: 153a 81bd 3c4c a03d 6d5a 55bd b742 2c3d
000001a0: 7293 bfbc b098 cf3c 081a 2f3d aa33 dbbd
000001b0: a873 0b3d ca85 343d f98a 3abd 8ac1 8d3c
000001c0: a3f4 4a3d f224 e63c 1176 2fbd 25f7 933d
000001d0: 31b6 0d3d fc09 973d 8e9b 82bd 99da 25bd
000001e0: e62f 25bd 0128 f13d 4527 93bd d109 1ebd
000001f0: d5f4 853c 16f7 743d ac4d 2ebd 4f73 10bd
00000200: 8b05 143d cf4b d63d 6b09 5bbd 91d5 93bd
00000210: 5219 0b3d 4b34 72bd 97de 79bd d176 8abd
00000220: d664 27bd f8af 31bd f1a9 9e3d c7b3 debc
00000230: 7511 9a3d a571 553d 25a2 1c3d c160 603c
00000240: 7616 693d 5d13 44bd bed7 8abd 26d3 28bd
00000250: 9438 0fbd 6cab 0e3d 2b8f 92bd b4b8 943d
00000260: 44d9 30bd c343 433d bbd0 a5bc 403d 7b3c
00000270: 08e1 33bd 1e4d 4d3d 10c7 923d d54a 83bd
00000280: a321 4cbd 0a9d 95bd 70f5 313d 6dd8 c2bd
00000290: ec25 23bd cbe6 533d 07db 2dbd 4cd2 0e3d
000002a0: 9790 86bd da1c 2d3d aa76 8ebd 8cf7 533d
000002b0: 03d2 9ebd 4b44 21bd 9c42 373d 0b45 ce3c
000002c0: 7e1c ecbc d3d3 f83c d9f7 bebd 7751 073d
000002d0: 9fa6 1d3d 8970 59bd 49b4 043d 83bd 5e3d
000002e0: 8a21 c53d 43bc 12bd 3f30 26bd 0601 613d
000002f0: 3bc0 64bd f252 7ebd f3b9 393d 2ea8 b3bd
00000300: 5411 2e3d e1e9 453d a061 47bd 8e06 0fbd
00000310: 37ae 753d 0d6d febc 6da5 dabd 733c 013d
00000320: 4345 95bd a80a 6e3d 578d 8dbd d54d d73c
00000330: 0f44 ffbd c1ed 3b3d e88c 89bd f2d6 4cbd
00000340: 8c60 05bd d07f 89bd 4694 a6bd 181b 63bd
00000350: 252c ce3c 686f 9fbd 378f e2bd ea2d 0a3d
00000360: fa0c 9ebd ed8f ef3c 4a8f 96bd 5c90 553d
00000370: efe6 9abd 6f1a 573d 8bbd 0ebd 8755 44bd
00000380: 9ff2 5cbd 45d7 2dbd 87b4 bbbd a4ef 2abd
00000390: 2123 d7bd 0811 653d cf97 0c3d db7f 273d
000003a0: 55e9 2e3d 7ea8 47bd fa1c dfbd c911 46bd
000003b0: 9593 7fbd f86c 03bd d804 6fbd c163 f53c
000003c0: 4de7 17bd ef68 88bd e64d 05bd 5356 eb3c
000003d0: c608 60bd 8acf 1fbd 99ce 9bbd ed3d 56bd
000003e0: b71d 56bd 3536 89bd e9b8 003c fe64 15be
000003f0: 5707 91bd 1b1b 2c3d e7d1 17bd 6f51 13bd

bn1.weight f4 [256]
0.5747559 0.5256776 0.4928479 0.5622055 0.35234684 0.4725142 0.83252335 0.32484698
0.54132026 0.5475316 0.743426 0.5464193 0.36902392 0.64409435 1.1287326 0.5390486
0.590938 0.4929293 0.4777392 0.54244167 0.3621015 1.004762 0.52446836 0.5240996
0.45963606 0.61570877 0.43636397 0.6908434 0.53105813 0.53745055 0.2991047 0.55345875
0.41921017 0.6441331 0.6431669 0.49821797 0.6782722 0.61815614 0.44746146 0.5753157
0.91076696 0.5295953 0.3911126 0.5985344 0.62809575 0.47454813 0.67985123 0.32587817
0.28426367 0.8149911 0.7071097 0.51739943 0.43250248 0.546743 0.5861269 0.43535766
0.4103178 0.4577304 0.3497032 0.29968226 0.7639684 0.4010729 0.3896423 0.59498066
0.67892456 0.721272 0.5158339 0.46897414 0.4622619 0.2698407 0.6139636 0.48061022
0.58440095 0.7481783 0.7982467 0.5536423 0.70781547 0.6193361 0.5767936 0.675469
0.46312395 0.3435403 0.43242583 0.6962791 0.34991613 0.49697435 0.4640062 0.51220995
0.42033085 0.33645442 0.4340289 0.3523222 0.6459352 0.4298433 0.30458593 0.7686915
0.647677 0.56598365 0.3583797 0.46617433 0.3072498 0.38258067 0.6310555 0.45078012
0.76367205 0.86761135 0.72465503 0.42378327 0.43761417 0.44909647 0.36056516 0.5715061
0.50483227 0.34913763 0.6478026 0.5037301 0.43329862 0.56551224 0.7871332 -0.00046510174
0.7137354 0.7237316 0.42967108 0.7384331 0.5208457 0.8183577 0.39773312 0.49766847
0.31025043 0.5391135 0.4599328 0.60520613 0.92591155 0.5772182 0.37120187 0.6191276
0.65270865 0.43998098 0.40870756 0.85508883 0.73431027 -0.36251643 0.79132813 0.7227501
0.5219509 0.78432995 0.46013635 0.5874616 0.5370161 0.45490128 0.5628628 0.69249946
0.59686774 0.6070589 0.41710562 0.3262915 0.33691752 0.3420441 0.539218 0.4995137
0.6732385 0.4856168 0.6099954 0.4457857 0.6858069 0.6063917 -8.1946404e-05 0.44753063
0.99070936 0.42944896 0.39276916 0.4795277 0.86625 0.38496003 0.62895703 0.5356949
0.89391685 0.4526765 0.43368313 0.3937567 0.3517855 0.43524197 0.7271811 0.5242808
0.5347049 0.26318708 0.558341 0.70909566 0.3920206 0.36655748 0.3939648 0.49605957
0.5023244 0.45803258 0.64299107 0.9478223 0.6830316 0.6512013 0.3588143 0.5851564
0.549197 0.3645723 0.67622244 0.9349651 0.5600631 -0.33218917 0.6166777 0.5039712
0.47707245 0.5387222 0.49830565 0.49512824 0.54612887 0.3988722 0.5563672 0.51397073
1.2580377 0.7913983 0.47150996 0.52904934 0.46180528 0.63117754 0.34481576 0.84421986
0.4292846 0.6156909 0.41321337 0.36406612 0.60779446 0.4307841 0.5804126 0.3983823
0.437833 0.3607799 0.00064053235 0.5324371 0.6434704 0.30538863 0.2892377 0.5323715
0.55349237 0.46659043 0.3929032 0.3981286 0.79104865 0.36154538 0.4452582 0.5275399
0.49016857 0.3793434 0.50064224 0.35674068 0.7593524 0.61769825 0.5346894 0.59612316
00000000: 3423 133f cf92 063f 8f56 fc3e b3ec 0f3f
00000010: ce66 b43e 62ed f13e 4020 553f 5852 a63e
00000020: f793 0a3f 082b 0c3f 2b51 3e3f 23e2 0b3f
00000030: b4f0 bc3e 5ee3 243f 4f7a 903f 17ff 093f
00000040: b647 173f 3b61 fc3e 3c9a f43e 75dd 0a3f
00000050: 5e65 b93e 0b9c 803f 8f43 063f 642b 063f
00000060: 6b55 eb3e 179f 1d3f 196b df3e 1ddb 303f
00000070: 6df3 073f 5c96 093f 4024 993e 79af 0d3f
00000080: b7a2 d63e e8e5 243f 96a6 243f 6d16 ff3e
00000090: 3fa3 2d3f 7b3f 1e3f ab19 e53e e447 133f
000000a0: 0628 693f 8f93 073f e93f c83e 8d39 193f
000000b0: e2ca 203f f9f7 f23e bb0a 2e3f 81d9 a63e
000000c0: 028b 913e 42a3 503f 2405 353f 4a74 043f
000000d0: f770 dd3e 59f7 0b3f 6a0c 163f 33e7 de3e
000000e0: 2d15 d23e a45b ea3e 4c0c b33e f46f 993e
000000f0: 6f93 433f 6d59 cd3e 327f c73e a750 183f
00000100: 00ce 2d3f 48a5 383f b10d 043f 611d f03e
00000110: 97ad ec3e 8f28 8a3e b82c 1d3f 8b12 f63e
00000120: 4d9b 153f 9d88 3f3f e559 4c3f 80bb 0d3f
00000130: 6533 353f d08c 1e3f bfa8 133f 89eb 2c3f
00000140: 951e ed3e 84e4 af3e eb66 dd3e 593f 323f
00000150: 3528 b33e 6c73 fe3e 3892 ed3e 3120 033f
00000160: 9b35 d73e c143 ac3e 0939 de3e 9363 b43e
00000170: 025c 253f 6c14 dc3e b0f2 9b3e f7c8 443f
00000180: 29ce 253f 4ee4 103f 8b7d b73e 67ae ee3e
00000190: d94f 9d3e 9de1 c33e da8c 213f a7cc e63e
000001a0: 0380 433f c71b 5e3f fe82 393f 1ffa d83e
000001b0: f70e e03e f9ef e53e ff9b b83e 394e 123f
000001c0: b03c 013f 2bc2 b23e 64d6 253f 75f4 003f
000001d0: 51d9 dd3e 69c5 103f 9081 493f e6d8 f3b9
000001e0: 5db7 363f 7946 393f d9fd db3e f409 3d3f
000001f0: 2556 053f e47f 513f ada3 cb3e 67ce fe3e
00000200: 25d9 9e3e 5803 0a3f 507c eb3e caee 1a3f
00000210: 8a08 6d3f 92c4 133f 2c0e be3e 257f 1e3f
00000220: ea17 273f 3045 e13e 1e42 d13e 1ae7 5a3f
00000230: c2fb 3b3f c19b b9be 7b94 4a3f 2706 393f
00000240: 939e 053f d9c9 483f fe96 eb3e e263 163f
00000250: e379 093f d2e8 e83e c717 103f a547 313f
00000260: 53cc 183f 3668 1b3f de8e d53e ae0f a73e
00000270: 7480 ac3e 6720 af3e 310a 0a3f 42c0 ff3e
00000280: 5c59 2c3f c4a2 f83e a928 1c3f 063e e43e
00000290: 0a91 2f3f 7d3c 1b3f a4da abb8 bc22 e53e
000002a0: 219f 7d3f bce0 db3e 0a19 c93e a884 f53e
000002b0: 8fc2 5d3f 7b19 c53e 5403 213f 4d23 093f
000002c0: bcd7 643f 37c5 e73e b70b de3e 7a9a c93e
000002d0: 3b1d b43e 09d8 de3e 8a28 3a3f 4437 063f
000002e0: 6ce2 083f 75c0 863e 70ef 0e3f 4b87 353f
000002f0: edb6 c83e 6cad bb3e c1b5 c93e 85fb fd3e
00000300: 5598 003f 3f83 ea3e 109b 243f 7ba4 723f
00000310: 29db 2e3f 21b5 263f 82b6 b73e cfcc 153f
00000320: 2d98 0c3f 38a9 ba3e ea1c 2d3f df59 6f3f
00000330: 4c60 0f3f b314 aabe 97de 1d3f 4204 013f
00000340: d742 f43e b3e9 093f eb21 ff3e 7381 fd3e
00000350: 1acf 0b3f fa38 cc3e 156e 0e3f 9693 033f
00000360: 6107 a13f 1499 4a3f c169 f13e c76f 073f
00000370: be71 ec3e da94 213f b18b b03e cb1e 583f
00000380: 31cb db3e eb9d 1d3f b490 d33e e066 ba3e
00000390: 6b98 1b3f bc8f dc3e ec95 143f c4f8 cb3e
000003a0: a62b e03e 25b8 b83e 66e9 273a cc4d 083f
000003b0: 7aba 243f e65b 9c3e f716 943e 8049 083f
000003c0: adb1 0d3f f1e4 ee3e 9c2a c93e 83d7 cb3e
000003d0: 2a82 4a3f 7a1c b93e e2f8 e33e db0c 073f
000003e0: 60f7 fa3e 4c39 c23e 172a 003f b7a6 b63e
000003f0: eb64 423f 7921 1e3f 68e1 083f 879b 183f

bn1.bias f4 [256]
-0.087892644 -0.20724173 -0.24772248 -0.3342143 -0.07121912 -0.21613392 -0.30923787 -0.11351332
-0.30494568 -0.23626731 -0.2007112 -0.25575763 -0.08747151 -0.16571283 -0.11045365 -0.033896465
-0.26076776 -0.09874505 -0.29992288 -0.05364029 -0.13535196 -0.2719099 -0.06829148 -0.13008201
-0.20364338 -0.099734485 -0.16026844 -0.19458781 -0.015821708 -0.27388903 -0.12392986 -0.22755454
-0.20017485 -0.4784079 -0.26952538 -0.267041 -0.27645618 -0.1567176 -0.17735401 -0.40253854
-0.17233318 -0.11136217 -0.0028207987 -0.12313288 -0.19538195 -0.3091481 -0.38253975 -0.11187409
-0.06258596 -0.13126493 -0.21155342 -0.10049198 -0.15203711 -0.20247194 -0.26124907 -0.26765743
-0.0781278 -0.23334022 -0.09117211 -0.04481254 -0.56006163 -0.09014003 -0.11546176 -0.3253363
-0.36297375 -0.2823539 -0.20181015 -0.19160056 -0.03953675 -0.015994908 -0.38836187 -0.21662244
-0.1926279 -0.2678962 -0.16331595 -0.27627 -0.3332889 -0.20991573 -0.3020443 -0.19483788
-0.21144752 -0.012564952 -0.13081558 -0.49583146 -0.094603196 -0.20147964 -0.18188125 -0.38457963
-0.22102235 -0.2157877 -0.15199621 -0.014854286 -0.329713 -0.10915796 -0.20341332 -0.107137926
-0.30523616 -0.01776991 -0.16483894 -0.0313083 -0.1858082 -0.39810848 -0.25271055 -0.18697765
-0.269121 -0.33962923 -0.25080147 -0.068188004 -0.13121724 -0.21015464 -0.03412313 -0.18884523
-0.22493894 -0.10442052 -0.2933792 -0.10788926 -0.18083104 -0.17199674 -0.08197226 -0.00367293
-0.19141746 -0.20417263 -0.18879303 -0.24783693 -0.19136257 -0.4223007 -0.1389598 -0.18665428
-0.012948589 -0.2350612 -0.10464255 -0.16660541 -0.36770108 -0.36062604 -0.23147035 -0.38484985
-0.26075423 -0.10633214 -0.2129068 -0.15042605 -0.3191852 -0.21946582 -0.4782005 -0.22444402
-0.16304575 -0.24321079 -0.019307466 -0.24232411 -0.23861477 -0.22774988 -0.25188068 -0.41740173
-0.27900782 -0.09773402 -0.3345961 -0.09661322 -0.18535778 -0.098731816 -0.16254559 -0.2571078
-0.3596389 -0.24167234 -0.01729512 -0.24429391 -0.16682221 -0.25382832 -0.00077082077 -0.07205163
-0.10801661 -0.17051679 -0.25782874 -0.0834467 -0.4939714 -0.18367817 -0.2780641 -0.17097008
-0.3008789 -0.18667825 -0.26362354 -0.22502741 -0.094252944 -0.104620956 -0.37054953 -0.16248623
-0.088589035 -0.007111408 -0.2167752 -0.13523461 -0.18519212 -0.128135 -0.093753144 -0.33273628
-0.22071284 -0.055639423 -0.23401763 -0.22550249 -0.25283593 -0.23568115 -0.19825605 -0.28797582
-0.26365846 -0.006186992 -0.26634243 -0.53043026 -0.19115151 -0.027812226 -0.17546655 -0.24383524
-0.13933015 -0.33755168 -0.29391786 -0.23738596 -0.38085055 -0.12145203 -0.37689033 -0.34507552
-0.2155563 -0.31001633 -0.108414926 -0.20914125 -0.08585941 -0.21342903 -0.008764042 -0.24754573
-0.15715891 0.0050112177 -0.043836247 -0.12187033 -0.14256217 -0.13819398 -0.11594737 -0.09359635
-0.26799428 -0.058817826 -0.004452607 0.038395382 -0.23997161 -0.038885392 -0.08470681 -0.17408592
-0.10221175 -0.1942853 -0.03212314 -0.036671102 -0.20888136 -0.07123135 -0.049068786 0.002355163
-0.16382654 -0.09796963 -0.15568784 -0.15292355 -0.045248374 -0.112737365 -0.1082092 -0.15621844
00000000: 0f01 b4bd 2d37 54be f6aa 7dbe 231e abbe
00000010: 54db 91bd 3652 5dbe 6d54 9ebe ac79 e8bd
00000020: d721 9cbe 0ff0 71be 3d87 4dbe aaf2 82be
00000030: 4324 b3bd a0b0 29be 8635 e2bd 05d7 0abd
00000040: 5a83 85be d83a cabd 7e8f 99be ecb5 5bbd
00000050: b499 0abe c637 8bbe 67dc 8bbd 3834 05be
00000060: e487 50be 9841 ccbd 691d 24be 0742 47be
00000070: 879c 81bc 2f3b 8cbe f0ce fdbd 0f04 69be
00000080: a3fa 4cbe e1f1 f4be 3bff 89be 99b9 88be
00000090: aa8b 8dbe 947a 20be 4a9c 35be 8819 cebe
000000a0: 1c78 30be d911 e4bd 26dd 38bb 172d fcbd
000000b0: 3512 48be a948 9ebe 40dc c3be 3e1e e5bd
000000c0: 112d 80bd 506a 06be 76a1 58be bdce cdbd
000000d0: 9eaf 1bbe ce54 4fbe 70c2 85be 650a 89be
000000e0: 7801 a0bd bdf0 6ebe 71b8 babd 5b8d 37bd
000000f0: 3360 0fbf 569b b8bd 3777 ecbd 7b92 a6be
00000100: b2d7 b9be b190 90be 52a7 4ebe f032 44be
00000110: 4af1 21bd c107 83bc 5ed7 c6be 46d2 5dbe
00000120: 4040 45be b129 89be 4c3c 27be 4373 8dbe
00000130: d8a4 aabe 26f4 56be 8da5 9abe 9583 47be
00000140: b385 58be 3add 4dbc 85f4 05be 9fdd fdbe
00000150: 52bf c1bd ae50 4ebe 143f 3abe 9fe7 c4be
00000160: af53 62be 73f7 5cbe e5a4 1bbe 645f 73bc
00000170: 24d0 a8be 358e dfbd 954b 50be 216b dbbd
00000180: ea47 9cbe 3492 91bc 8acb 28be 223d 00bd
00000190: 8144 3ebe e0d4 cbbe 4763 81be 1277 3fbe
000001a0: 3aca 89be e2e3 adbe 0d69 80be 27a6 8bbd
000001b0: d05d 06be c732 57be b2c4 0bbd a560 41be
000001c0: 6556 66be 6dda d5bd cc35 96be 0bf5 dcbd
000001d0: c62b 39be ea1f 30be 12e1 a7bd 8ab5 70bb
000001e0: f002 44be a112 51be f652 41be f7c8 7dbe
000001f0: 8df4 43be cc37 d8be 7a4b 0ebe 4d22 3fbe
00000200: 5226 54bc e2b3 70be d54e d6bd 9c9a 2abe
00000210: 5143 bcbe faa3 b8be 9006 6dbe 0a0b c5be
00000220: 9481 85be aac4 d9bd 3d04 5abe 4909 1abe
00000230: 3e6c a3be a6bb 60be b2d6 f4be a7d4 65be
00000240: 77f5 26be 400c 79be b12a 9ebc d023 78be
00000250: 6e57 74be 4437 69be 81f6 80be aeb5 d5be
00000260: 1dda 8ebe c628 c8bd 2e50 abbe 27dd c5bd
00000270: 6ece 3dbe e833 cabd 5a72 26be a2a3 83be
00000280: 9722 b8be f478 77be 7fae 8dbc 2f28 7abe
00000290: 71d3 2abe c9f5 81be e810 4aba ce8f 93bd
000002a0: d037 ddbd f49b 2ebe 2102 84be 1ae6 aabd
000002b0: d2e9 fcbe 2116 3cbe 6b5e 8ebe c812 2fbe
000002c0: cd0c 9abe 9528 3fbe aaf9 86be 966d 66be
000002d0: b007 c1bd 8343 d6bd abb8 bdbe ca62 26be
000002e0: 2b6e b5bd d006 e9bb 51fa 5dbe f17a 0abe
000002f0: 01a3 3dbe d235 03be a601 c0bd 695c aabe
00000300: 8c02 62be 2ae6 63bd 51a2 6fbe 20ea 66be
00000310: b673 81be 6656 71be a203 4bbe 9171 93be
00000320: 3efe 86be 40bc cabb 095e 88be 47ca 07bf
00000330: 39bd 43be 77d6 e3bc 81ad 33be f2af 79be
00000340: 90ac 0ebe 93d3 acbe 677c 96be 4e15 73be
00000350: d8fe c2be d8bb f8bd c5f7 c0be bdad b0be
00000360: caba 5cbe 76ba 9ebe a508 debd 2029 56be
00000370: 0fd7 afbd 248d 5abe 0e97 0fbc a17c 7dbe
00000380: 44ee 20be 2435 a43b a38d 33bd 2797 f9bd
00000390: d1fb 11be b982 0dbe d175 edbd 71af bfbd
000003a0: 8c36 89be f6ea 70bd 2de7 91bb 7a44 1d3d
000003b0: 1ebb 75be 4a46 1fbd c47a adbd 9443 32be
000003c0: 6554 d1bd baf2 46be 8e93 03bd 7034 16bd
000003d0: ffe4 55be bee1 91bd 5afc 48bd 1459 1a3b
000003e0: 25c2 27be 4da4 c8bd a26c 1fbe fe97 1cbe
000003f0: 5c56 39bd d9e2 e6bd c99c ddbd baf7 1fbe

bn1.running_mean f4 [256]
0.41330078 0.63264376 1.1412745 0.76274806 -0.5113893 0.031152563 0.17151095 -0.102800824
0.20483895 -0.07181308 -0.45680097 -0.55198985 -0.38839084 -0.03923562 0.44378737 0.12650454
0.23654588 0.035216294 0.07332537 -0.34733066 -0.12176197 -0.02891824 1.0104325 0.11105447
-0.18393108 0.12495184 0.077512 -0.20944074 0.5462841 -0.25408623 -0.42317426 0.11022402
0.14159231 -1.0903742 -0.2824257 -0.39241782 -0.055442106 -0.25012192 -0.030550664 -0.3508666
0.015685804 -0.51559347 0.5129298 -0.22161092 0.22400773 -0.2716994 -0.30099627 -0.25029507
0.2581021 0.27863896 0.09045518 0.17827119 -0.19806612 -0.42660993 0.14144823 0.011610067
-0.17947277 0.51562405 -0.9614888 -0.016014405 -0.3422773 -0.59450483 -0.03946161 -0.1657774
-0.74873304 0.3039917 -0.36480856 -0.050752033 0.07976813 -0.024227332 -0.19453128 -0.50441694
0.18822299 -0.0040339683 0.047926463 -0.5292923 -0.047025822 0.27656183 0.79891956 0.02595151
0.027596489 -0.12334688 -0.5528894 0.19182256 0.08305687 0.7447205 -0.70148754 -0.06329387
-0.08198972 0.33278736 -0.09844664 0.38927203 -0.4306122 0.03483224 0.85470194 0.17152639
0.59224653 -0.7860146 -0.06665351 0.5213278 0.13367116 0.18913937 0.32222113 0.3668559
-0.34824434 0.13569312 0.015048732 0.22609094 -0.5332475 0.5397014 0.3917371 -0.05181657
-0.39765346 -0.2584063 0.14936274 -0.05947402 0.05387674 0.2245733 -0.20610845 -0.04561644
0.22094788 0.9321469 -0.10939778 0.24247052 -0.43332273 -0.0076992665 -0.53576106 -0.057130404
0.02315296 -0.2830435 0.47554004 -0.46483195 0.10137271 -0.61814624 -0.15795799 -0.43575564
-0.010441628 -0.8530221 0.03611457 -0.050829295 -0.69776875 -0.34200335 -0.21906027 0.002219044
-0.049763337 0.17027825 0.22360408 0.17540912 0.27408093 -0.71545035 0.115748174 0.3415473
-0.28510332 -0.19353177 -0.5688101 -0.0055357353 -0.7251802 0.2729135 -0.72969043 -0.4248618
-0.22866371 0.8406102 -0.02158665 -0.33252746 0.452299 -0.18004408 0.2592238 0.23422332
0.19822858 0.23082088 0.34537274 0.51619333 -0.67575485 -0.42623103 -0.4674867 -0.6440206
-0.19479746 -0.0033468283 0.48101172 -0.41113946 -0.5745459 -0.024165224 0.94693345 0.29950577
-0.29409906 0.76685566 0.01893631 0.45009935 0.091575325 -0.41977885 0.17271845 -0.89651555
-0.31797668 -0.15895501 -0.434579 0.12470524 0.02570286 0.56936824 -0.49313736 -0.39755154
0.33502766 0.57170725 -0.28776217 -0.3487328 -0.9002296 -0.44287634 0.0870636 -0.6277004
0.63743126 -0.10645754 0.11948844 -0.30903953 -0.34846056 -0.26465347 -0.6956107 0.22821918
0.39078352 -0.22839388 -0.32081538 0.028911307 -0.15810058 0.91220415 0.16966832 0.2736039
0.4400863 0.21708691 0.21336073 -0.12259371 -0.27851486 0.51850736 0.10688544 0.08218725
-0.45782268 0.4083434 0.11630712 -0.2284928 0.037336715 0.38827285 -0.6209582 -0.56238806
-0.4799085 -0.102061264 -0.2910009 0.017968686 0.20176728 -0.8396177 -0.6477404 -0.13759
-0.46107197 0.11797073 0.5247018 -0.40596688 0.52643245 0.71429104 -0.26048785 -0.067282654
00000000: 299c d33e f1f4 213f 4815 923f 7543 433f
00000010: 69ea 02bf a933 ff3c 91a0 2f3e 3d89 d2bd
00000020: 4dc1 513e bc12 93bd d1e1 e9be 354f 0dbf
00000030: 2adb c6be 88b5 20bd 1938 e33e 688a 013e
00000040: 1539 723e f63e 103d 9d2b 963d 53d5 b1be
00000050: 575e f9bd f2e5 ecbc da55 813f 8770 e33d
00000060: 6e58 3cbe c0e6 ff3d 9dbe 9e3d a277 56be
00000070: 46d9 0b3f 9717 82be 4caa d8be 22bd e13d
00000080: 93fd 103e 6291 8bbf 1a9a 90be fdea c8be
00000090: 4317 63bd fb0f 80be 6345 fabc c9a4 b3be
000000a0: 847f 803c effd 03bf 5e4f 033f f9ed 62be
000000b0: 4862 653e 2f1c 8bbe 2f1c 9abe ad26 80be
000000c0: f525 843e c4a9 8e3e 9140 b93d b98c 363e
000000d0: d8d1 4abe 9e6c dabe ced7 103e 2738 3e3c
000000e0: b6c7 37be f0ff 033f 2124 76bf a430 83bc
000000f0: f83e afbe 7831 18bf 7fa2 21bd 8dc1 29be
00000100: f8ac 3fbf cda4 9b3e 30c8 babe 5de1 4fbd
00000110: 795d a33d 6678 c6bc 3533 47be 7821 01bf
00000120: 87bd 403e 612f 84bb 8a4e 443d b37f 07bf
00000130: 269e 40bd 8399 8d3e fe85 4c3f 4398 d43c
00000140: 0812 e23c 4a9d fcbd 298a 0dbf 226d 443e
00000150: b819 aa3d 01a6 3e3f b094 33bf 37a0 81bd
00000160: 3aea a7bd 1b63 aa3e 649e c9bd aa4e c73e
00000170: 3479 dcbe 40ac 0e3d bfcd 5a3f 9da4 2f3e
00000180: 789d 173f 4138 49bf a381 88bd bd75 053f
00000190: 18e1 083e c0ad 413e 2bfa a43e 89d4 bb3e
000001a0: 154d b2be 23f3 0a3e f58e 763c 6284 673e
000001b0: e882 08bf df29 0a3f c491 c83e 9d3d 54bd
000001c0: 3c99 cbbe d54d 84be 8cf2 183e 089b 73bd
000001d0: dbad 5c3d 8bf6 653e 180e 53be 4ed8 3abd
000001e0: 2940 623e 2ea1 6e3f f10b e0bd 314a 783e
000001f0: 7adc ddbe 214a fcbb a327 09bf 9201 6abd
00000200: 47ab bd3c 14eb 90be fc79 f33e 74fe edbe
00000210: 7f9c cf3d d53e 1ebf bdbf 21be 5d1b dfbe
00000220: 5d13 2bbc a85f 5abf dfec 133d 6132 50bd
00000230: f9a0 32bf 101b afbe 5651 60be 616d 113b
00000240: a4d4 4bbd 6c5d 2e3e 78f8 643e 739e 333e
00000250: 5654 8c3e c127 37bf 610d ed3d 4adf ae3e
00000260: 10f9 91be 312d 46be 8a9d 11bf 1d65 b5bb
00000270: 69a5 39bf 51bb 8b3e fecc 3abf 7c87 d9be
00000280: d226 6abe 3b32 573f 7cd6 b0bc 0a41 aabe
00000290: bc93 e73e 7a5d 38be fbb8 843e 3dd8 6f3e
000002a0: 6ffc 4a3e 4f5c 6c3e b2d4 b03e 3f25 043f
000002b0: 45fe 2cbf f43a dabe 6b5a efbe 89de 24bf
000002c0: fc78 47be 7656 5bbb 2b47 f63e df80 d2be
000002d0: 7115 13bf 26f6 c5bc 3b6a 723f d258 993e
000002e0: 2794 96be a750 443f 5220 9b3c 6c73 e63e
000002f0: d88b bb3d 41ed d6be 1bdd 303e 0b82 65bf
00000300: d7cd a2be 1ac5 22be 2481 debe 7665 ff3d
00000310: ce8e d23c 1ec2 113f 807c fcbe e08b cbbe
00000320: bf88 ab3e 685b 123f 9055 93be 1b8d b2be
00000330: 7275 66bf b0c0 e2be 674e b23d f9b0 20bf
00000340: b22e 233f 6906 dabd 5bb6 f43d 6e3a 9ebe
00000350: 6c69 b2be a980 87be 8b13 32bf 4ab2 693e
00000360: c714 c83e 16e0 69be ea41 a4be 68d7 ec3c
00000370: 1ee5 21be 3686 693f 88bd 2d3e cf15 8c3e
00000380: fe52 e13e 084c 5e3e 3c7b 5a3e 6912 fbbd
00000390: 8099 8ebe e6bc 043f c1e6 da3d ca51 a83d
000003a0: bc67 eabe 6312 d13e 6d32 ee3d 04fa 69be
000003b0: 62ee 183d b3cb c63e 1ef7 1ebf aaf8 0fbf
000003c0: 91b6 f5be 7f05 d1bd 12fe 94be 1133 933c
000003d0: 159c 4e3e 30f1 56bf 51d2 25bf 65e4 0cbe
000003e0: a011 ecbe a39a f13d db52 063f e4da cfbe
000003f0: 47c4 063f c7db 363f aa5e 85be 7dcb 89bd
