Unity-projects/Pro3.1_Tennis/models/agent2_actor.pth (torch_old, 579565 bytes, 6 tensors)

fc1.weight f4 [512, 24]
0	0xbc700a32	-0.014650868
1	0xb9aeed52	-0.00033364684
2	0x3d386f40	0.04502797
3	0xbd567130	-0.052354038
4	0xbc89a36a	-0.016801555
5	0x3d8b1490	0.06791031
6	0x3d4d6470	0.050144613
7	0xbd67866b	-0.056524675
8	0xbc9c0273	-0.019044137
9	0x3bfd4004	0.0077285785
10	0xbce5cf6a	-0.028053004
11	0xbd42e6a0	-0.047583222
12	0x3c6a909d	0.014316705
13	0x3da2216e	0.079165325
14	0x3d62d238	0.05537626
15	0xbccb8025	-0.024841378
16	0x3c1895b0	0.009313032
17	0xbc1d929d	-0.009617475
18	0x3cfe73ee	0.031061139
19	0xbd7d9767	-0.061911967
20	0xbcf6367e	-0.03005528
21	0x3cd3ceed	0.025855506
22	0x3d476265	0.04867782
23	0x3cceeb1d	0.025258595
24	0x3d134d41	0.035962347
25	0xbb154667	-0.0022777559
26	0xbb98242d	-0.0046429844
27	0xbba74f7c	-0.005105911
28	0x3d403889	0.046928916
29	0xbd6587f5	-0.05603786
30	0x3bafdb25	0.0053667002
31	0x3b0709fb	0.0020605314
32	0x3a8c6b16	0.0010713066
33	0x3c4e7fa7	0.012603677
34	0xbd2dd0bf	-0.042435404
35	0x3c03ceb4	0.008044887
36	0x3d958d52	0.07302345
37	0xbdb7876d	-0.08961377
38	0x3cb7231f	0.022355614
39	0x3cd99a58	0.026562855
40	0x3bbca70e	0.005757219
41	0x3d8c496b	0.06849941
42	0x3d6d4b1b	0.057932954
43	0xbc79462e	-0.015214486
44	0x3d4d191c	0.050072774
45	0xbd1e8d9b	-0.038709264
46	0x3d516c29	0.05112854
47	0xbd31ae45	-0.043379087
48	0xbc8618e5	-0.016369293
49	0xbd94bd3b	-0.07262655
50	0xbbadc781	-0.0053033237
51	0x3d01ea8a	0.031717815
52	0xbd93dbd9	-0.07219667
53	0xbe715cfc	-0.23570627
54	0xbbf7f3c3	-0.0075669005
55	0x3d3a3672	0.04546208
56	0xbc6b7843	-0.014371934
57	0xbcc3d0de	-0.023903307
58	0xbc78bddd	-0.015181986
59	0x3c2f1702	0.010686638
60	0xbd84f225	-0.06491498
61	0xbe8e59ec	-0.2780298
62	0xbd8bad11	-0.06820119
63	0xbcf8b493	-0.030359542
64	0xbd31cf15	-0.04341038
65	0xbcb3f6bc	-0.021968238
66	0xbcf320ce	-0.029678728
67	0x3d26187c	0.040550694
68	0xbc24f496	-0.010068079
69	0xbdfe2636	-0.12409632
70	0xbc8f6596	-0.017504495
71	0x3ca01007	0.019538892
72	0xbc6a823d	-0.014313278
73	0x3d63f810	0.055656493
74	0x3c275f03	0.010215524
75	0x3d8a6307	0.06757169
76	0x3d7cc028	0.061706692
77	0x3db7d40a	0.0897599
78	0x3cd8de24	0.026473112
79	0x3bb7247d	0.0055890665
80	0x3d25d5d3	0.04048712
81	0x3cf64ff8	0.030067429
82	0xbd31ec4e	-0.04343825
83	0x3ce7d665	0.028300473
84	0x3d4993dd	0.04921328
85	0x3dc32a20	0.09529519
86	0xba9f3b3d	-0.0012148392
87	0x3d3bfcf0	0.045895517
88	0x3cbbab9c	0.022908978
89	0x3daf6481	0.085640915
90	0x3d142c75	0.03617521
91	0x3dcccf10	0.100004315
92	0x3cd44d81	0.025915863
93	0x3d11812a	0.03552357
94	0x3d1e94bf	0.038716074
95	0x3d996036	0.07489054
96	0xbd27a458	-0.040928215
97	0x3e002ab9	0.12516297
98	0x3da58525	0.08082036
99	0xbcfbf973	-0.030758595
100	0xbcf39871	-0.029735776
101	0x3e1218eb	0.14267318
102	0x3da0ae75	0.07845775
103	0x3becae1f	0.0072229053
104	0x3cff3299	0.031152057
105	0x3e2b5264	0.16730648
106	0xbc142fb5	-0.009044577
107	0xbd2398ae	-0.03994053
108	0xbce63cf9	-0.028105246
109	0x3d985fc1	0.074401386
110	0x3b015ac4	0.0019737938
111	0x3cf1f6fb	0.029536715
112	0x3bc2e6f3	0.0059479414
113	0x3e20caa9	0.15702309
114	0xba1eae8b	-0.00060532306
115	0xbd1571a2	-0.03648532
116	0x3cdd0b13	0.02698282
117	0x3cf3fe89	0.029784458
118	0x3d1b6f51	0.037947956
119	0xbcab9491	-0.020944865
120	0x3d47aedd	0.048750747
121	0xbb418ec1	-0.002953455
122	0xbd242929	-0.040078316
123	0xbd8fc3e5	-0.07019786
124	0xbd986370	-0.07440841
125	0xbd717152	-0.05894596
126	0x3ccde5b6	0.025133949
127	0xbda33eb1	-0.07970942
128	0x3c637c1d	0.013884571
129	0xbd65104a	-0.055923738
130	0x3d1487f5	0.03626247
131	0xbddfd7e4	-0.1092985
132	0xbd95aa30	-0.07307851
133	0xbbeea617	-0.007282983
134	0x3c9191ef	0.017769782
135	0xbdb1bc81	-0.086785324
136	0x3d405520	0.04695618
137	0xbc9cb303	-0.019128328
138	0xbd9b764d	-0.075909235
139	0xbd6ec65a	-0.05829463
140	0xbd122a39	-0.035684798
141	0xbd8cf66f	-0.06882941
142	0xbd65ac88	-0.05607274
143	0xbd1def34	-0.0385582
144	0xbcc91d72	-0.024550173
145	0xbceaa821	-0.028644623
146	0xbc1e608c	-0.009666573
147	0xbc8c7631	-0.017146202
148	0x3cd38268	0.025819018
149	0x3d15e626	0.03659644
150	0x3c6e4930	0.014543816
151	0x3d4112e4	0.047137156
152	0x3bc652aa	0.006052335
153	0xbd07d7c5	-0.03316476
154	0x3c2ae888	0.010431416
155	0xbd8de759	-0.06928892
156	0xbd3496e5	-0.044089217
157	0x3d0ad3f6	0.033893548
158	0x3cc4d15f	0.024025617
159	0xbd172c5a	-0.03690753
160	0xbd7ac182	-0.0612197
161	0xbdba2c3d	-0.09090469
162	0xbd7a5c98	-0.06112346
163	0x3cdb80c5	0.0267948
164	0x3cdac9d6	0.026707571
165	0x3da0bf0d	0.0784894
166	0xbd726bf4	-0.059184983
167	0xb99f536e	-0.00030389003
168	0xbd4438a1	-0.047905568
169	0x3bfe3076	0.007757242
170	0x3c8eba54	0.017422833
171	0x3ce7bfad	0.02828964
172	0xbcd7bd40	-0.026335359
173	0xbe09192c	-0.13388509
174	0xbcf0a404	-0.029375084
175	0xbb63fc24	-0.0034787739
176	0xbd28efc1	-0.041244272
177	0x3d284739	0.04108355
178	0x3d3c6ae4	0.046000376
179	0x3ccc7f5a	0.02496307
180	0x3d0c226b	0.03421251
181	0xbe088442	-0.13331702
182	0x3bd42adf	0.006474837
183	0x3d58b4b4	0.052906707
184	0xbcb41456	-0.021982353
185	0x3d4ff31f	0.050768968
186	0xbd023d04	-0.03179647
187	0xbca393f1	-0.019968005
188	0xbcc0a97c	-0.023518316
189	0xbe14c51c	-0.14528316
190	0x3d403375	0.046924073
191	0x3cc0fa43	0.023556834
192	0x3c00a954	0.007852871
193	0xbd23bee3	-0.039976966
194	0x3d00cab8	0.031443328
195	0x3c26814d	0.010162664
196	0xbd146be5	-0.03623571
197	0x3d55291b	0.052041154
198	0x398fcade	0.00027426233
199	0xbcbdc3a4	-0.023164578
200	0xbd0698d7	-0.032860603
201	0xbd85d0e8	-0.06533986
202	0x3d6daf2b	0.05802838
203	0x3db06651	0.08613265
204	0xbcb752dd	-0.02237838
205	0x3d84aab5	0.06477872
206	0x3d0af7df	0.033927795
207	0x3d5075a8	0.050893456
208	0xbd056564	-0.032567397
209	0xbd83ad73	-0.06429567
210	0xbc818641	-0.015811088
211	0x3d10057a	0.035161473
212	0xbc624fbf	-0.013812958
213	0x3d27cb0a	0.040965118
214	0xbbb89ee6	-0.0056341765
215	0x3d596a8d	0.05308013
216	0x3b6a3cef	0.0035741886
217	0x3cb95e63	0.022628015
218	0xbcac853a	-0.021059621
219	0xbc71b763	-0.014753195
220	0xbbc494ab	-0.005999168
221	0x3dd793f6	0.10526268
222	0xbd311f8a	-0.04324297
223	0xbce1c0a1	-0.027557673
224	0xbb81f61e	-0.003966107
225	0xbd555026	-0.05207839
226	0xbd39ac4e	-0.04533034
227	0x3d211c2d	0.03933351
228	0xbbff4c09	-0.0077910465
229	0x3dd3bf30	0.103392005
230	0x3c8ae262	0.01695365
231	0xbc015679	-0.007894152
232	0x3d3362da	0.043795444
233	0x37fbba06	3.0008156e-05
234	0x3b161a92	0.002290402
235	0xbb4fb4fb	-0.0031693566
236	0x3bd51f82	0.006504
237	0x3d4805cc	0.048833653
238	0xbd66dd60	-0.056363463
239	0x3c85e3eb	0.016344031
240	0x3a748b47	0.0009328615
241	0x3ddf9ec3	0.10918953
242	0xbd5dd302	-0.05415631
243	0x3d8a2227	0.06744795
244	0x3cbe7365	0.023248384
245	0x3c29fa26	0.010374581
246	0x3c978eed	0.01850077
247	0x3db1c084	0.086792976
248	0xbc4e6f4b	-0.0125997765
249	0x3d76f7f7	0.06029507
250	0x3b5a15e8	0.0033277217
251	0x3e1e7c51	0.1547711
252	0xbc317a8b	-0.010832439
253	0x3ba93ba1	0.005164579
254	0xbc264e7c	-0.010150548
255	0x3e32e90a	0.1747171

fc1.bias f4 [512]
0	0xbd082c2e	-0.033245258
1	0xbd61e9c3	-0.055154573
2	0x3e3fec13	0.18742399
3	0x3cb37096	0.021904271
4	0x3de38882	0.11110021
5	0xbe521d30	-0.20518947
6	0x3cbfb167	0.023400022
7	0x3e07b032	0.13250807
8	0x3e0261e4	0.12732655
9	0xbca4f37b	-0.020135632
10	0xbe1ce961	-0.15323402
11	0xbd9204c0	-0.07129812
12	0xbd8c5e47	-0.068539195
13	0x3da5fdc4	0.081050426
14	0x3e1bf564	0.15230328
15	0x3d8abf2a	0.06774743
16	0x3d36d869	0.04463998
17	0xbe61c12d	-0.22046347
18	0x3baeb403	0.0053315177
19	0xbda5c1c9	-0.08093602
20	0x3e3a70ac	0.18207043
21	0x3c536551	0.012902574
22	0x3e35aedd	0.17742486
23	0xbdb64c3c	-0.08901259
24	0xbe0a7891	-0.13522555
25	0x3e1988f6	0.14993653
26	0x3db24f26	0.087065026
27	0x3e5c4051	0.2150891
28	0xbe37cca3	-0.17949156
29	0xbe3f4364	-0.18678051
30	0xbe49de97	-0.19713818
31	0x3dec8116	0.11548059
32	0xbd0aa3a1	-0.033847455
33	0x3e3d1d9c	0.18468326
34	0xbdb82914	-0.0899221
35	0x3c15ace5	0.00913546
36	0x3ddc791f	0.107652895
37	0x3d4aec9e	0.049542062
38	0xbc9e9e19	-0.019362496
39	0xbe03d7a7	-0.12875234
40	0x3da2560a	0.07926567
41	0x3e41b663	0.18917231
42	0x3e1f67d4	0.15566951
43	0xbdfb67e4	-0.12275675
44	0x3e0c1368	0.13679278
45	0x3d8eb497	0.069680385
46	0xbd5cb0c5	-0.053879518
47	0x3e09beed	0.13451739
48	0xbe5787e7	-0.21047936
49	0x3db2f747	0.08738571
50	0x3ce814d2	0.02833024
51	0x3e145c9b	0.14488451
52	0x3e1361d1	0.14392783
53	0xbda70415	-0.081550755
54	0x3e2db901	0.16965105
55	0x3d9566b6	0.07294981
56	0x3de57131	0.1120323
57	0xbd4018cf	-0.04689866
58	0x3cc747e6	0.024326276
59	0x3c7b6003	0.015342715
60	0xbe3faab8	-0.18717468
61	0x3ddf31f8	0.10898203
62	0x3de5df5a	0.112242416
63	0x3db7000d	0.089355566
64	0x3e22e63f	0.15908144
65	0x3e0f0fd6	0.13970885
66	0x3d4381aa	0.04773108
67	0xbe34d05b	-0.17657606
68	0x3dfbbd3a	0.122919515
69	0x3da52313	0.080633305
70	0x3e1cd60b	0.15316026
71	0x3e4c6325	0.19959696
72	0x3e014e2a	0.12627473
73	0xbddf9e44	-0.10918859
74	0xbd8870c8	-0.06662136
75	0xbd1896cb	-0.037253182
76	0xbbcb6509	-0.0062071127
77	0xbd5ab54d	-0.05339556
78	0xbe0d4396	-0.13795313
79	0x3d05baa4	0.032648697
80	0x3bc2c97f	0.0059444304
81	0x3dac155c	0.084025115
82	0x3d84f4f5	0.06492034
83	0x3db8bc1f	0.09020256
84	0x3e318689	0.17336477
85	0x3e00e37c	0.12586778
86	0x3db29fbe	0.08721875
87	0xbd3a786e	-0.045525007
88	0x3e2e62b6	0.17029843
89	0xbd17817d	-0.036988724
90	0x3da34659	0.07972402
91	0x3d0ab60a	0.033865012
92	0xbe1906ac	-0.14943951
93	0x3d46cb7d	0.048533905
94	0xbe06aa80	-0.13150978
95	0xbe33dcc9	-0.17564692
96	0xbe0eba44	-0.13938242
97	0x3e262ea9	0.16228737
98	0xbdeef564	-0.11667898
99	0x3d7d7339	0.061877463
100	0x3e2b9885	0.167574
101	0xbe26dde9	-0.1629559
102	0x3c8f3348	0.017480507
103	0x3db1329d	0.08652232
104	0x3dd507fb	0.10401913
105	0xbd90b64b	-0.070660196
106	0xbdf8bb89	-0.121451445
107	0xbe021d85	-0.12706573
108	0x3d503919	0.050835703
109	0xbd35b9f5	-0.044366796
110	0xbe0591c6	-0.1304389
111	0xbd44e596	-0.048070513
112	0xbdbeff21	-0.09326006
113	0x3de8be06	0.11364369
114	0xbcf2793c	-0.029598825
115	0x3e510d06	0.20415124
116	0x3e318f08	0.17339718
117	0xbde75305	-0.112951316
118	0xb945221b	-0.0001880009
119	0xbd11e96a	-0.03562299
120	0xbc8bed87	-0.017081035
121	0xbe2fa287	-0.17151843
122	0x3d03bada	0.032160617
123	0xbdcb3fc3	-0.09924271
124	0x3d9cf9ad	0.076648094
125	0xbd58c563	-0.052922618
126	0xbe0ce81d	-0.13760419
127	0x3e2321a4	0.15930802
128	0xbe0a0a91	-0.13480593
129	0xbdcbca99	-0.09950752
130	0xbdb41df7	-0.08794778
131	0x3e1d184a	0.15341297
132	0x3d8dba11	0.06920255
133	0x3d9635c5	0.073344745
134	0xbd517537	-0.051137175
135	0xbe375509	-0.17903532
136	0x3dccc7b0	0.09999025
137	0x3d38346f	0.04497188
138	0xbe10fb9b	-0.1415848
139	0x3e3f2bc2	0.18669036
140	0x3e37c48f	0.17946075
141	0x3bfd53ff	0.0077309604
142	0x3e00f4db	0.12593405
143	0x3e369406	0.17829904
144	0x3e24bd24	0.16087776
145	0xbe0ef2b9	-0.13959779
146	0x3e669820	0.22518969
147	0xbe43f624	-0.19136864
148	0xbd048d01	-0.032361034
149	0x3de12e48	0.109951556
150	0xbe36a949	-0.17838015
151	0xbcbecf00	-0.023292065
152	0xbd83efc0	-0.06442213
153	0xbd52607b	-0.051361542
154	0x3c84537b	0.016153088
155	0x3e42a13d	0.1900682
156	0x3e16a714	0.14712173
157	0xbd2737cb	-0.040824693
158	0x3dc29e4b	0.09502848
159	0x3c8ae722	0.016955916
160	0xbdd36729	-0.103224106
161	0x3c7e44d2	0.015519338
162	0x3d5ad050	0.05342132
163	0xbd2c7975	-0.042108018
164	0xbe2db63c	-0.16964048
165	0xbe2583c6	-0.16163549
166	0xbd8f1757	-0.069868736
167	0xbda9ba1f	-0.08287453
168	0xbdd729f0	-0.10506046
169	0x3e304232	0.17212752
170	0xbddd2e8f	-0.10799896
171	0xbd063d5c	-0.03277336
172	0x3d5cab35	0.053874213
173	0x3dc18293	0.09448733
174	0x3dd1d9d9	0.10246629
175	0xbdcfe2d1	-0.10150684
176	0x3e25cbe6	0.16191062
177	0x3c7145f8	0.0147261545
178	0x3e716717	0.23574482
179	0xbe24d6ca	-0.1609756
180	0x3df0a8ca	0.11750944
181	0xbd6013cd	-0.054706383
182	0x3d588376	0.052859746
183	0xbe5e51f7	-0.21710955
184	0xbd8cb54f	-0.06870519
185	0xbe346bcc	-0.17619246
186	0xbe18c86e	-0.14920208
187	0x3d4e79be	0.05040907
188	0x3c4239de	0.011854617
189	0x3dfbbf84	0.12292388
190	0xbe0fcff7	-0.14044176
191	0xbe491d77	-0.19640146
192	0xbe2d8bce	-0.16947863
193	0x3e3f8d24	0.18706185
194	0xbdab6435	-0.08368722
195	0xbdeb1560	-0.11478686
196	0xbc904225	-0.017609665
197	0x3dc172dc	0.09445736
198	0xbd95653b	-0.07294699
199	0xbe21788d	-0.15768643
200	0xbe5a4743	-0.21316247
201	0xbd195111	-0.037430827
202	0x3e3855aa	0.18001428
203	0x3de7a730	0.11311185
204	0xbd0ab78b	-0.033866446
205	0x3b8f8fa2	0.004381136
206	0xbe3ca393	-0.18421774
207	0xbe35c8ea	-0.17752424
208	0xbcbcbd61	-0.023039522
209	0x3bcbdb2c	0.0062211957
210	0xbe5d84da	-0.2163271
211	0x3e54f6b8	0.2079724
212	0x3daf99f5	0.08574287
213	0x3db1c061	0.086792715
214	0x3e2108ec	0.1572606
215	0x3cec9852	0.028881226
216	0x3d0b0a39	0.033945296
217	0x3c62dcd4	0.013846595
218	0x3cfa8344	0.03058017
219	0x3d9f7604	0.077861816
220	0x3da3dd09	0.080011435
221	0x3e13876f	0.14407133
222	0xbdfc11c8	-0.12308079
223	0x3e2b6d4b	0.1674091
224	0xbdf6b0f8	-0.12045473
225	0x3e3cb6d5	0.1842912
226	0xbe0d6a59	-0.138101
227	0xbe0db0e7	-0.13837014
228	0xbd4c7055	-0.049911816
229	0xbb0b88e3	-0.0021291308
230	0x3e397252	0.18110016
231	0x3da68470	0.08130729
232	0x3e5a95e5	0.21346243
233	0xbe4f69f0	-0.20255256
234	0xbdbf56c9	-0.09342725
235	0x3e3f83b2	0.18702582
236	0xbe05680f	-0.13027976
237	0x3e5fac9f	0.21843193
238	0x3e01ca9d	0.12674947
239	0x3e1e7c6f	0.15477155
240	0x3d9980b1	0.07495249
241	0x3e011d2c	0.12608784
242	0xbdd50288	-0.104008734
243	0x3d85f4f0	0.06540859
244	0xbc2d92d3	-0.010594088
245	0xbe0b54ce	-0.13606569
246	0xbd795f63	-0.060881983
247	0xbe25dd41	-0.16197683
248	0xbdaa923d	-0.08328674
249	0xbde9b18d	-0.11410818
250	0x3e0fc4f0	0.1403997
251	0x3e0db1c3	0.13837342
252	0xbdf0f03f	-0.11764573
253	0x3ccdc6ca	0.025119204
254	0xba8e04fe	-0.0010835228
255	0x3e1e78cc	0.15475768

fc2.weight f4 [256, 512]
0	0xbc0806f3	-0.008302438
1	0x3c8f1d18	0.017469928
2	0x3d0e452d	0.03473394
3	0x3c280a7d	0.010256407
4	0x3d823e13	0.06359496
5	0x3d270b12	0.04078204
6	0xbd9b41b7	-0.075808935
7	0x3d3ae997	0.045632925
8	0x3d74bfd9	0.059753273
9	0xbc182c30	-0.009287879
10	0xbd14d7b9	-0.03633854
11	0xbd77e87d	-0.060524452
12	0x3cc41989	0.023937957
13	0x3c8d528f	0.017251281
14	0xbd67e928	-0.05661884
15	0x3d1814c3	0.037129175
16	0xbdce2c2f	-0.10067021
17	0x3dd375ec	0.10325226
18	0xbd09c462	-0.03363455
19	0xbbf75e12	-0.007549056
20	0xbd2dbc0a	-0.042415656
21	0xbc02ba4a	-0.007978985
22	0x3d8751da	0.06607409
23	0x3cf97cb3	0.030454969
24	0x3d95de62	0.07317807
25	0x3d32db0e	0.043665938
26	0xba840213	-0.0010071419
27	0x3d643660	0.05571592
28	0xbd32a426	-0.043613575
29	0x3dc1198f	0.09428703
30	0x3d5b960f	0.053609904
31	0xbd8f5b76	-0.06999867
32	0xbaeda795	-0.0018131608
33	0xbac69afb	-0.0015152389
34	0x3cc80cc4	0.02442015
35	0x3d23e1dc	0.04001032
36	0xb9ef39b0	-0.00045628613
37	0x3df9dd46	0.12200408
38	0xbd0f3126	-0.03495898
39	0x3cfc1e85	0.030776272
40	0x3d22a734	0.03971024
41	0xbdabcbf4	-0.0838851
42	0x3c43012a	0.011902133
43	0x3ccf7cc3	0.025328046
44	0x3cca1edf	0.024672924
45	0x3c50c29b	0.01274171
46	0xbcb06f7c	-0.021537535
47	0xbcd3e308	-0.025865093
48	0xbceca939	-0.028889285
49	0x3d506747	0.050879743
50	0xbdd344c5	-0.10315851
51	0xbdc96dca	-0.09835394
52	0xbb808a80	-0.0039227605
53	0x3d60e2bc	0.05490373
54	0x3d188a47	0.037241247
55	0x3d20f0f6	0.0392923
56	0xbc837ead	-0.016051615
57	0x3bccaf25	0.006246465
58	0xbdd77b9a	-0.10521622
59	0x3d423254	0.047411278
60	0xbaf7cedf	-0.0018906257
61	0x3dc9fa6e	0.09862219
62	0xbdf6373e	-0.12022255
63	0xbd3f6ed3	-0.04673655
64	0xbd003e21	-0.03130925
65	0x3d2c6700	0.042090416
66	0x3d250f90	0.040298045
67	0x3bcb525e	0.0062048873
68	0x3ce90a5b	0.02844732
69	0xbc65f9db	-0.014036621
70	0xbdb4fb08	-0.08836943
71	0x3ac32af1	0.0014890117
72	0x3cea8b04	0.028630741
73	0x3d1b78a6	0.037956856
74	0xbd92992d	-0.07158122
75	0xbd357e0f	-0.044309672
76	0xbca157de	-0.019695219
77	0x3daa03b9	0.08301491
78	0x3d987a7e	0.074452385
79	0xbca97e2f	-0.020690052
80	0xbc6f1511	-0.014592425
81	0xbc2ab4eb	-0.010419111
82	0xbd6c7099	-0.05772457
83	0xbdf21e3f	-0.11822175
84	0x3d43d312	0.047808714
85	0xbc8bb424	-0.017053671
86	0x3cbb1e5f	0.02284163
87	0xbb283447	-0.0025665925
88	0xbdaeb598	-0.0853073
89	0xbce5791d	-0.028011853
90	0xbd325324	-0.04353632
91	0x3d3ef8c0	0.046623945
92	0xbdcc64e8	-0.09980184
93	0x3dc517e9	0.09623701
94	0xbc5b7c93	-0.0133964
95	0x3da2e743	0.07954266
96	0xbd9b7860	-0.07591319
97	0x3c8269c5	0.015919575
98	0xbcad58e2	-0.021160547
99	0xbd7b54bc	-0.061360106
100	0xbdbef1fc	-0.093234986
101	0x3c1f0e6f	0.009708031
102	0x3c650ae5	0.013979648
103	0x3bc9806f	0.0061493437
104	0xbd70104e	-0.0586093
105	0xbda993bb	-0.082801305
106	0x3d53aafb	0.05167673
107	0xbcca48c3	-0.024692899
108	0xbd06465b	-0.03278194
109	0xbd1e5082	-0.038650997
110	0xbd070a97	-0.032969084
111	0xbbfaa26c	-0.0076487567
112	0xbcd160a0	-0.02555877
113	0x3dc22387	0.094794326
114	0x3da03b80	0.07823849
115	0x3d2f62dc	0.04281889
116	0xbcb2d43d	-0.021829719
117	0x3d27e2b6	0.040987693
118	0x3d33ce27	0.043897774
119	0xbd2426b9	-0.04007599
120	0xbcc0792d	-0.023495281
121	0x3d1aa299	0.03775272
122	0x3b4bd9be	0.0031105126
123	0x3dea1602	0.11429979
124	0x3ceeb1b0	0.029137462
125	0x3dab9a0d	0.08378992
126	0x3d8be19f	0.06830143
127	0xbcd711e8	-0.026253656
128	0xbaed6c42	-0.0018113928
129	0x3d6f1fa5	0.058379788
130	0xbca40d7f	-0.020025967
131	0xbd25f935	-0.040520865
132	0x3d4aef49	0.049544606
133	0x3d9f3e92	0.07775606
134	0xbd8f8212	-0.07007231
135	0xbd45ee5f	-0.04832303
136	0x3d297f44	0.041381136
137	0x3d159346	0.036517404
138	0x3bd239d7	0.0064155865
139	0x3dbdd169	0.092684574
140	0xbcaf44d6	-0.021395128
141	0xbd75a61d	-0.05997287
142	0x3c7e2a99	0.015513086
143	0xbd6a02c2	-0.057131536
144	0xbd906000	-0.070495605
145	0x3d70f530	0.05882758
146	0xbd249193	-0.040177893
147	0xbda92054	-0.08258119
148	0x3d3ccf8b	0.046096366
149	0xbd14d088	-0.036331683
150	0xbc735b8d	-0.01485337
151	0xbcdc4c99	-0.026891993
152	0xbdd9536c	-0.106116146
153	0xbdc0d2c9	-0.09415204
154	0xbda7430b	-0.08167084
155	0x3c8dd529	0.017313557
156	0xbd4869a8	-0.048928887
157	0x3d08aea9	0.033369694
158	0xbc3d0b2b	-0.011538307
159	0x3d7a0c98	0.061047167
160	0x3df0c559	0.11756391
161	0xbd5ca835	-0.053871352
162	0x3cfe18ee	0.031017747
163	0xbb1be5e8	-0.0023788158
164	0xbd96db58	-0.07366055
165	0x3de07c90	0.109612584
166	0x3c29d4a7	0.010365642
167	0x38184e00	3.6312267e-05
168	0x3d5c421f	0.053773995
169	0xbde0dc10	-0.109794736
170	0x3c0aad7e	0.008464215
171	0x3cf856ff	0.03031492
172	0xbc839224	-0.016060896
173	0x3c943b84	0.018094786
174	0x3db6a146	0.08917479
175	0x3d96ad9b	0.07357331
176	0xbd735f3d	-0.059417
177	0xbd7ed372	-0.06221337
178	0xbd88060b	-0.066417776
179	0xbca5e3c1	-0.020250203
180	0xbc92876e	-0.017886844
181	0xbdaacdf4	-0.08340064
182	0x3d913d1a	0.07091732
183	0xbb1467e4	-0.0022644931
184	0xbdd6e285	-0.10492424
185	0xbd811b69	-0.06304056
186	0xbd79da6e	-0.060999326
187	0xbd521969	-0.051293764
188	0x3c8d1344	0.0172211
189	0xbdd01a48	-0.10161263
190	0xbbd5c071	-0.006523185
191	0x3cc46a5a	0.023976494
192	0x3d7c46bc	0.061590895
193	0x3db40f2b	0.087919556
194	0xbdff08d3	-0.12452855
195	0xbcc3ea32	-0.023915384
196	0xbd984e99	-0.07436866
197	0xbd550e99	-0.052015875
198	0x3bfe4229	0.0077593517
199	0x3dcd553a	0.10026021
200	0xbc9c775d	-0.019099886
201	0x3c32f155	0.010921796
202	0x3d4463ff	0.047946926
203	0x3ccdd078	0.02512382
204	0xbd5a6fbe	-0.053329222
205	0x3d54829f	0.051882382
206	0x3ce8f608	0.02843763
207	0xbd235bfb	-0.03988264
208	0xbcd224e3	-0.025652355
209	0xbdd2a298	-0.102849185
210	0xbd1c7668	-0.03819886
211	0xbdee0db7	-0.1162371
212	0x3d4460ce	0.047943883
213	0x3ceb7405	0.028741846
214	0x3d22b5c6	0.039724134
215	0x3d14b1f9	0.03630254
216	0x3cb975f3	0.02263925
217	0x3b701d4a	0.0036638551
218	0xbda8c9c6	-0.0824161
219	0x3dddd59c	0.108317584
220	0x3d1fc7c7	0.039008882
221	0x3d9a3077	0.07528775
222	0xbca9d6b5	-0.020732263
223	0x3c853cc9	0.016264336
224	0x3d03db42	0.032191522
225	0x39969364	0.00028720044
226	0x3cd0273e	0.025409337
227	0xbd6bf94c	-0.057610795
228	0xbd2d6986	-0.042336963
229	0xbc969111	-0.01837972
230	0x3cc75f68	0.024337485
231	0x3dabbcc2	0.08385612
232	0xbd84e684	-0.0648928
233	0x3b9878fd	0.004653095
234	0x3dc8c1c4	0.09802583
235	0xbdd0a5b4	-0.10187855
236	0xbc37fe2b	-0.011230032
237	0x3cfe78c3	0.031063443
238	0x3db7b105	0.08969311
239	0xbd68c3bd	-0.056827296
240	0x3d75c90e	0.060006194
241	0x3e054dc6	0.1301795
242	0x3c9067d0	0.017627627
243	0x3b350c4d	0.002762574
244	0xbd49ddc1	-0.049283747
245	0xbd17990c	-0.03701119
246	0x3d512f94	0.051070765
247	0xbdcf5027	-0.1012271
248	0x3dac1140	0.08401728
249	0xbe11ce44	-0.1423884
250	0x3bafd9ad	0.005366525
251	0x3d1981d9	0.037477348
252	0xbcb83e1f	-0.02249056
253	0x3daa711f	0.083223574
254	0xbd2aa0a8	-0.04165712
255	0x3b9f5ea2	0.004863576

fc2.bias f4 [256]
0	0x3c7e4046	0.015518254
1	0x3c615524	0.013753209
2	0xbd3e5915	-0.046471674
3	0x3c436c16	0.011927625
4	0x3c9bcf41	0.019019725
5	0x3c8d1643	0.01722253
6	0x3d59af2e	0.05314558
7	0x3ca17022	0.01970679
8	0x3d136401	0.035984043
9	0xbca7af78	-0.020469412
10	0x3d393a1b	0.04522143
11	0x3b7ad47a	0.0038273619
12	0xbc8e093f	-0.017338393
13	0xbd28f44d	-0.04124861
14	0x3b826e0f	0.003980405
15	0xbb81da14	-0.0039627645
16	0x3d1f5097	0.038895216
17	0xbb8cbe3d	-0.004295139
18	0xbd0e290e	-0.03470712
19	0xbd26a5f0	-0.040685594
20	0x3c1365af	0.008996411
21	0xbb9e6708	-0.0048340596
22	0x3c27697e	0.010218022
23	0xbb843580	-0.004034698
24	0xbba5b2df	-0.0050567235
25	0x3c8edefb	0.01744031
26	0xbd494af0	-0.04914373
27	0xbcd2ed65	-0.025747964
28	0x3ca67779	0.02032064
29	0xbaf09e38	-0.00183577
30	0xbd8c4c31	-0.0685047
31	0xbbcdfcb5	-0.0062862285
32	0x3c181d69	0.009284356
33	0xbd2eaa5d	-0.04264294
34	0xbc39f53a	-0.0113499705
35	0x3c728b16	0.0148036685
36	0xbc5adcdc	-0.013358321
37	0xbc337292	-0.010952609
38	0xbc5d683c	-0.013513621
39	0x3cf02b69	0.029317575
40	0x3c475692	0.012166636
41	0xbcfac863	-0.03061313
42	0x3c8c2d23	0.017111367
43	0x3d006101	0.03134251
44	0xbd074cdc	-0.033032283
45	0xbd8bd564	-0.068278104
46	0xbd17936a	-0.03700582
47	0xbd773605	-0.06035425
48	0x3ce975af	0.028498499
49	0xbcf2fa5e	-0.0296604
50	0xbcc7ce67	-0.024390412
51	0xbd5ad8bf	-0.05342936
52	0xbac1d8df	-0.0014789364
53	0xbc0c8820	-0.008577377
54	0xbd030b4f	-0.031993207
55	0x3b5c02af	0.0033570935
56	0xbc0f3581	-0.008740784
57	0xbd7c5890	-0.061607897
58	0x3d3b4844	0.045723215
59	0xbbee4e08	-0.0072724856
60	0xbd632ec4	-0.05546452
61	0x3cd9e7f8	0.02659987
62	0x3d303a72	0.043024488
63	0xbd351911	-0.04421336
64	0xbd33cded	-0.043897558
65	0xbd062105	-0.032746334
66	0x3b247bf2	0.0025098291
67	0xbc934611	-0.017977746
68	0x3da4eb3b	0.08052679
69	0xbba6918f	-0.00508327
70	0xbcf8493d	-0.03030836
71	0x3caf0d6d	0.021368707
72	0xbd7c6ca6	-0.061627053
73	0x3cc72762	0.024310771
74	0x3c29bc40	0.010359824
75	0xbd73f98b	-0.059564155
76	0x3cc1b576	0.023646098
77	0x3d6225a3	0.055211674
78	0xbba96e0c	-0.0051705893
79	0xbd50d00d	-0.050979663
80	0x3cad3aca	0.021146197
81	0xbd5ebd6c	-0.054379866
82	0xbca5db9c	-0.02024632
83	0x3caedcaa	0.021345455
84	0x3c7d4c05	0.015460019
85	0x3cabca17	0.020970387
86	0x3c462ea0	0.012096077
87	0xbb9a051a	-0.004700315
88	0x3d566066	0.052338026
89	0xbbf66e54	-0.0075204764
90	0xbd2ef081	-0.04270983
91	0xbbba6a6c	-0.005688956
92	0xbbea6d60	-0.007154152
93	0x3cbbb71b	0.02291446
94	0xbd0b29be	-0.033975355
95	0xbd4e31df	-0.05034053
96	0x3cb1ed24	0.021719523
97	0xbc5ac9a3	-0.013353738
98	0xbcbb8877	-0.02289222
99	0xbc62a22c	-0.01383261
100	0xbce9ef75	-0.028556565
101	0x3d3e67c6	0.046485685
102	0xbc0e01fd	-0.008667466
103	0x3cbe80f1	0.023254843
104	0x3c2674b9	0.010159665
105	0x3d353366	0.04423847
106	0x3d7a65de	0.061132304
107	0x3bd74836	0.0065698875
108	0xbcad8ab4	-0.021184303
109	0xbd8e350e	-0.06943713
110	0x3d126b16	0.035746656
111	0x3d62cf01	0.055373196
112	0x3cf1072e	0.029422369
113	0x3c20832d	0.0097969
114	0xbb2a34e7	-0.0025971474
115	0xbd30955d	-0.043111194
116	0x3bc22dc3	0.0059258654
117	0xbb3c0f80	-0.0028695762
118	0xbc44778f	-0.011991396
119	0xbd36595c	-0.044518813
120	0x3c9af004	0.018913276
121	0x3d0d3706	0.034476303
122	0xbc0fc575	-0.008775105
123	0xbd236d83	-0.03989936
124	0xbc405dae	-0.011741085
125	0xbc9677c0	-0.018367648
126	0xbc37daca	-0.011221597
127	0xb936769a	-0.00017401055
128	0xbd8c7e90	-0.068600774
129	0x3ca64bac	0.020299755
130	0xbd0ec7c9	-0.0348585
131	0xbd3732be	-0.044726126
132	0xbc027d2c	-0.007964414
133	0xbcca2519	-0.024675893
134	0xbbf35f85	-0.0074271583
135	0xba9cea33	-0.0011971652
136	0xbc821d83	-0.015883213
137	0x3c28accb	0.010295103
138	0xbcad7678	-0.021174654
139	0x3cdde27a	0.027085532
140	0xbbbbb289	-0.00572807
141	0x3c8e37d0	0.017360598
142	0x3ca8a6d4	0.020587362
143	0xb91b0de8	-0.00014787132
144	0xbd0399ac	-0.032128975
145	0x3c371cb1	0.011176274
146	0xbc5f56f3	-0.01363157
147	0xbcd117cf	-0.025524048
148	0x3d17889d	0.03699552
149	0xbd04b40a	-0.03239826
150	0xbd953231	-0.07284964
151	0xb981677c	-0.000246819
152	0xbd186012	-0.037200995
153	0x3bd16559	0.0063902554
154	0xbd57ab9c	-0.052653894
155	0x3ca1f3a5	0.0197695
156	0xbd55184d	-0.05202513
157	0xbcb758ce	-0.022381213
158	0x3d2ae770	0.041724622
159	0xbd6dc56b	-0.0580496
160	0x3cfaeed5	0.030631462
161	0x3cb6936a	0.02228709
162	0xbc8bfd76	-0.017088633
163	0xbd7e7194	-0.062120035
164	0xbd7de55a	-0.061986305
165	0xbd267288	-0.04063657
166	0xbd849d73	-0.064753436
167	0x3d3c52b4	0.04597731
168	0x3cb1bf56	0.021697681
169	0x3cd936d8	0.02651541
170	0xbc63c8ee	-0.013902886
171	0x3d34ad87	0.0441108
172	0xbb705bdc	-0.0036675846
173	0xbc59d898	-0.013296269
174	0x3d44c038	0.048034877
175	0x3cbd18a4	0.023083039
176	0x3c8194ed	0.015818084
177	0xbbb898e7	-0.0056334618
178	0xbb9e0994	-0.004822919
179	0x3ca4df09	0.020125883
180	0x3c310e0c	0.010806572
181	0x3c8471ff	0.016167639
182	0xbc411cc7	-0.011786646
183	0x3ce1db4f	0.027570395
184	0x3c0d4bf4	0.008624066
185	0xbceb897d	-0.028752083
186	0x3c01d76e	0.007924898
187	0xbd33f680	-0.043936253
188	0x3a596759	0.0008293293
189	0x3c64b20c	0.013958465
190	0xbb1ad83b	-0.0023627419
191	0x3c4bbdf4	0.012435425
192	0xbd13d721	-0.036093835
193	0xbc202260	-0.009773821
194	0xbbd9eed3	-0.0066507845
195	0xbd5de1be	-0.054170363
196	0xbd7fbff1	-0.06243891
197	0xbbbcb3c3	-0.005758734
198	0xbd1bbc32	-0.038021274
199	0xbc139b08	-0.00900913
200	0xbd44fd05	-0.04809286
201	0x3c8710b9	0.016487466
202	0x3bc8fcab	0.006133636
203	0xbd6f7c74	-0.058468297
204	0xbd2af6aa	-0.041739143
205	0x3c0486e4	0.008088801
206	0xbc7dfd4d	-0.015502286
207	0x3cd4521b	0.025918057
208	0xbbdb4f19	-0.006692779
209	0x3d4ce8de	0.050026767
210	0xbd018630	-0.03162211
211	0x3d490b50	0.049083054
212	0xbce71f3e	-0.02821314
213	0xbb288e88	-0.002571972
214	0xbd2132e6	-0.03935518
215	0xba287a76	-0.00064269395
216	0x3bc6c995	0.006066511
217	0x3a159d3c	0.00057073287
218	0x3c9c74dd	0.019098694
219	0xbd90cbe1	-0.07070137
220	0xbc4d65bd	-0.012536463
221	0x3b688187	0.0035477595
222	0xbd1a5f44	-0.03768851
223	0x3a9083ec	0.0011025644
224	0xbcc780e0	-0.024353445
225	0xbb58726a	-0.003302718
226	0x3d7695e8	0.060201555
227	0xbc0a1ab8	-0.008429222
228	0x3c9dfc0d	0.019285226
229	0xbd0104ca	-0.031498708
230	0x3ce7d10b	0.028297922
231	0x3d845041	0.0646062
232	0x3d368e3e	0.044569246
233	0x3d04f4e4	0.03246011
234	0xbcc4cfbf	-0.024024842
235	0xbd5c4fec	-0.053787157
236	0xbd636bcd	-0.05552273
237	0x3c242f8b	0.010021101
238	0x3c2ccfa3	0.010547551
239	0x3c5e26ed	0.013559085
240	0x3bb1a197	0.0054208743
241	0x3da00181	0.07812787
242	0x3d399a92	0.045313425
243	0x3c1f6af2	0.009730088
244	0x39dce1f5	0.0004213002
245	0xbcaba36a	-0.020951945
246	0xbbd043f6	-0.006355758
247	0x3cd52231	0.02601728
248	0xbd9c90de	-0.07644819
249	0xbb4ac378	-0.0030939262
250	0xbb9960e4	-0.0046807397
251	0xbbc8a883	-0.006123604
252	0x3d28e6d2	0.041235752
253	0xbd8cff78	-0.06884664
254	0xbc8e729f	-0.01738864
255	0x3ca18653	0.019717371

fc3.weight f4 [2, 256]
0	0x3d935c05	0.07195286
1	0x3e0280da	0.12744465
2	0xba4e99ea	-0.00078812113
3	0xbd1d8690	-0.038458407
4	0x3e4464b3	0.19179039
5	0x3d92fff9	0.07177729
6	0x3da8fdc7	0.08251529
7	0x3d156361	0.03647173
8	0xbd13efef	-0.03611749
9	0xbb9c5af4	-0.0047715846
10	0x3cb9be1a	0.022673655
11	0x3d5aae4b	0.053388875
12	0xbc6832ba	-0.01417225
13	0xbc21d7c5	-0.009878104
14	0x3c39fb5f	0.011351435
15	0xbd8e834a	-0.06958635
16	0x3cc1e6fd	0.023669714
17	0xbd2b6a31	-0.04184932
18	0x3de8d0b1	0.1136793
19	0x3d48aa80	0.048990726
20	0x3d1b4303	0.037905704
21	0x3d8bf991	0.068347104
22	0x3d391944	0.04519011
23	0x3d9a1294	0.07523075
24	0x3cd46f57	0.025931997
25	0xbcb89d62	-0.022535983
26	0xbc7db74c	-0.015485596
27	0xbbf44606	-0.0074546365
28	0xbca843e0	-0.020540178
29	0xbd708e93	-0.05872972
30	0xbd66cf03	-0.056349766
31	0x3c411f7a	0.01178729
32	0x3ccf6e93	0.02532128
33	0xbc767309	-0.015042075
34	0x3bcee659	0.0063140807
35	0xbcc18f93	-0.023628032
36	0x3d96e42f	0.07367741
37	0x3bb9d210	0.0056707934
38	0xbc25cd50	-0.010119751
39	0x3ceb9709	0.028758543
40	0xbc7bbbf3	-0.015364635
41	0xbb4b92e6	-0.00310629
42	0x3a0603d3	0.0005112264
43	0xbc80a9b2	-0.015705917
44	0x3c96ffd5	0.018432537
45	0xbcf2e68c	-0.029650949
46	0x3c6c32fe	0.014416454
47	0xbd07810e	-0.03308206
48	0x3d39e27e	0.045382015
49	0xbd11054a	-0.035405435
50	0x3d2073db	0.03917299
51	0xbc9ea3d3	-0.019365227
52	0x3d1d8225	0.038454194
53	0xbce7871a	-0.028262664
54	0xbb729297	-0.0037013644
55	0x3d1b8c33	0.0379755
56	0xbbd2c141	-0.006431729
57	0xbd87bc4f	-0.06627714
58	0xbd09f625	-0.033682007
59	0x3c86d0f2	0.016457055
60	0xbc4f7e52	-0.012664394
61	0x3da2d368	0.07950479
62	0xbc1c162c	-0.009526771
63	0xbce895e8	-0.028391793
64	0xbc20416f	-0.009781226
65	0x3d91f683	0.071270965
66	0xbbbefe65	-0.005828666
67	0x3d8256fe	0.06364249
68	0x3d2c28f0	0.04203123
69	0x3da8c643	0.082409404
70	0xbc04dc10	-0.008109108
71	0x3d7aba6c	0.061212942
72	0xbc3dd8f8	-0.011587374
73	0x3d31c9c2	0.043405302
74	0xbd1d3578	-0.03838107
75	0xbe467ded	-0.19383974
76	0xbd1a8dde	-0.03773295
77	0x3d728165	0.05920543
78	0x3d27eaf2	0.040995546
79	0xbc1bfcdf	-0.009520738
80	0x3d9a01fd	0.075199105
81	0xbc360e74	-0.011111844
82	0x3c0939b8	0.008375578
83	0xba2fc7f4	-0.00067055156
84	0xbd408e13	-0.047010493
85	0xbd3195ab	-0.043355625
86	0xbcb5d81d	-0.022197777
87	0xbcc99488	-0.024606958
88	0x3d4a68ca	0.04941634
89	0xbbadd6d5	-0.005305151
90	0xbb3cee77	-0.002882866
91	0xbd6e26a0	-0.058142304
92	0xbc25378c	-0.010084044
93	0x3d05abae	0.03263443
94	0x3d10fd9f	0.035398122
95	0xbc1296aa	-0.008947054
96	0xbc740f9e	-0.014896302
97	0x3d66413c	0.056214556
98	0xbced5912	-0.028973136
99	0xbdabd2af	-0.08389794
100	0x3ced2ae1	0.02895111
101	0x3c5de593	0.013543504
102	0x3d3cbbd6	0.04607757
103	0xbd05cda9	-0.032666836
104	0xbcdce67b	-0.02696537
105	0x3d06ed62	0.03294123
106	0xbcefd71b	-0.029277375
107	0x3dab37a4	0.08360222
108	0x3ce145ae	0.027499046
109	0xbd5df784	-0.054191127
110	0x3c04e1d2	0.00811048
111	0x3d76a149	0.060212407
112	0xbd81448a	-0.06311901
113	0xbc9706c5	-0.018435845
114	0xbbc563c9	-0.006023858
115	0xbd25e8a8	-0.04050508
116	0xbcce1224	-0.025155134
117	0xbce0b28a	-0.027428884
118	0x3c6e9761	0.014562459
119	0x3c29089c	0.010316994
120	0xbcecf620	-0.028925955
121	0x3c64a7f7	0.013956062
122	0x3d76d1ad	0.060258556
123	0x3d422749	0.047400746
124	0xbc0b9938	-0.008520417
125	0x3e286148	0.1644336
126	0x3cd649a4	0.026158161
127	0x3da1833b	0.07886358
128	0xbc1dab98	-0.009623431
129	0xbd203f16	-0.039122663
130	0x3bef5cea	0.0073047774
131	0xbd4a46d1	-0.049383942
132	0xbcb3404e	-0.021881249
133	0xbc9a26e2	-0.018817369
134	0xbd3d597d	-0.04622792
135	0x3cb09b00	0.021558285
136	0xbb9eadca	-0.0048424946
137	0xbc750855	-0.0149556
138	0x3a0bb79d	0.000532979
139	0x3d81f160	0.06344867
140	0xbd969c7f	-0.07354068
141	0x3d32f44d	0.043690015
142	0x3d591fb4	0.05300875
143	0xbb5bd470	-0.003354337
144	0xb9f21bb7	-0.00046178486
145	0xbccd5843	-0.0250665
146	0x3d18c720	0.037299275
147	0x3d0ccec1	0.034376863
148	0xbcec3ccd	-0.028837586
149	0x3b6e2ed1	0.0036343823
150	0x3c5c7351	0.013455228
151	0xbc930bb3	-0.017949915
152	0x3cf28291	0.029603275
153	0xbc0c208b	-0.008552681
154	0x3d6ebc1f	0.058284875
155	0x3c8cea16	0.017201465
156	0x3b5f9229	0.0034114218
157	0xbcb8ade6	-0.022543859
158	0x3d2fc848	0.042915612
159	0x3d248f22	0.040175565
160	0x3d663674	0.056204274
161	0x3d31322c	0.04326074
162	0xbd2a0b13	-0.041514467
163	0xba9a8e7e	-0.0011791734
164	0xbc5b2715	-0.013376017
165	0xbd580838	-0.052742213
166	0x3da36533	0.079782866
167	0xbcdec5f4	-0.027194
168	0xbc73eee8	-0.014888503
169	0x3cbdca95	0.023167888
170	0xbd01b084	-0.03166248
171	0x3d0f03f8	0.034915894
172	0xbd2bc417	-0.041935053
173	0xbc3f5de9	-0.011680105
174	0xba0e25bd	-0.00054224936
175	0xbc870cfc	-0.016485684
176	0x3ceea096	0.029129308
177	0x3c87af32	0.016563032
178	0xbcd7c1b1	-0.026337476
179	0x3d01d89b	0.03170071
180	0x3d445626	0.04793372
181	0xba806ee5	-0.0009798674
182	0x3d62656d	0.05527251
183	0xbbce0679	-0.0062873927
184	0xbcc5ff37	-0.024169547
185	0xbbe22c1f	-0.0069022323
186	0x3ce40c4e	0.027837899
187	0xbd45f3ec	-0.048328325
188	0xbd0765bd	-0.03305601
189	0xbc22cf70	-0.009937152
190	0xbd6a51d9	-0.057206962
191	0x3cd8c66d	0.026461804
192	0x3ccde2d9	0.025132583
193	0xbd01b86e	-0.031670026
194	0x3c8d3907	0.017239107
195	0xbbff8572	-0.0077978903
196	0xbbc2894e	-0.005936778
197	0x3b8bef01	0.004270435
198	0x3d6089df	0.054818984
199	0x3c85efe8	0.016349748
200	0x3b8f2672	0.0043685967
201	0xbc76e57b	-0.015069361
202	0xbc913fdf	-0.017730651
203	0xbd038017	-0.032104578
204	0xbbe1097a	-0.006867585
205	0xbd22147e	-0.039570324
206	0xbc8fb6ec	-0.017543279
207	0x3cbe5b4c	0.023236893
208	0xbbdbe010	-0.00671006
209	0x3d0b443c	0.03400062
210	0xbd797303	-0.0609007
211	0xbcc06469	-0.02348538
212	0xbc7ee425	-0.015557324
213	0xbd166b00	-0.036723137
214	0xbbab03f2	-0.005218976
215	0xbd4f5a91	-0.05062348
216	0x3d3f7c8c	0.046749637
217	0xbd963cbc	-0.07335803
218	0xbcf8e85b	-0.030384233
219	0x3c5be580	0.013421416
220	0xbb056cb5	-0.0020358984
221	0xbbee6a77	-0.007275875
222	0xbc82c063	-0.015960878
223	0xbba46842	-0.0050173113
224	0x3d3b4652	0.04572136
225	0x3de4b211	0.11166776
226	0x3d360e58	0.044447273
227	0xbb98dd6c	-0.0046650674
228	0x3d74522c	0.059648678
229	0x3cb21edf	0.021743236
230	0x3da02a8a	0.07820614
231	0xbb818fec	-0.0039539244
232	0x3d50ad7e	0.050946705
233	0x3cb68091	0.022278102
234	0xbc6d9bb7	-0.014502457
235	0x3d2e0a2d	0.042490173
236	0xbd4e0607	-0.050298717
237	0xbd044968	-0.03229657
238	0xbcfba98c	-0.030720495
239	0x3d9912dc	0.074743
240	0x3d36e496	0.04465159
241	0x3cc60e91	0.024176868
242	0x3cf7f286	0.030267011
243	0x3cd1d6e5	0.025615165
244	0x3d46b6a6	0.04851403
245	0x3de8ceeb	0.113675915
246	0x3dd83103	0.10556223
247	0x3cf967f7	0.030445082
248	0x3d4d9cb7	0.050198283
249	0x3e3ee46f	0.18641828
250	0x3c949728	0.018138483
251	0x3d15d82f	0.036583122
252	0x3b376ae2	0.002798729
253	0x3d870a96	0.06593816
254	0x3b987e40	0.004653722
255	0x3c4f61c7	0.012657589

fc3.bias f4 [2]
0	0xbcab2a83	-0.020894295
1	0x3c9309a7	0.017948939
