Unity-projects/Pro3.1_Tennis/models/agent1_actor.pth (torch_old, 579565 bytes, 6 tensors)

fc1.weight f4 [512, 24]
0	0x3c4b75ca	0.01241822
1	0x3dabb8a5	0.083848275
2	0x3d0ce40b	0.034397166
3	0xbb921b89	-0.004458849
4	0xbd0d026e	-0.034426145
5	0x3c4bf4ce	0.012448503
6	0x3d21d93f	0.039513823
7	0xbc0d6244	-0.008629385
8	0xbc8f2558	-0.017473862
9	0x3cfe4325	0.031037876
10	0x3bc0496f	0.005868129
11	0xbd81f864	-0.06346205
12	0x3d2d7366	0.04234638
13	0x3e06f07f	0.1317768
14	0x3db6e19c	0.0892975
15	0xbd26ca31	-0.04072017
16	0x3c153047	0.0091057485
17	0x3ccd322d	0.02504834
18	0x3cd62b69	0.026143746
19	0xbd4bbc2a	-0.049739994
20	0x3cf583d1	0.029970082
21	0x3dd80ced	0.105493404
22	0x3d333df6	0.043760262
23	0x3d1950e2	0.03743065
24	0x3d503355	0.050830204
25	0x3c9626f4	0.018329121
26	0xbba56c5e	-0.0050483188
27	0xbda1b56f	-0.07895934
28	0x3c7cdfdd	0.015434233
29	0xbd2e398b	-0.042535346
30	0x3ba292f1	0.0049613644
31	0xbd93081e	-0.071792826
32	0x3c959cb3	0.018263197
33	0x3d3ad917	0.04561719
34	0xbceebd13	-0.029142892
35	0xbd88970c	-0.06669435
36	0x3d0f8bf8	0.035045594
37	0xbe0406d3	-0.12893228
38	0x3d1203a5	0.035648007
39	0xbd455490	-0.04817635
40	0x3cb8876f	0.022525517
41	0x3d66a19c	0.056306466
42	0x3d698a8b	0.05701689
43	0xbd95265e	-0.072827086
44	0x3cb5ad51	0.02217737
45	0xbd4edcdf	-0.050503608
46	0x3d4dabb1	0.050212566
47	0xbdced484	-0.10099128
48	0x3c608fa9	0.013706126
49	0xbdbbd9ab	-0.09172376
50	0x3caffbce	0.021482375
51	0xbca00cc4	-0.019537337
52	0xbcf053fe	-0.029336926
53	0x3d9d94ba	0.07694383
54	0x3c9d70cf	0.01921883
55	0xbbbdd492	-0.0057931626
56	0x3c4d2d01	0.012522937
57	0xbd835180	-0.06412029
58	0x3e001f03	0.1251183
59	0xbb827ea0	-0.00398238
60	0xbd38d8eb	-0.045128744
61	0x3cf9315c	0.030419044
62	0x3d93a89c	0.07209894
63	0xbd38700a	-0.045028724
64	0xbd0d16e4	-0.03444566
65	0xbdb954f1	-0.090494044
66	0xbcb6152d	-0.022226894
67	0xbc15da31	-0.009146259
68	0x3b79922f	0.0038081517
69	0x3d837719	0.064192005
70	0xbc24b3ac	-0.010052603
71	0xbcf70dbc	-0.030157916
72	0xbd0ed566	-0.03487148
73	0x3ce2abfa	0.027669895
74	0x3bed0611	0.007233389
75	0x3d10fda3	0.035398137
76	0x3d6d2c8b	0.057903808
77	0x3c561ea4	0.013068829
78	0x3cc06fc4	0.023490794
79	0xbcd9c7b2	-0.02658448
80	0x3cacca42	0.021092538
81	0x3bb8857e	0.005631148
82	0xbc89f843	-0.016842013
83	0xbcc5e139	-0.024155246
84	0x3d2dd11a	0.042435743
85	0x39a66ff8	0.0003174541
86	0x3ccfec84	0.025381334
87	0xbbd6f7d7	-0.0065603065
88	0xbc116e2f	-0.0088763675
89	0x3d2d038d	0.042239714
90	0x3cb91927	0.022595001
91	0x3c00d3d3	0.007863003
92	0x3d1549ab	0.03644721
93	0xbcab0efe	-0.020881172
94	0x3ccde9c7	0.025135888
95	0xbc8d5187	-0.01725079
96	0xbc88410d	-0.016632581
97	0x3d2af9be	0.04174208
98	0x3d4f687c	0.050636753
99	0xbc823b63	-0.015897458
100	0xbd178dde	-0.03700053
101	0x3dc83f3a	0.097776845
102	0x3d45bb18	0.04827413
103	0x3cb4e973	0.022083974
104	0x3d62aba5	0.055339474
105	0x3d73e9b1	0.059549037
106	0xbd1d2276	-0.038362943
107	0xbd1f5f63	-0.038909327
108	0xbd2e0943	-0.0424893
109	0x3c40ef6d	0.011775834
110	0xbce00194	-0.027344503
111	0x3cfa6976	0.030567866
112	0x3c5b3553	0.013379413
113	0x3bafb633	0.005362296
114	0x3c1e5f87	0.00966633
115	0xbd1da29a	-0.038485147
116	0x3c2496b6	0.010045698
117	0x3b0a5b3d	0.002111151
118	0x3d4581ec	0.048219606
119	0xbcbbf6ca	-0.022944827
120	0x3c9cbe9b	0.019133857
121	0xbdc4d878	-0.09611601
122	0x3b98c96a	0.0046626823
123	0xbc806e0f	-0.01567748
124	0xbda3c085	-0.079957046
125	0x3cc593bf	0.024118302
126	0x3d8f1a91	0.06987489
127	0xbcce5989	-0.025189178
128	0xbc15c498	-0.00914111
129	0xbe130cf1	-0.14360406
130	0x3db4ed0d	0.08834276
131	0xbd5ee8a4	-0.054421082
132	0xbdba4f05	-0.09097103
133	0x3d728b3f	0.059214827
134	0x3d8f0d8f	0.06985008
135	0xbd02b1dd	-0.031907905
136	0x3c37842c	0.011200946
137	0xbe085ec6	-0.13317403
138	0xbd06bc73	-0.032894563
139	0xbcb4adc6	-0.022055518
140	0xbd8f0711	-0.0698377
141	0x3d12a401	0.035800938
142	0xbc55f151	-0.013058023
143	0xbb17fad3	-0.0023190274
144	0xbb8a9a60	-0.0042298287
145	0xbd5182fd	-0.05115031
146	0xbd47db4d	-0.048793126
147	0xbd5a9777	-0.053367104
148	0x3d8669c6	0.065631434
149	0x3d0da89b	0.034584623
150	0xbcc961a2	-0.024582688
151	0x3c32da2f	0.010916277
152	0x3cdd26a9	0.026995974
153	0xbd15c72e	-0.036566906
154	0xbb4dcfc2	-0.003140435
155	0xbd7dd5bc	-0.06197141
156	0xbcb703b4	-0.022340633
157	0x3cadbea5	0.02120907
158	0x3c2b4682	0.010453822
159	0xbcf266e5	-0.02959008
160	0xbcde4698	-0.027133271
161	0xbdd281b1	-0.10278643
162	0xbc61e9a0	-0.013788611
163	0x3b33905b	0.0027399275
164	0x3cd2f46b	0.025751313
165	0x3d6b0758	0.05738005
166	0xbc4226f0	-0.011850104
167	0xbcc78c1f	-0.024358807
168	0xbd564a2f	-0.05231684
169	0x3c7a4190	0.01527442
170	0x3c78470d	0.015153659
171	0x3c7017cf	0.014654114
172	0xbd13ff78	-0.036132306
173	0xbe269d35	-0.16270907
174	0xbd019d7b	-0.031644326
175	0xbc8c334f	-0.01711431
176	0xbd306939	-0.0430691
177	0x3d1e14d9	0.0385941
178	0x3c2ee629	0.010674992
179	0x3a9e3878	0.0012071272
180	0x3ceaadb1	0.028647276
181	0xbe221bab	-0.15830867
182	0xbcec5816	-0.028850596
183	0x3ceecda5	0.029150793
184	0xbce54f9d	-0.027992064
185	0x3d4ed90c	0.05049996
186	0xbd84b540	-0.06479883
187	0xbc8dd513	-0.017313516
188	0xbc637c9d	-0.013884691
189	0xbe33e393	-0.17567281
190	0x3c64177e	0.013921617
191	0x3cd6b939	0.026211368
192	0xbb98edf8	-0.00466704
193	0x3cad0cf1	0.021124335
194	0x3bda94e9	0.0066705835
195	0x3c536f2c	0.012904923
196	0xbd350d7b	-0.04420231
197	0x3ca0ec8e	0.019644048
198	0xbcc8b11d	-0.024498517
199	0xbca74cb9	-0.020422326
200	0xbd0b3b5f	-0.033992168
201	0x3ced55e2	0.028971616
202	0x3cd27571	0.025690766
203	0x3d29bcf3	0.04143996
204	0xbccf2246	-0.025284898
205	0xba563d44	-0.00081725814
206	0x3ad06d74	0.001590176
207	0x3bcb3060	0.006200835
208	0xbd50a3b3	-0.050937366
209	0xbac56579	-0.0015060148
210	0xbc755167	-0.014973021
211	0x3d8002f4	0.06250563
212	0xbce3bab7	-0.027798994
213	0x3d04c627	0.032415535
214	0xbb9d2896	-0.004796098
215	0x3da4b577	0.08042424
216	0x3c609564	0.0137074925
217	0x3dc259cc	0.09489784
218	0xbca47a8d	-0.020077968
219	0xbcccbc9c	-0.02499228
220	0xbd575dc9	-0.052579675
221	0x3d8407eb	0.06446823
222	0xbd2d1a1e	-0.042261235
223	0xbd1ad0cc	-0.03779678
224	0xbc4807c3	-0.012208882
225	0xbbcd96d5	-0.006274084
226	0xbcd4179c	-0.025890164
227	0xbca323ed	-0.019914592
228	0xbd5c2680	-0.053747654
229	0x3daef611	0.08543027
230	0x3d151214	0.036394194
231	0xbd8981df	-0.06714224
232	0x3d00fd56	0.0314916
233	0x3d0157ce	0.031577878
234	0xbb25ea8e	-0.0025316807
235	0xbd73c6c7	-0.05951574
236	0xbcd34d92	-0.025793824
237	0x3d44af75	0.04801889
238	0xbd7a9df0	-0.061185777
239	0xbd23d9a5	-0.040002484
240	0x3cd859b9	0.02640997
241	0x3d07b98d	0.03313594
242	0xbd688392	-0.0567661
243	0xbd32ee86	-0.043684505
244	0xbbad6597	-0.0052916515
245	0xbe61f98f	-0.22067855
246	0x3c822d9a	0.015890885
247	0xbcc763f9	-0.024339663
248	0x3c88cb0e	0.016698387
249	0xbd6d31ed	-0.05790894
250	0x3c9fe506	0.019518387
251	0xbc3cfd68	-0.011535026
252	0xbcda2273	-0.026627755
253	0xbe109851	-0.14120604
254	0x3bc5ecaf	0.006040178
255	0x3c09cd70	0.0084107965

fc1.bias f4 [512]
0	0xbc81fd99	-0.015867995
1	0xbd39cd7b	-0.045361977
2	0x3e4ce36d	0.20008631
3	0x3d72618f	0.05917507
4	0x3dc5e151	0.09662116
5	0xbe2fd490	-0.1717093
6	0xbc885024	-0.016639777
7	0x3e0f6ac4	0.14005572
8	0x3e08b305	0.1334954
9	0x3b8f681e	0.0043764254
10	0xbe348e53	-0.17632417
11	0xbd3af725	-0.04564585
12	0xbd75a4b9	-0.059971545
13	0x3dc7217a	0.09723182
14	0x3df3d6e4	0.119062215
15	0x3d8c85e0	0.06861472
16	0x3c97aa52	0.018513832
17	0xbe4033e6	-0.18769798
18	0x3a864560	0.0010244064
19	0xbd8d9884	-0.06913856
20	0x3e26391b	0.16232722
21	0x3d749a8e	0.059717707
22	0x3e2b3ed8	0.16723192
23	0xbdd2c16d	-0.10290799
24	0xbddcb753	-0.10777154
25	0x3e133ea3	0.14379363
26	0x3db973ad	0.090552665
27	0x3e4e8563	0.2016807
28	0xbe2f5a40	-0.17124271
29	0xbe3c4073	-0.1838396
30	0xbe4c7d2b	-0.19969623
31	0x3dc82c5b	0.09774085
32	0xbda2de21	-0.07952524
33	0x3e28ea65	0.16495664
34	0xbdea9917	-0.11454981
35	0xbc30ff9d	-0.01080313
36	0x3e289f55	0.1646703
37	0x3ceea666	0.02913208
38	0x3d0a7799	0.033805463
39	0xbdda6da4	-0.106654435
40	0x3d1bc9cc	0.038034245
41	0x3e35a79d	0.1773972
42	0x3e28ed50	0.16496778
43	0xbdef52af	-0.116856925
44	0x3df4181a	0.119186595
45	0x3db2915a	0.0871913
46	0xbcd1e97a	-0.025624026
47	0x3e0047bf	0.12527369
48	0xbe50284f	-0.20327877
49	0x3dba4ffb	0.09097286
50	0x3cdd87fa	0.027042378
51	0x3e003421	0.12519886
52	0x3e4646b7	0.19362913
53	0xbd9a140c	-0.07523355
54	0x3e5cc713	0.21560316
55	0x3dc2f513	0.095194004
56	0x3dfee4f8	0.12446016
57	0xbccfa633	-0.025347805
58	0x3cd01a8f	0.02540329
59	0xbbde1ffc	-0.006778715
60	0xbe3be1cc	-0.18347853
61	0x3df00b32	0.11720885
62	0x3db5e161	0.08880878
63	0x3da8467b	0.08216568
64	0x3e65a322	0.22425511
65	0x3defa9bd	0.11702297
66	0x3db64191	0.088992245
67	0xbe2e2e6a	-0.17009893
68	0x3ddcd2e2	0.1078241
69	0x3c7197c8	0.01474566
70	0x3e1502ba	0.14551821
71	0x3e4094fe	0.18806836
72	0x3e0c037c	0.13673204
73	0xbd99d38b	-0.07511052
74	0xbcc72841	-0.024311187
75	0xbd24d177	-0.040238824
76	0xbba4d1c1	-0.0050298874
77	0xbc9e32fd	-0.019311422
78	0xbe292e00	-0.16521454
79	0x3d6b0f84	0.057387844
80	0x3c2d7bd5	0.010588606
81	0x3e0517c8	0.12997353
82	0x3d30e244	0.043184534
83	0x3d9b17c6	0.07572894
84	0x3e13963d	0.1441278
85	0x3e0fe1f5	0.1405104
86	0x3de02b08	0.109457076
87	0x3c0b325a	0.0084958915
88	0x3e328b87	0.17436038
89	0xbd332c2a	-0.04374329
90	0x3da9a7be	0.082839474
91	0x3d133c3c	0.035946116
92	0xbe19d3df	-0.15022229
93	0x3d9928de	0.07478498
94	0xbdfa6b5f	-0.12227511
95	0xbe15e5e9	-0.14638485
96	0xbe1ad442	-0.15120032
97	0x3e23e811	0.16006495
98	0xbde36cd6	-0.11104743
99	0x3c9bcea6	0.019019436
100	0x3e1949af	0.14969514
101	0xbe35405b	-0.17700331
102	0x3c0514a7	0.0081226
103	0x3dab1b6c	0.0835484
104	0x3de4d047	0.11172538
105	0xbd80f014	-0.06295791
106	0xbe08bba6	-0.13352832
107	0xbdc34c32	-0.095360175
108	0x3c9bd9ba	0.019024719
109	0x3c9ab41b	0.01888471
110	0xbe0b1141	-0.135808
111	0xbd8c64bf	-0.06855153
112	0xbd95c7d5	-0.073135056
113	0x3df27349	0.11838395
114	0xbd6a96fd	-0.0572729
115	0x3e6cd65e	0.2312865
116	0x3e3f3b00	0.1867485
117	0xbdc39539	-0.09549946
118	0x3bf72705	0.0075424933
119	0xbcc781f1	-0.024353953
120	0x3c92652a	0.017870504
121	0xbe2b05f3	-0.16701488
122	0x3d026159	0.03183112
123	0xbda98941	-0.08278132
124	0x3d540ff1	0.051773015
125	0xbd1af6d2	-0.037833042
126	0xbe02edbb	-0.12786
127	0x3e0a7fb0	0.13525271
128	0xbe091234	-0.1338585
129	0xbdd2d47b	-0.10294434
130	0xbd40f27b	-0.047106247
131	0x3e19cd0a	0.15019622
132	0x3cf104b1	0.029421182
133	0x3d93596d	0.07194791
134	0xbd297498	-0.041370958
135	0xbe2b8902	-0.16751483
136	0x3dc66a9c	0.09688303
137	0x3d2c4d2a	0.042065777
138	0xbe06fbcc	-0.1318199
139	0x3e4a0bca	0.1973106
140	0x3e4a45df	0.19753216
141	0xbcd3c06e	-0.025848594
142	0x3e07fac5	0.13279255
143	0x3e283329	0.16425766
144	0x3e253682	0.16134074
145	0xbdf416e5	-0.11918429
146	0x3e5e93fc	0.21736139
147	0xbe456703	-0.19277577
148	0xbd56a1e0	-0.05240047
149	0x3dc2aa57	0.09505146
150	0xbe39d4a0	-0.18147516
151	0xbd1f93f0	-0.038959444
152	0xbd934d2b	-0.07192453
153	0xbdf6fbf7	-0.12059777
154	0x3ca47721	0.020076336
155	0x3e3c7fd1	0.18408133
156	0x3e081201	0.13288118
157	0xbd0db6a7	-0.03459802
158	0x3da60eeb	0.08108314
159	0x3c3435a8	0.010999121
160	0xbdc0ef36	-0.09420626
161	0x3c547986	0.012968427
162	0x3d908f78	0.070586145
163	0xbd0290eb	-0.031876486
164	0xbe3ec83a	-0.18631068
165	0xbdce9dec	-0.10088715
166	0xbd970448	-0.073738635
167	0xbdbc08ff	-0.09181403
168	0xbdb24521	-0.087045915
169	0x3e37420c	0.17896289
170	0xbda5a319	-0.08087749
171	0xbcb8f2ef	-0.022576777
172	0x3d57c972	0.052682348
173	0x3d953830	0.072861075
174	0x3e0e6739	0.13906564
175	0xbdbe32a2	-0.09287001
176	0x3e57e110	0.21081948
177	0x3c5adade	0.013357846
178	0x3e61b54e	0.22041818
179	0xbe2a55c5	-0.16634281
180	0x3de460be	0.111512646
181	0xbbb9f4c4	-0.0056749303
182	0x3da59ba0	0.08086324
183	0xbe4588d2	-0.19290474
184	0xbda7dd36	-0.081964895
185	0xbe448168	-0.1918999
186	0xbe05d8bc	-0.13070959
187	0x3d8c95c9	0.06864507
188	0x3cbf7174	0.023369528
189	0x3ddf935e	0.1091678
190	0xbe0cdb0f	-0.13755439
191	0xbe221b2c	-0.15830678
192	0xbe436331	-0.19080807
193	0x3e58cf99	0.21172942
194	0xbde4784e	-0.11155759
195	0xbddd845c	-0.10816261
196	0xbccd2f92	-0.025047097
197	0x3d8f325d	0.06992028
198	0xbd9fd9a5	-0.07805184
199	0xbe1401c5	-0.144538
200	0xbe27fee5	-0.16405828
201	0xbce6f96f	-0.028195111
202	0x3e4b8592	0.19875172
203	0x3e1ba908	0.15201199
204	0xbd8b0af5	-0.06789199
205	0x3ca4c54b	0.020113608
206	0xbe2dc730	-0.16970515
207	0xbe10a84c	-0.141267
208	0xbd69fe9b	-0.057127576
209	0xbc92ca18	-0.017918631
210	0xbe5c8916	-0.21536669
211	0x3e554b2f	0.20829462
212	0x3e0c071f	0.13674591
213	0x3dbc0778	0.09181112
214	0x3e00aa5b	0.12564985
215	0x3d8d296f	0.068926685
216	0x3d9db740	0.07700968
217	0x3d43157e	0.04762792
218	0x3a854865	0.001016867
219	0x3dc438b9	0.095811315
220	0x3d8490de	0.06472944
221	0x3e1dd0fc	0.15411752
222	0xbe1999db	-0.15000097
223	0x3e2dd3e1	0.16975357
224	0xbe1a1bbe	-0.15049645
225	0x3e3caa75	0.18424399
226	0xbe1fcee9	-0.15606274
227	0xbddfab62	-0.109213606
228	0xbc6d56e6	-0.01448605
229	0x3abe3a4e	0.0014513226
230	0x3e4ea84d	0.20181389
231	0x3df623ab	0.12018522
232	0x3e47c302	0.19507983
233	0xbe307816	-0.17233309
234	0xbdd9ccb9	-0.10634751
235	0x3e532ca7	0.20622502
236	0xbe015e21	-0.12633564
237	0x3e627fef	0.22119115
238	0x3e0261c8	0.12732613
239	0x3e10d630	0.14144206
240	0x3dbcb614	0.09214416
241	0x3de6dc2d	0.11272464
242	0xbda81815	-0.08207718
243	0x3d8b467d	0.06800554
244	0x3c6d00b7	0.014465502
245	0xbe282365	-0.16419752
246	0xbd8204bc	-0.06348559
247	0xbe12c0c8	-0.14331353
248	0xbdb81edb	-0.0899026
249	0xbe4efbf5	-0.20213301
250	0x3e1a43f2	0.15064982
251	0x3e291964	0.16513592
252	0xbde87a1d	-0.11351416
253	0x3b7bb98a	0.003841015
254	0xbce11dd1	-0.027480038
255	0x3e06e609	0.13173689

fc2.weight f4 [256, 512]
0	0xbb2273ad	-0.0024788186
1	0xbcaee995	-0.021351615
2	0x3cb7eb93	0.022451198
3	0x3b6ce1fd	0.0036145442
4	0x3d0ea680	0.034826756
5	0x3cc742ea	0.0243239
6	0xbdb09314	-0.08621803
7	0x3d364d39	0.04450724
8	0x3d6a0439	0.057132933
9	0x3cd2ee44	0.02574838
10	0xbd232575	-0.039830644
11	0x3d3903fc	0.045169815
12	0xbb184ceb	-0.0023239206
13	0x3ceb4036	0.028717142
14	0xbc2f1181	-0.010685326
15	0x3cd7e0e9	0.026352363
16	0xbd93568b	-0.07194241
17	0x3d970ad7	0.073751144
18	0xbc9ff53d	-0.019526118
19	0xbce994a6	-0.028513264
20	0xbd3ad727	-0.04561534
21	0xbd0b5819	-0.034019563
22	0x3b816242	0.003948481
23	0x3ca2a2f6	0.019853096
24	0xbc0c8995	-0.008577724
25	0x3c79e4b3	0.01525228
26	0xbc592c8d	-0.013255251
27	0x3d0443bb	0.032291155
28	0xbcc40799	-0.023929404
29	0x3dafd5d6	0.08585708
30	0x3d79d00b	0.06098942
31	0xbd715214	-0.058916166
32	0x3c86f73c	0.016475312
33	0x3d26b282	0.040697582
34	0x3bb6aeac	0.0055750217
35	0x3d0d0481	0.034428123
36	0xbda4bfe4	-0.08044413
37	0x3d70f79c	0.05882989
38	0xbd2365d2	-0.039892025
39	0x3c077456	0.008267483
40	0x3d1f534e	0.038897805
41	0xbd80eb6e	-0.06294905
42	0xbd4b5f03	-0.049651157
43	0xbd77709b	-0.060410123
44	0x3c0b0559	0.008485162
45	0x3b8dd3f4	0.0043282453
46	0xbd88723d	-0.06662414
47	0xbc508386	-0.01272667
48	0xbd211eb3	-0.039335918
49	0x3d850054	0.06494203
50	0xbd9320ff	-0.07184028
51	0xbdcb1ef5	-0.09918014
52	0x3d05f0cb	0.03270034
53	0x3c95ca5f	0.018284975
54	0x3c9e528d	0.019326473
55	0x3d91630f	0.07098972
56	0xbcbf5e7a	-0.02336048
57	0x3a2f2d8a	0.0006682506
58	0xbdc7216d	-0.09723172
59	0x3d736f5e	0.05943238
60	0xbaf2d519	-0.0018526643
61	0x3db465ba	0.08808465
62	0xbc8f2385	-0.017472992
63	0xbc0a6efa	-0.00844931
64	0xbc72bfaa	-0.014816204
65	0x3b2709f4	0.002548811
66	0x3cc49000	0.023994446
67	0x3c1112c5	0.008854573
68	0x3dccc5d3	0.099986695
69	0xbbc2910e	-0.005937702
70	0xbda9b37a	-0.082861856
71	0x3c8f0c00	0.017461777
72	0x3d58f9fe	0.052972786
73	0xbbcda994	-0.006276319
74	0xbdc0ff54	-0.094237
75	0xbc95981a	-0.018261004
76	0x3a188c74	0.0005819269
77	0xbae316f6	-0.0017325568
78	0x3cc99015	0.024604836
79	0xbd2fa7eb	-0.04288475
80	0x3b2e089e	0.002655543
81	0xbcb95ea4	-0.022628136
82	0xbd5311c9	-0.051530633
83	0xbe0288fe	-0.12747571
84	0xbb9e9af5	-0.0048402497
85	0xbd2e064b	-0.04248647
86	0xbc94acf7	-0.018148882
87	0xbc858bc8	-0.016302004
88	0xbd20ec03	-0.03928758
89	0xbd62c187	-0.055360343
90	0xbbdc86bc	-0.006729929
91	0x3d45a7d4	0.048255756
92	0xbd616c53	-0.055034947
93	0x3dbb287a	0.0913858
94	0xbcba25b2	-0.022723053
95	0x3da4888b	0.08033856
96	0xbe0571b2	-0.13031653
97	0x3d1ed8af	0.038780864
98	0xbd5a4f5d	-0.053298343
99	0xbda11c2d	-0.07866702
100	0xbd3d3a0f	-0.046197947
101	0xbd571a1b	-0.05251513
102	0xbc331d11	-0.010932223
103	0x3c8a1723	0.016856736
104	0xbd75b909	-0.059990916
105	0xbd6e4380	-0.05816984
106	0x3c40691f	0.011743813
107	0xbccccb03	-0.024999147
108	0xbd59521b	-0.053056818
109	0x3d99a180	0.07501507
110	0xbd0d7c43	-0.034542333
111	0xbc8a1702	-0.016856674
112	0xbcfc2fcf	-0.030784516
113	0x3d71e765	0.059058566
114	0x3db8a3fe	0.09015654
115	0xbb645984	-0.0034843395
116	0xbd5e62ed	-0.05429356
117	0x3d9395b6	0.072062895
118	0x3cc05ec8	0.023482695
119	0xbd439824	-0.047752514
120	0x3b1e3c6c	0.00241449
121	0xbc8634de	-0.01638263
122	0x3c9c07f3	0.01904676
123	0x3c77158e	0.015080823
124	0x3d24d1d1	0.04023916
125	0x3d84ffa4	0.06494072
126	0x3da8ef8e	0.082488164
127	0xbd2be56f	-0.04196685
128	0xbd721ef1	-0.05911154
129	0x3c8e01dc	0.017334871
130	0xbc8d3170	-0.017235488
131	0xbdd054e3	-0.10172441
132	0x3cb41678	0.02198337
133	0x3d8ea0f7	0.06964295
134	0x3cb80e7b	0.022467842
135	0xbca95c43	-0.020673877
136	0x3c9f9182	0.019478563
137	0x3c772803	0.015085223
138	0xbd414157	-0.047181454
139	0x3dbfa21c	0.09357092
140	0xbd4ef6e0	-0.050528407
141	0xbdc5b24c	-0.09653148
142	0x3c62b15a	0.013836229
143	0xbd9d5e4e	-0.07684003
144	0xbd0ec42d	-0.034855057
145	0x3d8fd06a	0.07022174
146	0xbcdfa575	-0.027300576
147	0xbddacbb2	-0.10683383
148	0x3ce90aaa	0.028447468
149	0x3c8c39a4	0.017117329
150	0xbd284559	-0.04108176
151	0xbc9cda7e	-0.019147154
152	0xbc9def05	-0.019279012
153	0xba61c79c	-0.0008612813
154	0xbd5c564d	-0.05379324
155	0x3c221f9f	0.009895234
156	0xbccae031	-0.024765106
157	0x3c3f3b45	0.011671846
158	0x3abb599d	0.0014293675
159	0x3ca1e0c1	0.019760491
160	0x3daf12e3	0.08548524
161	0xbddb9900	-0.10722542
162	0x3cd9a124	0.026566096
163	0xbddbb7c7	-0.10728412
164	0xbdae15d6	-0.085002586
165	0x3df955b3	0.12174549
166	0xbcbbd990	-0.02293089
167	0xbc89230d	-0.016740346
168	0xbaec88d2	-0.0018046147
169	0xbdcb9970	-0.09941375
170	0xbcb1c3e5	-0.021699855
171	0x3dbbc24a	0.09167917
172	0xbd5caf4b	-0.05387811
173	0xbc58e4c4	-0.013238136
174	0x3d857f76	0.06518452
175	0x3db69433	0.089149855
176	0xbda5dc42	-0.080986515
177	0xbdb03140	-0.08603144
178	0xbdb947f0	-0.09046924
179	0x3bf1fe66	0.007385063
180	0xbd0f4ba5	-0.03498425
181	0xbd800cc6	-0.06252436
182	0x3da2cd29	0.079492874
183	0x3c27adaa	0.010234276
184	0xbd980666	-0.074230954
185	0xbd805c07	-0.06267553
186	0xbd9fa858	-0.07795781
187	0x3a6afc43	0.00089639815
188	0x3dbbfc1e	0.09178947
189	0xbdf62f8c	-0.120207876
190	0xbd8337aa	-0.064071015
191	0x3c8f9c84	0.017530687
192	0x3cedeaf7	0.029042704
193	0x3d471bc6	0.04861047
194	0xbcd748d9	-0.026279854
195	0x3d6d528d	0.057940055
196	0xbd455217	-0.04817399
197	0xbd91f00f	-0.07125866
198	0x3cb97edc	0.0226435
199	0x3db16e63	0.08663633
200	0xbd15c4ad	-0.036564518
201	0xb9c2aff0	-0.00037133647
202	0x3d473f02	0.048644073
203	0x3d3f9d14	0.04678066
204	0xbdb09f1b	-0.08624097
205	0x3c391d51	0.0112984935
206	0xbd4b31d0	-0.04960805
207	0xbd92d11a	-0.07168789
208	0xbd6ea870	-0.058266103
209	0xbc3c2327	-0.01148299
210	0xbcb637ad	-0.022243345
211	0xbd0c780f	-0.034294184
212	0x3cbbc078	0.022918925
213	0x3c833a8e	0.016019132
214	0x3ca26ed0	0.01982823
215	0x3dc36a66	0.09541778
216	0xbd5f04f7	-0.054448094
217	0xbd41abcc	-0.04728298
218	0xbd89948a	-0.06717785
219	0x3d7e68d1	0.06211168
220	0x3d240653	0.040045094
221	0x3d9a3561	0.075297125
222	0xbc1f8d89	-0.009738334
223	0xba53666c	-0.0008064273
224	0x3d84db97	0.06487196
225	0x3c27e766	0.010248041
226	0x3d69775b	0.056998592
227	0xbdd05858	-0.101731
228	0xbd600571	-0.05469269
229	0xbcae6053	-0.021286165
230	0x3dc5783e	0.09642075
231	0x3cdaab97	0.026693149
232	0xbdcb7516	-0.09934442
233	0xba8a4a54	-0.0010550716
234	0x3b9b5014	0.0047397707
235	0xbdc6530d	-0.096838094
236	0xbcc0868f	-0.023501663
237	0x3c1ef12c	0.009701055
238	0x3d80cbde	0.062888846
239	0xbd04a375	-0.032382447
240	0xbcfec475	-0.031099537
241	0x3dba1b57	0.09087246
242	0x3c607220	0.0136990845
243	0x3d205e65	0.03915252
244	0x3c1dec81	0.009638906
245	0xbd89f632	-0.06736411
246	0x3c1c6649	0.009545871
247	0xbd1867ec	-0.037208483
248	0x3d99f9f3	0.07518377
249	0xbc97da83	-0.018536812
250	0x3c5663fb	0.013085361
251	0x3c961f40	0.018325448
252	0xbd8b92b8	-0.06815094
253	0x3d196d81	0.037457947
254	0x3c3d9c5c	0.0115729235
255	0x3d091afa	0.033472992

fc2.bias f4 [256]
0	0x3ceaa28a	0.028641958
1	0x3cf9d9dd	0.030499393
2	0xbd0382f7	-0.03210732
3	0x3c40e67c	0.011773702
4	0xbc92f444	-0.01793874
5	0x3d188eed	0.03724568
6	0x3cda4042	0.026641969
7	0x3cbae493	0.02281407
8	0x3ce0faaf	0.027463285
9	0x3c3da610	0.011575237
10	0x3caf8196	0.021424096
11	0x3ce6edd0	0.02818957
12	0x3acb5ad7	0.0015514743
13	0xbcce003a	-0.025146592
14	0x3d05f47f	0.032703873
15	0xbcc5cfc6	-0.024146926
16	0x3d67f650	0.056631386
17	0xbc3f25c1	-0.011666716
18	0xbc7de85b	-0.015497292
19	0xbc85b11b	-0.016319802
20	0x3c8cfac7	0.017209424
21	0x3cbb8151	0.022888811
22	0xbc105564	-0.008809421
23	0x3cdcaac8	0.026936904
24	0xbceb5149	-0.028725283
25	0x3d182244	0.037142053
26	0xbca23e8d	-0.019805217
27	0x3b271971	0.0025497342
28	0x3c19ead5	0.009394367
29	0x3cea758d	0.028620506
30	0xbd170701	-0.036871914
31	0xbb0c5053	-0.0021410182
32	0x3d766e9f	0.06016409
33	0xbc8f4bb2	-0.017492149
34	0xbcfb6113	-0.030685937
35	0x3d0bc191	0.034120146
36	0xbd0bee6b	-0.03416292
37	0x3bf2da02	0.0074112425
38	0x3b7c33cc	0.0038483022
39	0x3d264dd9	0.040601585
40	0x3d082ec9	0.033247743
41	0xbc537aa7	-0.012907661
42	0x3cb8a127	0.02253778
43	0x3d2b5d5c	0.04183708
44	0xbc99f156	-0.018791836
45	0xbd2c1355	-0.042010624
46	0xbd174aad	-0.03693645
47	0xbd3de691	-0.046362463
48	0x3c38f394	0.011288542
49	0xbc7c6344	-0.015404526
50	0xbc3da3a3	-0.011574659
51	0xbd078ad0	-0.033091366
52	0x3c0882e3	0.008331987
53	0x3bf00802	0.0073251734
54	0xbac679e7	-0.0015142531
55	0x39926b55	0.0002792726
56	0x3c404a3c	0.011736449
57	0xbd194247	-0.037416723
58	0x3d0afc40	0.03393197
59	0x3c69ad8b	0.014262567
60	0xbd161f14	-0.036650732
61	0x3d4ba493	0.049717497
62	0x3cf28932	0.029606435
63	0xbc79c8c3	-0.015245619
64	0xbcc4940f	-0.023996381
65	0xbc21ce01	-0.009875775
66	0x3cd90706	0.026492607
67	0xbcd1824c	-0.025574826
68	0x3d80e840	0.06294298
69	0x3be6a5d4	0.007038811
70	0xbbedcdb2	-0.007257187
71	0x3d2ad506	0.04170706
72	0xbd33b0eb	-0.043869894
73	0x3b9037e0	0.004401192
74	0xbc0b12e8	-0.008488394
75	0xbc7b6441	-0.015343727
76	0x3cdfbc62	0.027311508
77	0x3cfa0da3	0.03052408
78	0x3cccf790	0.02502039
79	0xbcd75785	-0.02628685
80	0xbc23263f	-0.009957849
81	0xbd0ad876	-0.03389784
82	0xbc58cc3a	-0.013232285
83	0x3caedcaa	0.021345455
84	0x3ba48108	0.0050202645
85	0xbb8284dc	-0.003983123
86	0x3cfee31a	0.03111415
87	0x3c8927ff	0.016742704
88	0x3d05f44d	0.032703687
89	0x3c64e316	0.013970157
90	0xbc8655de	-0.016398367
91	0x3cbf32e9	0.023339706
92	0x3c5f2c4b	0.0136214
93	0x3bbfe56a	0.0058562057
94	0xbc7b5bf2	-0.015341746
95	0xbcea02d8	-0.02856581
96	0x3cf6bb13	0.0301185
97	0xbd0cbd10	-0.03435999
98	0x3ac64e99	0.0015129625
99	0x3c26f598	0.01019039
100	0x3ba8480d	0.0051355422
101	0x3d24bb19	0.040217493
102	0x3c8b8235	0.017029861
103	0x3ccd7181	0.025078537
104	0x3d1984f5	0.037480313
105	0x3d0645ba	0.03278134
106	0x3d5dccb5	0.054150302
107	0x3d27842b	0.04089753
108	0xbceae707	-0.028674616
109	0xbc57c651	-0.013169841
110	0x3d33e40b	0.04391865
111	0x3d6c4851	0.057686154
112	0x3d2ff301	0.042956356
113	0x3d04be18	0.03240785
114	0xba48e5aa	-0.0007663617
115	0xbc876002	-0.016525272
116	0x3ce931e8	0.02846618
117	0xba9cf0f0	-0.001197366
118	0xbce561fe	-0.028000828
119	0xbd1c3648	-0.038137704
120	0x3d15b7db	0.03655229
121	0x3c6c1f88	0.0144118145
122	0x39b8f41a	0.00035277085
123	0xbca61701	-0.020274641
124	0x3a909c41	0.0011032895
125	0x3be3ad5e	0.006948157
126	0xbca9ceb7	-0.020728452
127	0x3c25cfe2	0.010120364
128	0xbd221ddb	-0.039579254
129	0x3d224f60	0.03962648
130	0xbce4a645	-0.027911315
131	0xbc611000	-0.013736725
132	0x3c49e714	0.01232316
133	0xbc4f94e8	-0.012669779
134	0xbc44c965	-0.012010907
135	0xbc075c50	-0.008261755
136	0x3c4a252e	0.012337966
137	0x3cfe33ff	0.031030653
138	0x3bd5ecac	0.0065284576
139	0xbc1d7009	-0.009609231
140	0xbc9dee8c	-0.019278787
141	0x3d1d053b	0.038335066
142	0x3d128405	0.035770435
143	0x3cb27765	0.021785447
144	0xbd03b8bc	-0.0321586
145	0x3d006427	0.031345513
146	0x3c8b9543	0.017038947
147	0xbc06bb2b	-0.008223335
148	0x3cfb0ae4	0.030644841
149	0xbbf8ae56	-0.007589142
150	0xbd304a97	-0.043039884
151	0x3cb38d2d	0.021917904
152	0xbcde2d43	-0.027121192
153	0x3d0c8464	0.034305945
154	0xbd06e764	-0.032935515
155	0x3ce08365	0.027406404
156	0xbc905e39	-0.017623054
157	0xbc957b74	-0.018247344
158	0x3ccbc531	0.024874302
159	0xbcbb99f2	-0.022900555
160	0xbb3c76c8	-0.0028757323
161	0x3bd43492	0.0064759934
162	0x3c118170	0.008880958
163	0xbd2c5d9f	-0.04208147
164	0xbcd7a8bf	-0.026325582
165	0xbc718b36	-0.014742663
166	0xbd2173e4	-0.039417163
167	0x3cfe1177	0.031014187
168	0x3d17c06b	0.03704874
169	0x3bace904	0.005276801
170	0xbb886332	-0.0041622156
171	0x3d48002d	0.048828293
172	0xbc044c53	-0.008074838
173	0x3c819163	0.015816396
174	0x3d533c7b	0.05157135
175	0x3d207188	0.03917077
176	0x3c2387bb	0.009981091
177	0xbbf25a9c	-0.0073960554
178	0xbc9ec3b1	-0.019380422
179	0x3d13c8d4	0.036080196
180	0x3cd473b9	0.025934087
181	0x3d2c770f	0.04210573
182	0xbbe27240	-0.0069105923
183	0x3c7eba58	0.0155473575
184	0x3d067c07	0.032833125
185	0xbc4eeec7	-0.012630171
186	0x3d017e52	0.03161461
187	0xbd0a38c2	-0.033745535
188	0x3ccc9e80	0.024977922
189	0x3c3dc1f7	0.011581889
190	0xbbe0bde7	-0.0068585756
191	0x3c9f757f	0.019465206
192	0xbc9cc6c1	-0.019137742
193	0x3c68b1a6	0.014202511
194	0x3c248f99	0.010044002
195	0xbca65233	-0.020302868
196	0xbd16c204	-0.03680612
197	0x3c771447	0.015080518
198	0xbc3a3183	-0.011364344
199	0xbbb65ce3	-0.005565272
200	0xbd29c823	-0.04145063
201	0x3d0cb694	0.034353808
202	0x3c290b88	0.010317691
203	0xbd1a2b1c	-0.03763877
204	0xbc9842bb	-0.018586507
205	0x3d0a1ab7	0.033716884
206	0x3c50dea9	0.012748399
207	0x3c029155	0.00796922
208	0x3ba7af44	0.005117329
209	0x3d13eba0	0.03611338
210	0xbc1cc621	-0.009568722
211	0x3cf65fd0	0.030074984
212	0xbb20c81b	-0.0024533335
213	0x3cea1717	0.028575463
214	0xbc6209b5	-0.01379626
215	0x3c8e367e	0.017359968
216	0x3d28a97a	0.04117725
217	0xbcdaf6be	-0.026728984
218	0x3c85d452	0.016336594
219	0xbd1fa414	-0.038974836
220	0x3b891036	0.0041828407
221	0x3cbdb0df	0.023155628
222	0xbcbce904	-0.02306033
223	0x3c3abe4e	0.011397911
224	0xbb803a56	-0.003913204
225	0x3c40aa90	0.011759415
226	0x3d4d926b	0.050188463
227	0xbb610d05	-0.0034340036
228	0xbc7c5b2e	-0.015402598
229	0xbce7242b	-0.028215488
230	0x3cb773b6	0.022394042
231	0x3d00c784	0.031440273
232	0x3d20b35d	0.039233554
233	0x3cbe2a0a	0.023213405
234	0xbc46c47f	-0.012131809
235	0xbcc1b205	-0.023644457
236	0xbcef1a1d	-0.029187256
237	0x3c7407ef	0.01489447
238	0x3c830db2	0.015997741
239	0x3bb87637	0.0056293267
240	0x3c506927	0.012720383
241	0x3d81b7a2	0.06333853
242	0x3c7ed3ba	0.015553409
243	0x3cbcb3f8	0.023035035
244	0x3bd53fad	0.006507835
245	0xbcbbcca4	-0.022924729
246	0x3c3f6664	0.011682127
247	0x3d257c27	0.040401604
248	0xbd44c729	-0.048041496
249	0x3c91cd16	0.017797988
250	0x3c77d094	0.0151254125
251	0xbbf38303	-0.0074313893
252	0x3d2a2b42	0.04154516
253	0xbd19c47c	-0.037540898
254	0xbad82c5d	-0.0016492713
255	0x3cdee944	0.02721084

fc3.weight f4 [2, 256]
0	0x3d583d7b	0.052793007
1	0xbddd5ed7	-0.10809105
2	0x3c486ff2	0.012233721
3	0xbe169da6	-0.14708576
4	0x3dc8183b	0.097702466
5	0xbd1cc6e7	-0.038275626
6	0x3ca325c6	0.019915473
7	0x3d816fa5	0.06320123
8	0xbd244946	-0.04010894
9	0xbc952eb1	-0.01821074
10	0xbd8cc36f	-0.068732135
11	0xbce5b3b0	-0.028039783
12	0xbcec4a6d	-0.028844083
13	0xbb0bb4e5	-0.0021317538
14	0x3c6ab930	0.014326379
15	0x3e08e559	0.13368739
16	0x3c2e0aa2	0.010622652
17	0x3b56bcb2	0.003276628
18	0x3d936858	0.07197636
19	0x3c02af8b	0.007976423
20	0xbdabf0e7	-0.08395558
21	0x3b84c150	0.004051365
22	0xbc5d7a84	-0.0135179795
23	0x3c02c267	0.007980919
24	0xbd0587ef	-0.03260034
25	0xbc8e4dec	-0.01737114
26	0xbca0ac7b	-0.019613495
27	0xbd06dc4d	-0.03292494
28	0xbcbf6185	-0.02336193
29	0xbb6b4ef2	-0.003590521
30	0xbe07fbe7	-0.13279687
31	0x3caf1b14	0.021375217
32	0xbca64f53	-0.020301497
33	0xbc2a1224	-0.010380302
34	0xbc1640bf	-0.00917071
35	0xbd6f9dfa	-0.058500268
36	0xbcc5c97e	-0.02414393
37	0xbbccaccc	-0.006246185
38	0xbc5ec4d0	-0.013596728
39	0x3d8c19cc	0.06840858
40	0xbcb25594	-0.021769322
41	0xbc98cd39	-0.018652545
42	0xba8fbf4f	-0.0010967049
43	0x3cc47f9f	0.023986636
44	0x3c9fa745	0.01948894
45	0xbd5d0b2e	-0.05396574
46	0x3d4f16ce	0.050558858
47	0xbc0efcac	-0.008727234
48	0xbb9a9efe	-0.0047186604
49	0xbe1a7a89	-0.15085806
50	0x3d340f6c	0.04396002
51	0xbc4d4368	-0.012528278
52	0x3d61e43d	0.055149306
53	0xbb015417	-0.001973396
54	0xba2409d6	-0.0006257569
55	0xba8f9789	-0.0010955195
56	0xbb101c58	-0.002198955
57	0x3d802936	0.0625786
58	0xbe2132fa	-0.15742102
59	0x3d7d1637	0.061788764
60	0xbcb46160	-0.022019088
61	0x3d94f6e5	0.07273654
62	0xbc9d75c9	-0.019221203
63	0xbe26f56a	-0.16304556
64	0xbc499158	-0.012302719
65	0xbccdc758	-0.025119469
66	0xbd491a20	-0.04909718
67	0xbb0a58c5	-0.002111004
68	0x3c1b7ec6	0.009490674
69	0xbd99bba9	-0.075064965
70	0xbc4fb77a	-0.012678022
71	0xbca4917c	-0.020088904
72	0xbc6063cd	-0.013695669
73	0xbe015692	-0.1263068
74	0xbd3d9efb	-0.046294194
75	0x3d2a6685	0.041601676
76	0xbdbe6ef9	-0.0929851
77	0xbd0ccb6d	-0.03437369
78	0x3da8d5c0	0.082438946
79	0x3aa68417	0.0012704161
80	0xbbf8a988	-0.007588569
81	0xbd07153a	-0.032979228
82	0xbc9cdd8c	-0.01914861
83	0xba2fc7f4	-0.00067055156
84	0xbdd44734	-0.103651434
85	0x3cd8c1d0	0.026459605
86	0xbc69e259	-0.014275157
87	0xbcd60bd8	-0.026128694
88	0xbdbf2873	-0.09333887
89	0xbcd80567	-0.026369764
90	0xbc99cf97	-0.018775744
91	0x3a464ee3	0.00075648556
92	0xbbd5bdb7	-0.00652286
93	0xbdcde5bc	-0.10053584
94	0xbbfd94f9	-0.007738706
95	0xbbe88f5d	-0.0070971684
96	0x3be34701	0.0069359546
97	0x3b615fbc	0.0034389338
98	0x3c06863c	0.008210715
99	0x3d628b42	0.055308588
100	0x3cfea44a	0.031084199
101	0xbbc2afc1	-0.0059413617
102	0xbd09d8ed	-0.033654142
103	0xbd283c2e	-0.041073017
104	0xbd05351f	-0.032521363
105	0x3c64cbae	0.013964577
106	0xbe428e8f	-0.18999694
107	0x3d80de26	0.062923715
108	0xbbc7f54e	-0.0061022406
109	0x3d39ecf1	0.04539198
110	0x3ca0ea55	0.019642988
111	0x3d06898b	0.032846015
112	0xbd266e54	-0.04063256
113	0xbcc5cbcd	-0.024145031
114	0xbc137f2a	-0.009002486
115	0xbc4beb01	-0.012446166
116	0xbd983784	-0.07432464
117	0xbd52c682	-0.051458843
118	0x3afd0bd8	0.0019305898
119	0x3ca2055a	0.019777942
120	0xbb12d6dc	-0.0022405898
121	0xbd0d2969	-0.03446332
122	0xbba69008	-0.005083088
123	0x3d91ae3b	0.0711331
124	0xbda9291c	-0.08259794
125	0x3dd09397	0.101844005
126	0xbd714937	-0.058907714
127	0xbde781cf	-0.11304056
128	0x3a8aedfe	0.0010599492
129	0xbc0e9775	-0.008703102
130	0x3cd38b46	0.025823247
131	0xbb683c41	-0.0035436305
132	0xbc39c752	-0.011339026
133	0xbc8b7b9d	-0.017026717
134	0xbd6b10b8	-0.05738899
135	0xbd977283	-0.07394888
136	0xbc2a8133	-0.01040678
137	0xbd0e0cc1	-0.03468013
138	0xbbbe518e	-0.005808062
139	0xbd3cfa7f	-0.04613733
140	0xbe19b4a2	-0.15010312
141	0xbd0ee647	-0.03488758
142	0xbb81f0b3	-0.003965461
143	0xbc8e050d	-0.017336393
144	0xb9fe4ea0	-0.00048505235
145	0xbcacd6fb	-0.021098604
146	0xbc7dd0d7	-0.015491686
147	0x3d34eb6d	0.044169832
148	0xbd088ec0	-0.033339262
149	0xbcc0e967	-0.023548795
150	0x3cccbb88	0.024991766
151	0xbc1c7101	-0.009548427
152	0x3d1a9af1	0.03774542
153	0xbc82f5cb	-0.015986344
154	0x3d54ad93	0.051923346
155	0xbe0a2d22	-0.1349378
156	0xbb88c1a2	-0.0041734735
157	0xbc9ea9e9	-0.019368129
158	0xbc35c308	-0.011093862
159	0xbc33b294	-0.010967869
160	0xbcb81456	-0.022470634
161	0x3d5faea1	0.0546099
162	0xbbe6f9e0	-0.0070488304
163	0xbcdc14fe	-0.026865479
164	0xbbf7c61e	-0.007561459
165	0xbbdaf69a	-0.006682229
166	0xbd4792b1	-0.04872388
167	0xbe2b36b2	-0.16720083
168	0xbc9a2567	-0.018816663
169	0xbdd4f71b	-0.10398694
170	0xbbb45303	-0.00550306
171	0xbcb8d7a1	-0.022563757
172	0xba506d05	-0.00079508155
173	0x3cc44598	0.023958966
174	0x3bf1ab8c	0.0073751863
175	0xbc20c864	-0.009813402
176	0x3d19474d	0.037421513
177	0x3ca09772	0.019603465
178	0xbe0e8508	-0.13917935
179	0xbc9e6c37	-0.01933871
180	0x3d8dca5e	0.06923364
181	0xbd1b8dd2	-0.037977047
182	0xbadd1503	-0.0016867224
183	0xbcc5b521	-0.02413422
184	0xbcbb071a	-0.022830535
185	0xbca68068	-0.0203249
186	0xbba89d71	-0.0051457216
187	0xbbf15873	-0.0073652803
188	0xba8cf815	-0.0010755087
189	0xbdb0ed13	-0.08638968
190	0xbdcfb07e	-0.10141085
191	0x3c7f1086	0.015567904
192	0x3c44f5b0	0.012021467
193	0xbc72c4fd	-0.0148174735
194	0x3ceca4da	0.028887201
195	0xbc985eb4	-0.018599845
196	0xbc25e1de	-0.010124652
197	0x3c0dad8d	0.008647335
198	0xbcb2b1eb	-0.021813354
199	0xbd6a3c01	-0.05718613
200	0x3cf327d1	0.029682072
201	0x3c974829	0.018467026
202	0x3ccb9d58	0.0248553
203	0x3baefc52	0.0053401375
204	0x3c53e382	0.01293266
205	0xbc1c08c5	-0.009523575
206	0xbd6c10d7	-0.057633247
207	0xbcfd9577	-0.03095506
208	0xbce4b13f	-0.027916549
209	0xba2def53	-0.00066350884
210	0xbd8a063b	-0.067394696
211	0xbe021c06	-0.12706003
212	0xbc30bf17	-0.010787747
213	0xbca2d6fd	-0.019877905
214	0xbcab5d33	-0.020918464
215	0xbdf63126	-0.12021093
216	0x3d3c22ec	0.04593174
217	0x3de68da4	0.112574846
218	0xbddc431a	-0.10754986
219	0xbcdb60cf	-0.02677956
220	0xbcac513a	-0.021034826
221	0xbc97a86b	-0.018512925
222	0xbcc47b2b	-0.023984512
223	0xbc8ed2d2	-0.017434511
224	0xbd433245	-0.047655363
225	0x3d894eab	0.06704458
226	0x3ce25973	0.027630543
227	0x3c6937d2	0.0142345
228	0xbd801c1a	-0.0625536
229	0x3cae95f2	0.021311734
230	0xbc8fa356	-0.01753394
231	0xbe06502c	-0.1311652
232	0x383b88b0	4.4711574e-05
233	0xbc74e86e	-0.014947994
234	0xbc60d6e3	-0.013723108
235	0xbc1c2d3e	-0.009532271
236	0xbc323118	-0.010875963
237	0x3ccee12b	0.025253853
238	0xbca87d90	-0.020567685
239	0xbb9d40ec	-0.004798999
240	0x3c9bb88a	0.019008894
241	0xbd2bb424	-0.041919842
242	0xbe20f0f6	-0.1571692
243	0x3d02138f	0.031756934
244	0xbd2e50ab	-0.0425574
245	0x3cd5b2d3	0.026086247
246	0x3d4771df	0.04869258
247	0xbd9bdc07	-0.07610326
248	0xbbe8864a	-0.0070960866
249	0xbd1cce76	-0.038282834
250	0x3c5d6085	0.013511782
251	0xbcf52976	-0.029926997
252	0x3b26ba40	0.0025440603
253	0xbc6b863e	-0.014375268
254	0x3cb6ac8b	0.022299072
255	0x3c9e758e	0.019343164

fc3.bias f4 [2]
0	0xbcdfef98	-0.027335927
1	0x3cca561b	0.024699261
