Unity-projects/Pro3.1_Tennis/models/agent2_critic.pth (torch_old, 711884 bytes, 7 tensors)

fcs1.weight f4 [512, 24]
00000000: 5716 ce3a 9458 e6bc 03c5 b03c 5966 47bc
00000010: dadd e43b 8409 bf3c c892 ebb9 b85a e63b
00000020: c623 8cbc 9b48 fb3c 50ff 973b 397f af3c
00000030: 0296 0dbd 8b0d a3bc 547a c93c 1d51 d03c
00000040: 5726 723c f085 a33c 7c5c d4bc b942 a5bc
00000050: a3ee b7bc b7ff 8abc 9ec5 bf3c bc4b 523c
00000060: bd93 2fbd 2581 f13a e841 65bc 5e25 ffba
00000070: 80f2 2c3d b5a3 453b cf06 d6bc 6ab4 d5bb
00000080: 5c23 023d 1c30 e6bc 6665 0bbd b8b0 03bd
00000090: a676 803c 9e4a d13c e4dc 0d3b 4ae4 3cbd
000000a0: ba1c 1f3d 31d3 943c 0312 e5bc b7d0 093d
000000b0: efce 2e3d 9046 053d 8d42 9ebc d703 f9bc
000000c0: 8016 f538 8e94 e53c 9ec2 8abc 0a7b b8bc
000000d0: ca5c 1dbd c9b2 d53b 6345 58bb 6728 2ebc
000000e0: ca96 59bc 2238 4f3d 86a3 2a3a dc93 9e3c
000000f0: fac4 3ebd 7180 ddbc 8551 bf3c 33e7 f93c
00000100: 63a7 4cbc f840 863c 7cfc 223d f6af 423c
00000110: 75c8 38bc a191 83bc 5bf4 c1bc e7b6 b0bb
00000120: e130 033c c267 413b c418 1c3a 8674 9e3b
00000130: aeb5 553d 369d 51bd cdf4 bebc b474 4cbc
00000140: 03db 23bb f335 20bd 6e25 aa3c 9739 13bd
00000150: 2ada 9fbb 94cd 183d d3d9 15bd 858f 393c
00000160: 2668 073d d455 e2bb c9f4 c03b e400 063b
00000170: 52b9 86bc f182 783c 931b 1cbc 157f c33c
00000180: 473c 083d f960 2ebc 4941 d73b 2959 8f3c
00000190: 3fad babc da09 443d e37d 1b3d bcfb a63c
000001a0: a611 5cbc dc10 b73c 4291 efbc bd0d e0bc
000001b0: 1142 0cbd e061 2dbd 42e9 d03c 3f04 ed3c
000001c0: 1355 2bbd 510e 613c f793 1fbd 4bfa 2ebd
000001d0: 6dc2 a1bc e9fc 31bc a0d3 d13c 1f59 9c3c
000001e0: c1da 28bc 3634 393c f9e9 ee3c 1926 1c3c
000001f0: c33f b13b 2494 853c d04a 163c bfbf 613c
00000200: 45a0 0ebd 1955 393c e522 db3c cc4d 86bb
00000210: 7339 29bd 0f97 d33c b182 123c fba7 f23c
00000220: 0a6d 063b 91a6 ebba 9d4f a1bc 02f4 f9bb
00000230: a236 073d 6656 813c 2f1f a1bc e816 cbbc
00000240: 982b 3e3d 4bbd 653b 2656 293d 97bf 11bd
00000250: f82b 53bc 615d 243c 83b1 893c 0df6 05bb
00000260: 3719 533d da40 303c ad0a afbc 45b0 603c
00000270: 20af 023d 4ff0 133d f7b4 ac3c 68ba 11bb
00000280: a516 d0bb b4b0 9d3b 3cc2 aebc 8375 f6bc
00000290: 31ac 813c 3a5d bebc 5cdc c9bb af9d 2ebd
000002a0: 5373 323c 9f3d eebc 47e9 963c 0e6d 24bb
000002b0: 28f0 dcbc be1a 473d 39a4 10bd 2f4c 983c
000002c0: 6123 afbb 8f0d 02bd 2697 7a3c c6a8 68bc
000002d0: ca7e 1a3c 4d95 2abd a4c8 96bc 837a 02bd
000002e0: 268a f23c 5ffc b2bc 3480 ba3b 6b5f 56bc
000002f0: ac3b 02bd 7ce8 28bd b956 2d3c 110f 8ebc
00000300: 4682 ed3b 07b3 1f3d 29e9 373c 7fbf a63c
00000310: 1955 0fbd e892 3ebd 6f92 30bc 042c e03b
00000320: 3037 25bd 3930 2a3d d825 a43c 28fc f33b
00000330: a8a3 0bbc 9b06 01bd 9134 20bd e7d3 ac3c
00000340: 53a4 0fbd 991e 073d 0360 933c 95d3 2bbd
00000350: c8ce fd3c a183 a4bd 9d9c 873c 0c80 e53c
00000360: 851e 0bbd d480 d5bb 7aa2 99bc d383 63bc
00000370: ed88 7e3c 704b 833d 8480 243b 1c4c 42bd
00000380: 295b 2e3d 44f4 8c3d 99bb 9ebc 0f5b 97ba
00000390: 4b4d 6cbb f717 a83d 9158 dc3c 87ec fc3c
000003a0: 3421 b7bc 8722 773b c29e 13bd 9a05 86bc
000003b0: c9e1 2fbd 8b38 c0bc f85f 47bd a0e0 f63c
000003c0: 63ff bfbb c974 443d 7f99 4dbb 195f 4abc
000003d0: c86a 293d 84ea 1f3c e071 95bc 9bcf fd39
000003e0: 2807 063d c77b 4d3d 8b8e 393d fe76 fc3b
000003f0: 21a3 943c ccf1 1a3d df1c 1cbd d288 8f3c
0.001572321 -0.02811841 0.021578318 -0.012170398 0.0069844546 0.023319967 -0.00044932053 0.0070298575
-0.017106902 0.03067427 0.00463859 0.02142297 -0.034566887 -0.019903919 0.024594463 0.025429303
0.014779649 0.019961327 -0.025923006 -0.020173417 -0.022452658 -0.016967637 0.02340966 0.012835439
-0.042865504 0.0018425329 -0.013992764 -0.0019466092 0.042223454 0.0030157391 -0.026126293 -0.006521751
0.031772003 -0.028099112 -0.034032248 -0.032150954 0.015681576 0.025548276 0.0021646554 -0.04611615
0.038845755 0.01816711 -0.02796269 0.03364631 0.042677816 0.032537997 -0.019318843 -0.030397339
0.00011686701 0.028024938 -0.016938504 -0.022519607 -0.03841857 0.006521557 -0.0033000342 -0.01062975
-0.01328058 0.05059064 0.0006509352 0.019357614 -0.04657457 -0.027038785 0.023354301 0.030505752
-0.01249108 0.016388401 0.03979157 0.011882773 -0.011278261 -0.016060652 -0.023676088 -0.0053928974
0.008007259 0.0029511307 0.0005954618 0.004835668 0.052175216 -0.05117532 -0.02331009 -0.012478996
-0.0025002367 -0.03911395 0.020769801 -0.035943594 -0.004878302 0.03730543 -0.036584686 0.011325722
0.033058308 -0.006907204 0.0058885557 0.0020447308 -0.01644579 0.015167938 -0.009528059 0.023864308
0.03326061 -0.010643237 0.006569062 0.01749857 -0.022787688 0.047860958 0.03796185 0.020383708
-0.013431942 0.022346906 -0.029244069 -0.0273503 -0.034242693 -0.04232967 0.025501851 0.028932689
-0.04182918 0.013736323 -0.03895947 -0.042719167 -0.01974603 -0.010863521 0.025613606 0.019085465
-0.010306061 0.011303952 0.029164301 0.009530568 0.0054092123 0.01630599 0.00917311 0.013778626
-0.034820814 0.011311793 0.026750037 -0.0040986296 -0.041314553 0.025828866 0.008942292 0.029621115
0.002051177 -0.0017978718 -0.019691283 -0.007627965 0.033011086 0.015788268 -0.01966819 -0.024791196
0.046428293 0.0035055454 0.041341923 -0.035583105 -0.012888901 0.010032029 0.016808277 -0.0020440847
0.05153772 0.010757649 -0.021367395 0.013713901 0.031905293 0.036117848 0.021082385 -0.002223635
-0.0063503557 0.0048123244 -0.021332853 -0.03008533 0.015829178 -0.023237813 -0.006160302 -0.042630848
0.010891753 -0.029082118 0.018421782 -0.0025089416 -0.026969984 0.048609488 -0.035312865 0.018591015
-0.0053447937 -0.03175121 0.015294826 -0.014200395 0.009429643 -0.04164629 -0.01840622 -0.031855118
0.02960689 -0.021848856 0.0056915525 -0.013084273 -0.03179519 -0.04123734 0.010579758 -0.017341169
0.007248196 0.038989093 0.011225023 0.020354984 -0.034993265 -0.04652682 -0.0107771 0.0068411846
-0.040335834 0.041549895 0.020037577 0.007445831 -0.008522905 -0.03150044 -0.03911263 0.021097137
-0.03506882 0.032988165 0.017990118 -0.041949827 0.03098239 -0.08032919 0.016554171 0.02801516
-0.033964653 -0.0065156016 -0.018754233 -0.01388641 0.015535575 0.06410873 0.0025101015 -0.047435865
0.042567406 0.068825275 -0.019376563 -0.0011547523 -0.0036056812 0.08207696 0.0268977 0.030874504
-0.0223547 0.003770979 -0.036040075 -0.016360093 -0.042939935 -0.023464462 -0.048675507 0.030136406
-0.005859302 0.047962938 -0.0031372008 -0.012351775 0.0413616 0.009760503 -0.018242776 0.00048410599
0.03272167 0.05016687 0.045301955 0.0077046147 0.018144192 0.03782825 -0.03811347 0.017521296

fcs1.bias f4 [512]
00000000: bcba 2ebd 79c9 c6bc be95 363e eb8d cc3c
00000010: 4e3d ea3d be3c 5cbe bcf8 81bc 2aec 023e
00000020: 3775 d03d 2140 5e3c 97a9 36be eb72 d0bd
00000030: 1dbf 99bd eebe a93d eeef 133e a9f8 573d
00000040: d6bd 073d b8df 57be 30df 79bc 1b85 5abd
00000050: 3807 303e bca3 593d 2453 393e 7dfa 07be
00000060: 9450 f9bd 4b66 143e 6052 973d a2c1 4b3e
00000070: 5d3b 50be 4cbf 36be 57c8 55be 0ba6 a33d
00000080: f719 52bd 44cf 283e 894a adbd 9e31 9abc
00000090: 8625 173e ccd2 b83c 5763 473d 28e7 24be
000000a0: d404 d23c f595 293e b3c3 1c3e 9782 03be
000000b0: 17d9 053e 3ec0 bb3d e664 01bd ad91 f43d
000000c0: 8ece 44be f433 be3d d2d1 b13c 1e48 cd3d
000000d0: b311 553e a366 e2bd aaf7 403e 1bc9 ac3d
000000e0: 8541 e43d 54a9 32bd bf4d 1c3c 7b82 183c
000000f0: 0a04 32be 293c 083e 8d2b f73d a1fa 8c3d
00000100: dd7b 2e3e 583c 0f3e 70ee 443d 5c80 30be
00000110: beb0 d83d 6e28 343d a41c 1a3e b6c9 423e
00000120: f2f3 033e 6a1e c5bd 434f 9dbc 376b cabc
00000130: c0d7 153c 3ef2 2cbd 390c 1dbe 737c ce3c
00000140: ef17 d4bc 5b6f 8d3d 1cd2 753d 34a4 893d
00000150: c6b9 0d3e 79a2 023e ea30 c83d de42 4abd
00000160: f5a2 203e 79ca 6dbd 2e2e 7b3d d704 1e3d
00000170: 5a30 1ebe 5f61 1d3d 051d 29be b60e 42be
00000180: 07eb 31be 20f2 223e 33fe fabd b0e0 9bb8
00000190: 6f5c 123e 80ba 32be a520 033b 5224 fd3c
000001a0: 2a0d e83d 854e c4bd 4a4a f7bd 6efb 03be
000001b0: 2d7a 3bbc a192 85bd 9918 24be 5e9f 75bd
000001c0: 87b5 87bd d242 0c3e 0f7f 79bd 5eb0 3d3e
000001d0: 72d5 3e3e e3b7 dcbd 8cef fbb9 8053 21bd
000001e0: 4707 5fbb e9ac 2dbe 2556 b43b 5c27 d5bd
000001f0: 695d 5d3d 1f8a 86bd 11cd 10be d488 ce3d
00000200: be4b 2ebe 62db e1bd 06ed afbd 6ede eb3d
00000210: 51f6 bb3c a41b a33d d7e0 9ebd e6f5 49be
00000220: 3136 db3d 1f9e 2d3d 2450 12be 4390 433e
00000230: 169e 4a3e d8ce cabc ed0f 013e e88f 013e
00000240: fb24 113e f5b4 01be e90c 4a3e aad6 5cbe
00000250: 8793 8dbd 0e01 dc3d 7f91 3dbe 9bc5 35bd
00000260: 1a70 bfbd fc8c e7bd 6de1 ff3c fdd8 3b3e
00000270: de34 1c3e 32e1 f3bc 7e5d b03d 3d1c b13c
00000280: c51d fbbd 16ac 6fbc c86b 5f3d df91 4abd
00000290: 6b66 49be 44e9 22be 1cfd aebd 345d b6bd
000002a0: ab66 aebd 8b56 2d3e 8ce3 ddbd c396 04bd
000002b0: 0d8e d03c c139 943d 743b 103e 1afd e9bd
000002c0: 0e69 403e e518 48bc a57b 4c3e b797 2bbe
000002d0: 1a5a eb3d 734b b3bc f305 903d 3703 5bbe
000002e0: d2ba d5bd 566c 63be bd72 17be aed2 263d
000002f0: 95b8 3abc 49de cb3d 0f35 14be 5087 47be
00000300: 4eea 40be 985d 4b3e 368f 00be 49c2 0abe
00000310: 4f42 39bd 6c76 853d 003c bcbd a887 25be
00000320: c857 2ebe 149c 84bc 056c 203e 5489 263e
00000330: b470 9cbd bd62 9b3c 97bf 36be 45fb 39be
00000340: 4af7 5bbd 2027 5fbd ecf1 51be e98e 293e
00000350: 23bb d23d 802b f83d f32a de3d 4abd 2dbb
00000360: 921e 643d 7d7b fb3b 0744 573b a012 4f3d
00000370: 17ad 853d fc16 0e3e 7e70 2dbe 24ae 243e
00000380: bdb3 19be 8055 2e3e f2a8 24be c98b eabd
00000390: b6d8 49bd 8057 933c ca75 363e 37de eb3d
000003a0: 4278 133e b0ce 52be 0b1b e5bd 7ac2 313e
000003b0: 30e7 15be dc56 4b3e 0b6e 243e b39e 023e
000003c0: f0f8 9a3d e82c d13d 0867 a7bd ce76 883d
000003d0: f2d4 613c 2a93 48be fad1 8fbd 4da4 39be
000003e0: 2368 a6bd 52cc 43be 68cf 263e 7081 233e
000003f0: 032a 1ebe 0757 453c f7f5 01bd 21fb 053e
-0.042658553 -0.024265992 0.1783056 0.024970016 0.11437474 -0.21507546 -0.015865676 0.12785402
0.10178607 0.013565094 -0.17838131 -0.10178169 -0.07507155 0.0828837 0.14446995 0.052727375
0.033140026 -0.21081436 -0.015250966 -0.053349596 0.17190254 0.053134665 0.18098122 -0.13279147
-0.12173572 0.14492147 0.07388759 0.19898084 -0.20335145 -0.17846411 -0.20877205 0.079906546
-0.051294293 0.16485316 -0.08461482 -0.018822487 0.14760408 0.022561453 0.048678722 -0.16103804
0.025637068 0.1656111 0.15309028 -0.12842785 0.13071094 0.09167527 -0.031590365 0.11941848
-0.1921942 0.09287253 0.021706495 0.10023521 0.20807533 -0.11054733 0.18844476 0.08436795
0.11145309 -0.043618515 0.0095400205 0.009308453 -0.17384353 0.133042 0.120688535 0.06883741
0.17039438 0.13987863 0.048078954 -0.17236465 0.10580586 0.04398387 0.15049988 0.19022259
0.12886027 -0.09624942 -0.019202834 -0.024709327 0.009145677 -0.042223208 -0.15336694 0.025205826
-0.025890319 0.06906005 0.06001483 0.067207724 0.13840398 0.12757291 0.097749546 -0.049380176
0.15687163 -0.05805442 0.061323337 0.038578834 -0.15448132 0.03842294 -0.16514976 -0.18950924
-0.17374812 0.15912676 -0.12255516 -7.432827e-05 0.14293073 -0.17453957 0.0020008471 0.030901108
0.11330636 -0.09585289 -0.120747164 -0.12888882 -0.011442703 -0.06522108 -0.16025008 -0.059966438
-0.066264205 0.13697365 -0.06091219 0.1852431 0.1863611 -0.10777261 -0.00048052927 -0.039386272
-0.0034031437 -0.16960491 0.0055034333 -0.10407898 0.05404416 -0.06569313 -0.14140727 0.10084692
-0.17021081 -0.11028172 -0.085901305 0.115170345 0.022944601 0.079642564 -0.077577285 -0.19722709
0.107036956 0.042387124 -0.14288384 0.19098 0.19786867 -0.024756834 0.12603731 0.12652552
0.14174263 -0.12666686 0.19731487 -0.21566263 -0.06912904 0.10742389 -0.18512534 -0.044377904
-0.093475536 -0.113061875 0.031235421 0.18344493 0.15254542 -0.029770467 0.08611582 0.02161991
-0.122615375 -0.014628431 0.054546148 -0.04945552 -0.19667976 -0.15909296 -0.085443705 -0.08904496
-0.08515676 0.16927545 -0.10834417 -0.03237034 0.02545836 0.07237578 0.1408518 -0.114252284
0.18790075 -0.012212967 0.19969042 -0.16757093 0.11491795 -0.021886563 0.07032385 -0.21387945
-0.10436024 -0.22209296 -0.14789863 0.040728264 -0.011396547 0.09954507 -0.14473365 -0.19485211
-0.1883938 0.19859922 -0.1255463 -0.13550676 -0.045229252 0.06516728 -0.091911316 -0.1616503
-0.17025673 -0.016187705 0.15666206 0.16263324 -0.07638684 0.01896798 -0.17846523 -0.18162258
-0.05370263 -0.054480672 -0.20502442 0.16558422 0.102896 0.12117672 0.10848036 -0.002651053
0.055693217 0.007674633 0.0032846944 0.05055487 0.06527155 0.13875955 -0.16937444 0.16082054
-0.15009971 0.17024803 -0.16080073 -0.11452443 -0.049278937 0.01798606 0.1781837 0.115169935
0.14401343 -0.20586658 -0.11186799 0.17359343 -0.14638972 0.19857353 0.16057603 0.12755851
0.07567012 0.10213643 -0.081739485 0.06663285 0.01378368 -0.19587389 -0.07022472 -0.18129082
-0.08125331 -0.19120911 0.16290057 0.15967345 -0.15445714 0.012044675 -0.03172871 0.1308408

fc2.weight f4 [256, 514]
00000000: c410 bebc 0fc1 2bbd cd52 14bd e87a 0c3d
00000010: d7f8 5dbd 0848 76bc ac93 6f3a 6de3 503d
00000020: 7f15 84bc d0e2 fb3c 5265 16bc c9a6 5a3c
00000030: 5219 563d 747e 07bc a478 113c d81a 49bc
00000040: 6539 88bd 5087 863d 29a9 4b3d 910b 763d
00000050: 8612 0fbc c4d0 ddbc 83b3 273b fc2a 263d
00000060: f9a0 093c 176c 2bbd 35d6 75bb 2e77 45bd
00000070: caca db3c 04de 853c b471 493c 8cde e23c
00000080: ea0a 353d 98d2 54bd 48ad 8e3c 12cb 3ebd
00000090: 3ea7 733c 923e 08bd 5dc7 62bd 9c88 333d
000000a0: 962f fcbc 2edb 443c c416 3ebc 8b7f 093d
000000b0: 93eb f439 f707 803c 6dcf d43c ba96 73bd
000000c0: 8b36 eabc a175 0d3d ffec 30bd 8615 17bd
000000d0: e5bc 223d e4a5 86bb 6c96 503d 2dd3 833d
000000e0: 00de 43bd c145 fcbc 9cb6 cfbc dd92 1a3d
000000f0: bec5 693d 9de9 173d 98a9 d9bb c6cf 1dbd
00000100: 1d31 31bd a520 70bd e7c0 f03c 2091 323d
00000110: 1dc8 25bd 4eaa bf3c f3ab 8e3c 6a90 4b3d
00000120: f11d 6e3d d28e bb3c 5387 1bbd a2b0 fdbc
00000130: 11dd 653d be82 2dbd 56f9 2abd 347f debc
00000140: c5b1 423d 4286 d3bc 645c 5e3d 0ebc 8dbc
00000150: 6ca5 7d3d 70ab 3d3d 9684 eebc 9222 10bd
00000160: b97e 7c3d 9638 e0bb d548 143d a0f2 e3bc
00000170: 4751 c03b 680a f23c 6390 283c 968d f33c
00000180: 527a cb3c 7069 063d c2eb 23bd 1152 a23c
00000190: b12c ca3c 3b88 263c c007 31bd 4805 e8bc
000001a0: da56 02bd c697 293d 8963 5d3d e1d3 9c3c
000001b0: aa8c 7fbc 9694 cf3c 225f bcbc d08e cc3b
000001c0: 1ca4 83bd 61d8 2d3c dc83 fb3a 4479 2d3d
000001d0: 39fb cebc b062 96b9 de07 85bd a493 3dbd
000001e0: 0e71 c5bc 58b3 1fbb 44d4 36bd 0ea2 a4bc
000001f0: 2fc6 333d 472b a73c e724 213d 9a20 443c
00000200: e226 10bd 8bda 313d bfe6 1fbc 21ed e93b
00000210: d3f0 d1bc 4e10 69bd 6c29 473d 824f 803d
00000220: 51c0 69bd df08 adbc 0df7 53bd c069 06bd
00000230: 457e 5ebd fb69 cd3c 6ad4 383d 84e7 393d
00000240: 5cc0 f53c c0ef 3fbd b240 19bd 9831 6bbd
00000250: 640e 023d ed0e 083d 41d9 e1bc 999e 9abc
00000260: d28d 093d 165d d03c b7df c8bc df8f 88bb
00000270: 7757 7fbc fb19 5bbc dddb 4dbd 4384 7e3d
00000280: 72b6 243d a06a d33c fc3d 8abc 7fa9 c1bb
00000290: 3bfc a2bc 0a45 d73c 2737 1abc c0a9 1d3d
000002a0: 486e 87bc 2807 17bd a1be bfbc a700 50bd
000002b0: b91d 1e3d af79 43bc fce6 793c 7db2 3dbc
000002c0: 48b9 be3c c2c2 e3bc 9f15 06bd b077 d2ba
000002d0: 267a 85bd b327 0ebd dec9 cbbc f274 463d
000002e0: 55fb 5dbc 6d33 b83a a4d1 f83c d5d5 823d
000002f0: a3c4 673d 41d8 73bd a23f 26bd f884 603d
00000300: 667b 5ebd 94d1 27bd ab04 17bb a8ed f23c
00000310: ad01 81bd 3990 ecbb 503c 24bd 262e 853d
00000320: fb9e acbc 860d 20bc 3545 343d 206f 21bd
00000330: 6a8d b139 16e0 883d 8f52 6f3d b19d 803d
00000340: 4d8f 153d b33f 5b3d 9a1c e73c 2e01 2a3c
00000350: 7979 71bb b345 4d3c 7640 773d e080 b63b
00000360: 5249 33bd bcf3 1dbc fab1 7b3b 71ff b73c
00000370: b2c3 72bd 4de0 33bd 2fdc 65bc 0906 2b3d
00000380: d578 0abd 2f81 a93c e3dd 7dbd ff9a fa3c
00000390: 88f7 603c 50b9 86bd 0236 703c b881 25bc
000003a0: 2654 37bc 34c5 563d 10c5 483c e35e 183d
000003b0: 8c9f d33c a5ce b03c 5971 bcbb 1aa0 5b3d
000003c0: fc70 2a3a 4ac2 eebc a97d 8dbd a7d4 49bd
000003d0: 041e 443d bc9b 84bc b8d8 ecbc 6f10 2ebd
000003e0: 360d 10bc 93fd 713c f418 49bd 9d74 493d
000003f0: e924 7cbd f630 78bd c83d 9e3c 80ea 61bd
-0.023201354 -0.041932162 -0.036211777 0.0342969 -0.05419239 -0.015031822 0.0009139131 0.05099814
-0.016123531 0.030747801 -0.00917943 0.013345429 0.05227024 -0.008269895 0.008878861 -0.012274466
-0.06651572 0.065687776 0.04972187 0.060069624 -0.008732444 -0.027077086 0.0025589175 0.040568337
0.008400195 -0.04185113 -0.003751171 -0.04820936 0.026830096 0.016341217 0.012295175 0.02769401
0.04419986 -0.05195865 0.017416611 -0.04658038 0.014871417 -0.033262797 -0.05536591 0.043831453
-0.03078441 0.012015147 -0.011602107 0.0335689 0.00046714823 0.015628798 0.025977815 -0.059469916
-0.028590461 0.034536008 -0.043194767 -0.03688576 0.039730925 -0.004109131 0.050924703 0.06436763
-0.047819138 -0.03079498 -0.02535563 0.037737716 0.057073347 0.037088025 -0.0066425316 -0.038528226
-0.04325973 -0.058624882 0.029388858 0.043595433 -0.040474046 0.023396637 0.017415976 0.04969827
0.058134023 0.02289525 -0.037970852 -0.030968014 0.05611903 -0.042361014 -0.04174169 -0.027160265
0.047532815 -0.025820855 0.05428733 -0.017301586 0.061925337 0.046306074 -0.029115956 -0.03518922
0.06164429 -0.006842683 0.03620227 -0.027825654 0.005869064 0.029545978 0.010288331 0.0297306
0.0248386 0.032815397 -0.040019758 0.019814523 0.024679514 0.010164316 -0.04322028 -0.02832283
-0.03182111 0.041404508 0.054050002 0.019144 -0.015597502 0.025339406 -0.022994582 0.0062426105
-0.06427786 0.010610671 0.0019189077 0.042351976 -0.025266277 -0.00028683757 -0.06495641 -0.04628338
-0.02410176 -0.0024368372 -0.044636026 -0.020096805 0.043890174 0.020406378 0.039341833 0.011970663
-0.03519333 0.04342131 -0.009759604 0.0071388637 -0.02562753 -0.056900315 0.048623487 0.06265165
-0.057068173 -0.021122394 -0.051749278 -0.032815695 -0.05431964 0.02507495 0.04512445 0.045386806
0.02999895 -0.046859503 -0.037415214 -0.057420343 0.031752005 0.03321736 -0.027569415 -0.018874453
0.033582516 0.025435012 -0.024520738 -0.0041675414 -0.015584818 -0.013372893 -0.050258506 0.062137853
0.040213056 0.025807679 -0.01687526 -0.005910098 -0.019895663 0.026278038 -0.009412563 0.038491964
-0.016532078 -0.03687206 -0.023406329 -0.050781872 0.038602564 -0.011930867 0.015252825 -0.011578199
0.023281708 -0.027802829 -0.032735463 -0.0016057398 -0.065174386 -0.03470583 -0.024876531 0.04845137
-0.013548692 0.0014053412 0.030373402 0.063884415 0.05658401 -0.059532408 -0.04058803 0.05481431
-0.0543169 -0.040971354 -0.0023043554 0.029654339 -0.06299148 -0.007219341 -0.04009658 0.06502943
-0.021071902 -0.009768849 0.044011313 -0.039412618 0.00033865432 0.06683366 0.058428343 0.06280077
0.036513615 0.053527545 0.02821188 0.010376258 -0.0036846085 0.012528825 0.06036421 0.0055695623
-0.043771096 -0.00964063 0.0038405643 0.022460671 -0.05926866 -0.04391508 -0.014029547 0.041753802
-0.03380664 0.020691482 -0.061979186 0.030591486 0.013730891 -0.06578314 0.014661314 -0.010101728
-0.011189496 0.05243416 0.012254015 0.037199866 0.025832914 0.02158291 -0.005750817 0.05361948
0.00065018213 -0.029145379 -0.069087334 -0.049275067 0.047880188 -0.016187541 -0.028911933 -0.04249614
-0.008792212 0.014769929 -0.049096063 0.049183477 -0.061558638 -0.060593568 0.019316569 -0.055155277

fc2.bias f4 [256]
00000000: 5ed5 e0bb 0000 dcbc b7d6 01bd 9293 f0bb
00000010: 807b fcbc 5fbf b13b a495 efbc 21d9 e73c
00000020: 026f b0bc 59b2 0c3b 4cf6 49bd 9a59 7d3b
00000030: 0ea6 023d daf2 55bd 3fd6 013d 74ee 87bb
00000040: f6d2 a8bc 2aca b43c 66b7 68ba 1fd6 3e3c
00000050: 1d2d f43c dc94 10bd e9ae 393c dac9 013d
00000060: 09c3 8abb 36d9 0bbd 4755 ab3c c69a 6f3c
00000070: 4854 1dbc 2745 5abc 816a e43c 6c9e 34bd
00000080: 1232 553c 4fbf df3b 5c0f 293d 800c 19bd
00000090: afe1 2fbd 5beb 21bb a38b 2cbd bef5 6a3c
000000a0: fb9a ebbc 8f24 123d 60c4 2dbd 71f8 043d
000000b0: 0f73 11bd ba72 7f3c 04fa 0cbd f670 9cbc
000000c0: ef10 3dbb 6308 9bbc 5bae 3e3d 3db0 56bd
000000d0: 3a38 6d3c 8d17 483b cc55 20bb ae38 5b3d
000000e0: 5d32 b6bc 9539 dabc 5c21 ff3c a4e0 efbb
000000f0: 634c 8e3c c230 8c3c 3b50 4e3c 750e c8bc
00000100: c2a9 0fbd d03d a7b9 09fc 95bc dbe6 fdba
00000110: c8c3 66bc 49ba 6eba c5e5 83bc 0fab 18bd
00000120: 0f84 1d3d 854e 6cbc de3b cb3c 33a6 36bc
00000130: d91c d7bc c6e1 803c a3ee 89bb ed31 69bc
00000140: ca67 fb3b b009 c43c 8014 7e3b fcc7 b5bc
00000150: ce8f 0abb 3e75 323d d9ab 0b3d fba3 2c3d
00000160: fe75 0d3d 500a e93c 47e8 52bd db4a 20bd
00000170: a006 1dbd 0852 a93c 9c04 b0bb 4f72 76bc
00000180: a085 4c3b 28ac a1bb 9756 573c a312 0c3c
00000190: 3cc0 253d 04d6 0a3d 5a9c 98bc 9a31 f83c
000001a0: eb73 f23c 0760 8b3a 6004 08bc b6a4 043c
000001b0: 7d09 623d e8d4 3cbd fef8 98bc 9fe5 ff3b
000001c0: ba48 2e3c c50e e0bc 66a0 8bbb 814f 54bc
000001d0: b5ab 0d3d 24d7 2f3d f1ef 2bbd f6e5 3ebd
000001e0: 745d 1fbd 0747 22bd c0e5 2dbc 4e0f 063d
000001f0: cfdd 1fbc f9ff fa3c b492 2f3d 78e1 063d
00000200: a296 a5bc 218f 643c d6b2 dbbc c098 193d
00000210: 338a a1bc bef7 043d 806b d7bc 4c15 c13b
00000220: 751c 32bd a246 b03b 1c0d b7bc 2bd9 393c
00000230: 0cd6 3dbd 6d23 183d 1071 e4bc fb0d 17bd
00000240: d8d0 45bd c3d5 f0bc 3f2a 9dbc b5e7 4e3d
00000250: ce15 d9bc ebe2 193c d3fa 923c fcf8 2bbd
00000260: 44f2 fa3c dd9a 6ebc a6d9 4c3d 3048 1ebd
00000270: b55b 173d 3c46 5abc 64ae febc c244 00bd
00000280: 791f 773c 0864 0b3d 1e2a 3e3d 6a43 29bd
00000290: fd9d 1ebc aa1d b03c d573 4c3d f1d8 14bb
000002a0: 6fdd 5dbc 28bc 5a3c 5edb b73c cdad 00bd
000002b0: efb1 4cbd ac5e 733b 2b3d 873c d4a3 69bc
000002c0: 8ce4 3e3d d812 fbbb 31b3 fcbc c052 e9bc
000002d0: 2966 883c 96f4 3e3d 75a9 293d 7f69 20bd
000002e0: ea8a f23b bb12 04bd b29e e63c 7239 9fba
000002f0: 6808 ebbc ba47 bdbc 4d34 a3bc 2c12 abbc
00000300: ca97 bd3c 7429 5339 5f36 bdbc 2f69 c9bc
00000310: dae3 4c3c 4144 f63c 0e6c a3bc a9d8 a93c
00000320: 046f bc3c 5e58 82bc 9d43 37bd e432 16bd
00000330: c348 ec3c 1039 debc f97f c53c ee33 ca3c
00000340: 16d1 d3bb c8fd fe3b 04ea 4b3d 6d9d c1bb
00000350: 7fb0 3dbd 3b81 213d 631c 3abc 6826 06bd
00000360: 29c2 7c3b bb51 e83c 7bf2 0c3d d712 22bc
00000370: c746 843b 69bf e63c a538 023b 3db6 18bc
00000380: 8f93 93bc 8768 09bd d278 30bd 4ccb 9f3c
00000390: 2dd6 25ba d2ad 03bd 8615 83bc 26a5 a4bb
000003a0: 4380 13bd a427 55ba dd38 44bd 65db 1cbd
000003b0: f9d5 983c 1664 e2bc f06f 08bc 9a8b 35bc
000003c0: 68c7 30bd 1b81 bebc 12cb df39 6b55 c939
000003d0: 8aa0 033c 5de6 d2bc fbb9 c43c 9ea6 663a
000003e0: 7b56 d5bb 8a2e 733c 5a92 1abc 9dc4 cb3c
000003f0: 1b4a 283d 1603 3dbd d16e 94bc 69c6 023c
-0.006861373 -0.026855469 -0.03169891 -0.0073418105 -0.030820608 0.0054244245 -0.029246159 0.028301777
-0.021537308 0.0021468608 -0.049307153 0.0038658143 0.031896643 -0.052233554 0.03169846 -0.004148299
-0.020608407 0.022069056 -0.0008877426 0.01164773 0.029806668 -0.035298213 0.011333206 0.03168664
-0.004234676 -0.034142695 0.020914687 0.014624303 -0.009602614 -0.013322151 0.027882816 -0.044096395
0.013012426 0.0068282257 0.041274413 -0.037365437 -0.042939838 -0.0024706933 -0.042125355 0.014340816
-0.028760424 0.035679396 -0.042423606 0.032463495 -0.03551012 0.015591318 -0.03441812 -0.019096833
-0.0028849205 -0.018924898 0.046552997 -0.052414168 0.0144787375 0.0030531615 -0.0024465201 0.05352085
-0.022240812 -0.026638785 0.031143837 -0.0073204804 0.017370408 0.017113093 0.012592371 -0.024420956
-0.035074003 -0.00031898776 -0.018308656 -0.0019371168 -0.014084764 -0.0009106738 -0.016100774 -0.03727251
0.03845602 -0.014423017 0.02480882 -0.011148023 -0.026258873 0.015732657 -0.004209356 -0.014233095
0.0076722847 0.0239304 0.0038769543 -0.022190087 -0.0021142843 0.043568842 0.034099434 0.04214857
0.034536354 0.0284473 -0.05149105 -0.039133888 -0.038336396 0.020668998 -0.005371643 -0.015041902
0.0031207576 -0.0049338527 0.013143203 0.008549365 0.040466532 0.033895507 -0.018629242 0.03029709
0.02959629 0.0010633477 -0.008301824 0.008095911 0.05518483 -0.04610148 -0.018673416 0.0078093554
0.010637457 -0.027350793 -0.0042610643 -0.012958408 0.03458758 0.042929783 -0.041976873 -0.046606027
-0.038907483 -0.03961852 -0.010613859 0.03272944 -0.009757473 0.030639635 0.042864516 0.032929868
-0.020213429 0.01395014 -0.026818674 0.03749919 -0.019719219 0.032462828 -0.026296377 0.0058924314
-0.04348417 0.005379514 -0.022345118 0.011343281 -0.04634671 0.03714316 -0.027885944 -0.036878567
-0.048294872 -0.029398805 -0.019185184 0.05051394 -0.026499655 0.00939248 0.017941868 -0.041985497
0.0306331 -0.0145632895 0.050012253 -0.038643062 0.036952693 -0.013322409 -0.031089015 -0.031315573
0.015083187 0.034030944 0.046426885 -0.041324057 -0.009681222 0.02149852 0.049915154 -0.0022712315
-0.013541563 0.013350524 0.02244347 -0.03141575 -0.04997438 0.0037135286 0.01650866 -0.014260251
0.046604678 -0.0076621585 -0.030847164 -0.028481841 0.016650276 0.046619974 0.041421372 -0.03916311
0.0074018138 -0.032244425 0.028151844 -0.0012147857 -0.028690532 -0.023105491 -0.0199224 -0.020882688
0.023143668 0.0002013797 -0.023097215 -0.024586288 0.012505496 0.030061843 -0.019948985 0.020733194
0.023002155 -0.015911277 -0.044742215 -0.036669627 0.02884329 -0.027126819 0.024108874 0.024682965
-0.006464134 0.007781718 0.04978372 -0.005908659 -0.046310898 0.039429884 -0.011359307 -0.03275147
0.0038567877 0.028359285 0.034410935 -0.009892187 0.0040367576 0.028167443 0.0019870189 -0.009320793
-0.018014697 -0.03354695 -0.043083973 0.01950612 -0.0006326165 -0.03214819 -0.016001474 -0.00502457
-0.03601099 -0.0008131212 -0.04790579 -0.03829517 0.018656718 -0.027635615 -0.008327469 -0.011080647
-0.04315892 -0.023254922 0.00042685174 0.0003840135 0.008033881 -0.025744611 0.024014464 0.00087986316
-0.0065105534 0.014842639 -0.009434307 0.024874026 0.041086297 -0.04614552 -0.018119248 0.007981875

fc3.weight f4 [128, 256]
00000000: 6cdb d2bd 5698 253d 2abf f1bc 9dc1 cdbd
00000010: 4881 3a3b ac58 cdbc 7314 bebc 32c2 0f3d
00000020: 0e29 01be e5a0 823c 7209 d6bd 8056 363d
00000030: a6be a03c 78f4 33bd 9165 debc 4aa1 1bbd
00000040: 0b97 11bd 4900 663d 4898 9bbd f9d9 dbbc
00000050: cc91 603b d8f0 1f3d 97f5 b03b f133 b13c
00000060: c875 3ebd 87ef 1c3d 947f babd 6336 b6bb
00000070: f6d3 58bd f2a5 20bd e698 88bd ce7e 103d
00000080: 031f 91bd d365 c63c 0eec 233d 3d87 8ebd
00000090: 5cec 6d3d 7659 9c3d 4cd0 1c39 cb71 973d
000000a0: 8067 a9bd d27f 323d b52a 7e3d 160f 40bd
000000b0: 6b8c 943d 779b 09bd cb32 213d 1828 9cbd
000000c0: 3c56 88bd 9e2b 803d 58c7 0bbc d6fe a73c
000000d0: 4864 d13c b647 a3bd 6784 dcbc 9225 6abc
000000e0: eba4 803c deb2 5ebd eec8 d7bc 52e9 4dbc
000000f0: 9966 9cbd f53a e03c 1287 ab3b 288d 303c
00000100: 4c72 d9bc 3f88 30bd 6dac 99bd 2af8 0dbd
00000110: a926 a8bd 276b 823d bc27 47bd c717 d5bd
00000120: 7424 0cbd ab9b 1ebd d180 15bd acd2 d4bd
00000130: e324 1fbc 8c2e ebbc f6ee b53d 735d 223d
00000140: 95a8 8b3d aee9 87bd dbb8 9abb 5dc3 eabc
00000150: 3eb1 543d 287d 073d 54d0 303d 9dfa 4abd
00000160: 9962 cd3b 2a00 bcbc a8c9 42bd 84d5 fe3c
00000170: 35fc 87bd 6b9d 6b3d 63c2 90bd 0390 f8bc
00000180: 22c3 9abd 4493 92bd 6e3e 1f3d e338 3cbc
00000190: def3 a5bd 3239 43bd ec8a 423d 0925 03bc
000001a0: 2b06 ce3c a384 fd3b 9ac9 4a3d 0761 5e3d
000001b0: dc05 a43d c084 703c ce98 2ebd fb70 b53d
000001c0: 7e3e 2fbd a06e ea3c db76 c53d d486 0e3d
000001d0: 652a a83d 486e 913d 1aef a53b be35 7d3c
000001e0: 6525 3a3c c2f5 2e3c bfee 7b3d d058 83bd
000001f0: bcbe 05bd 107d d23c ef41 ba3c f1c4 173d
00000200: 72f7 acbd c6a7 543a b390 3fbc 22dd 97bd
00000210: dd27 26bc 9773 693d f414 bdbd a258 efbc
00000220: e5d6 a9bd cba8 53bd d7e7 54bd b906 80bd
00000230: 1fda 9fbc cb83 9c3d 6a70 863a 5607 adbd
00000240: f8ab d63c 0795 a93d 8831 d8bc 39ea f83c
00000250: abd1 993c 67db 233d be49 50bd 2055 55bd
00000260: d09e a83d cc8f 7c3d 1744 b73d e149 c03b
00000270: be4c 283d 348c ff3c 467a bdbd d88a 9e3d
00000280: 9e53 0b3d b4e0 6d3c 3a81 9d3d 9d69 1c3d
00000290: 0d45 4dbd 54ff 383d fb22 80bd ba0b 9b3d
000002a0: fb2d 853c 622c 833d 1c27 ebbd 6717 823c
000002b0: 4288 9ebd 7a80 b7ba a270 cb3c a9f7 96bc
000002c0: 0458 eb3c 0ae9 12bd d742 adbd 6135 463d
000002d0: 0ae6 ef3c 77a5 333c 7e83 543d ca51 72bd
000002e0: 8d32 be3d 95d9 913d 44f7 2cbc 3dd1 dabc
000002f0: 5d6c 57bc 9efa 8e3d 5c96 a43c 56e5 86bd
00000300: 1c2e 76bd ec2e 463c c0e2 4a3d 15aa 56bd
00000310: 2f24 2c3d 5233 d03b 257a 693d 0dd6 a5bd
00000320: 395d dbbc b6e9 26bd 4f26 b2bd cf31 d83c
00000330: d42d a5ba 730a 95bd fa65 16bd 74a3 64bd
00000340: 25cf 113d 09f8 53bc bd35 753d 93b5 61bd
00000350: 7813 073d 6b58 a13d 35a5 a03d ca51 503d
00000360: 9e6d 67bd a441 47bd 9dc3 ba3d 4122 d1bc
00000370: 80b3 64bd 968e dc3c c50f 92bd 962e 673d
00000380: 4475 f4bc faaa 0cbd 8726 b83b 06a5 42bd
00000390: b813 b73d d2a7 6cbd 1a18 443c 985a 4ebd
000003a0: 6fb4 d5bb a78e 84bb 8f7b 873c 470e 4fbd
000003b0: bc91 ebbd f4e9 2cbb 6bb1 bc3c cb44 db3a
000003c0: c29a 853c e5bd 22bc 32fb bc3c c7bb bf3d
000003d0: 0bab e6bc 49aa 0abd 0fd4 babc efd5 ebbb
000003e0: da58 a9bd a0f2 a43c d7ec 69bc f28a 713d
000003f0: 1769 883d bdc7 6b3d 11fc a9bc 5b97 1fbd
-0.10295758 0.040428482 -0.0295101 -0.100466944 0.0028458405 -0.025066696 -0.02320311 0.03509731
-0.12613317 0.015945861 -0.1045102 0.044516087 0.019622158 -0.043934315 -0.02714804 -0.037995614
-0.035544436 0.056152616 -0.07597405 -0.026837336 0.003426659 0.039048046 0.0054003703 0.021631213
-0.046499044 0.03831437 -0.09106365 -0.0055606826 -0.052936517 -0.039220758 -0.06669788 0.03527718
-0.07085993 0.024218475 0.04002004 -0.069593884 0.058086738 0.07634251 0.00014954916 0.07394751
-0.08271694 0.04357893 0.062052447 -0.046889387 0.07253345 -0.03359553 0.03935508 -0.07624835
-0.06657073 0.06258319 -0.008531414 0.020507257 0.025560513 -0.07972662 -0.026918603 -0.014291184
0.015703639 -0.0543698 -0.026340928 -0.012567835 -0.076367564 0.027371863 0.0052346075 0.010775842
-0.026543759 -0.043098684 -0.07503591 -0.034660496 -0.08210499 0.06368094 -0.048621878 -0.10404926
-0.034214452 -0.038722675 -0.036499802 -0.10391745 -0.009713384 -0.028708719 0.08883469 0.0396399
0.06819264 -0.06636368 -0.0047217435 -0.02865761 0.051926844 0.033078343 0.043167427 -0.04955541
0.0062678573 -0.022949297 -0.047555596 0.031107672 -0.066399015 0.057523172 -0.07068326 -0.030342108
-0.0755675 -0.07156995 0.038877897 -0.011488172 -0.081031546 -0.047661968 0.047495767 -0.008004435
0.025149425 0.007736759 0.04950867 0.05429175 0.0800893 0.014680088 -0.042626195 0.0885944
-0.042784207 0.028617203 0.096418105 0.03479655 0.08211211 0.071011126 0.0050639035 0.015454708
0.011361455 0.01067871 0.061506983 -0.06413424 -0.0326526 0.0256944 0.022736518 0.037053052
-0.08445634 0.00081121584 -0.011692214 -0.074152246 -0.01014134 0.056995 -0.09232512 -0.029217068
-0.08292941 -0.051674645 -0.051978912 -0.06251282 -0.019513188 0.07642325 0.0010256891 -0.08448665
0.026205048 0.08280378 -0.026390806 0.030385124 0.018776735 0.04000416 -0.050851576 -0.052083135
0.08233416 0.061660573 0.08948534 0.005868182 0.041088812 0.031194784 -0.092518374 0.07741326
0.03401529 0.014518905 0.07690664 0.03818666 -0.05011468 0.045165375 -0.06256672 0.07570596
0.016257277 0.0640495 -0.11482069 0.0158803 -0.07740833 -0.0014000081 0.024833981 -0.01842864
0.028728493 -0.035866775 -0.08460014 0.04839075 0.029284496 0.010964743 0.051883213 -0.05916003
0.092869855 0.071215786 -0.010557 -0.0267111 -0.013148394 0.06981395 0.020091228 -0.06586711
-0.060102567 0.012096148 0.049532652 -0.052408297 0.042026695 0.006353774 0.05700125 -0.080974676
-0.02677785 -0.040750228 -0.08698713 0.026390938 -0.0012602159 -0.07277384 -0.036718346 -0.055819944
0.03559794 -0.012937554 0.059865702 -0.055104803 0.03297755 0.078781925 0.07844011 0.05085925
-0.056501023 -0.048646584 0.091193415 -0.025529029 -0.055835247 0.026923459 -0.07131914 0.056440912
-0.029841073 -0.034342743 0.005619827 -0.04752066 0.08939308 -0.057777233 0.011968637 -0.050379366
-0.0065217535 -0.004045326 0.01653841 -0.050550725 -0.11502406 -0.0026384564 0.023033818 0.0016728876
0.016309146 -0.00993297 0.023068998 0.093619876 -0.028157732 -0.033853803 -0.022806196 -0.0071971337
-0.082689 0.020135224 -0.014277658 0.0589704 0.06660669 0.057563532 -0.020750077 -0.038962703

fc3.bias f4 [128]
00000000: 68cf 333d f85f 7f3c 4b8d 933b 4f20 86bd
00000010: b6a6 52bd 190f 5c3d 11fa 073d 55eb c43c
00000020: 08e1 c83c e894 033d 0235 3b3d 2c23 7dbd
00000030: 8d97 0e3d b930 e03c 72c6 0eb9 179a 52bc
00000040: f28f bcba b380 513d 680e 733d df47 aa3d
00000050: 6072 0cbc 1304 883c 766b c03c 3c6a cfbc
00000060: 96aa b0bc e481 763c 687b 5c3d f9db cf3c
00000070: 31bc 01bd 5e5e 863c e7c7 8fbd a9b0 fdbc
00000080: 8522 57bb 3cdf c93c a960 babb 55b8 603d
00000090: 1cab 1d3d 368c 153c 0a44 c6bc 8423 213d
000000a0: bb4c a23c 036c a83d 27c7 8dbc 06d7 26bd
000000b0: 6308 9bbb f6c2 933d f752 133d bfa5 1dbd
000000c0: 5b12 e63c c7ea 1ebd f83b c3bc 3953 ae3c
000000d0: 6d6b f03b ce8d 2abc 828a 5dbc 6250 d8bc
000000e0: 9d0b 333d 8d54 b1bc 0ca1 efbc e1f8 6d3d
000000f0: a426 12bd 26fa de3b 1eb5 e13c 5ccd 243d
00000100: a7b7 6abd b9f2 f23c 03a3 4b3d 4b46 08bc
00000110: f2f1 3e3c b878 b9bc 26b3 3cbd 5b16 1bbd
00000120: a683 b23c d087 863d a192 2b3d 04b7 dd3b
00000130: 02eb ef3c 28b9 26bd 44f6 5abc 3489 a3ba
00000140: 7de0 45bd f11e 5a3d e453 47bd f02a 313c
00000150: 6ce5 83bd ca76 7ebc a4e8 8abd d4d2 9ebc
00000160: f082 fabb 3610 ef3c 838b 7d3d af90 8abd
00000170: 0c2a 7ebd 0ae4 0ebd a247 293d eab5 5ebd
00000180: 19a4 3dbd 4dfb 1dbd 24a4 38bd fcfa f1bc
00000190: aa03 943d a540 42bd eace 0a3d 6941 2a3d
000001a0: 45ab 893d e1d4 83bd fcb9 17bc 4d33 053d
000001b0: 71cf cdbb a4e0 a63c 0b84 c43b fc20 30bd
000001c0: 6fca 093d 7fdc 903c ff46 67bd bfa9 423d
000001d0: f37a 0ebd cc41 49bd 5d08 0bbd 8ec5 9cbc
000001e0: 5ea4 063d f390 833d c89c 75bd 652a d3bb
000001f0: 7407 75bd 3cbe 6239 a2ec d4bc 2568 b4bc
0.04389897 0.015586846 0.0045029274 -0.06549131 -0.05142852 0.053725336 0.033197466 0.024037996
0.024521366 0.03212443 0.04570485 -0.06180112 0.0348125 0.027366983 -0.00013616102 -0.012854121
-0.0014386161 0.051148128 0.05933991 0.083144896 -0.008572191 0.016603505 0.023488741 -0.025319211
-0.021565717 0.015045617 0.053828627 0.025373446 -0.031673614 0.01640242 -0.0702055 -0.030968027
-0.0032826972 0.02464258 -0.0056877923 0.054863293 0.03849326 0.009127667 -0.024202365 0.03934051
0.019811979 0.082237266 -0.017306877 -0.040732406 -0.0047312244 0.0721492 0.035967793 -0.038488146
0.028084924 -0.03879812 -0.023832306 0.021279918 0.007337025 -0.010409785 -0.013521792 -0.026405517
0.043712247 -0.021646762 -0.029251598 0.058098678 -0.03568138 0.0068047224 0.027552184 0.04023491
-0.05730405 0.029656755 0.049716007 -0.00831754 0.011654364 -0.022640571 -0.046069287 -0.037863117
0.02179129 0.06568873 0.041887883 0.006766202 0.029286865 -0.040703923 -0.013364378 -0.0012476803
-0.04830979 0.053252164 -0.04866399 0.01081346 -0.06440243 -0.015531251 -0.06782654 -0.01938764
-0.0076450035 0.029182535 0.061900627 -0.067658775 -0.062051818 -0.034885444 0.04132808 -0.054372706
-0.046299074 -0.038569737 -0.04507841 -0.029538624 0.07227261 -0.04742493 0.033888735 0.041566286
0.0672212 -0.06437088 -0.009260651 0.032519627 -0.0062808325 0.020370789 0.005997186 -0.043000206
0.03364032 0.017683266 -0.05646419 0.047525164 -0.034785222 -0.049135014 -0.033943523 -0.01913717
0.032871597 0.06424131 -0.05996397 -0.006444263 -0.05982156 0.00021623907 -0.025991742 -0.022022316

fc4.weight f4 [1, 128]
00000000: 685f 36bc 5d60 b03b db40 dd3b 440d 783b
00000010: d378 233c 4010 97bb 4487 de3b de3b d53a
00000020: 4962 e239 598b 50bb cbb0 eaba 5e7a b43a
00000030: 31e0 853b a552 3a3a 464d 393c d10a e1ba
00000040: 8973 43bc 5595 2bbc c3a3 b6ba 7706 cabb
00000050: 3b61 02bb 1e07 7fbb 595f de3b 6c5d e7bb
00000060: 7b54 3f3b 7dc8 5fbb f4d8 d03b 6103 203b
00000070: af32 943b aa2c 2abb 574e 083b 56e3 0dbb
00000080: a7cb 27bb 8415 09b8 35d5 2f3b c768 28bb
00000090: 946e f7bb 75eb 81b9 7de2 043c deca 6aba
000000a0: e88d 353a f394 1abc b1f1 fa39 1b7d 2dbc
000000b0: db11 1cba b5e9 d8bb 2125 25bb 9a3a 4ebc
000000c0: 6356 32bb 6944 043c 0362 81bb bb7d 0c3b
000000d0: 7d7d 803b 108f a6ba 4bdb 75ba edfa c539
000000e0: 0724 163c 8871 e539 2b10 5d3c 5d75 a3bb
000000f0: c90b 4cbb e9cc eebb f740 8fbb abce d83c
00000100: f9d5 183b 4542 a0b9 d179 33bb f18b c33a
00000110: ebee 81bb cd06 843b c05d b1ba 04f8 493b
00000120: 9d7e 9cbb ec1c 3cbb 6b4a b23c ae9d 8f3a
00000130: 1cd0 c93c 3409 793c 1ba9 7a3b fc27 afbb
00000140: 201f a3bb 7921 9fbc ae6d 983b ae49 8fbb
00000150: f5c8 da3a 8b5a a5bb b09d de39 f7e8 9fbb
00000160: 00a3 ceb9 740a c5ba c607 5bbc 2f6a 3c3b
00000170: 1e4e eb3b e379 eebb 484c bcbb 7f76 4039
00000180: bf7e 463b 18ee 84bc d110 05bb 3131 7bba
00000190: 5d35 93bb 81a0 ce3b fab8 01bc 3df0 eab9
000001a0: fbce 9dbb e147 b63b d066 1eba cd92 85b9
000001b0: f045 c0ba 00aa 2ebc 35c4 febb 22d1 28bc
000001c0: 6835 c53b af76 293c 3ee6 8939 fcc1 86bb
000001d0: 10ac a6bc ba74 eab9 7cc0 33bc aeb5 d8bb
000001e0: 2351 7a3c 3b9c 83bb b3ff 383d e6e6 0dbb
000001f0: ea98 393a 379f 6abb 9286 23bc 146f 3abc
-0.011131145 0.005382581 0.006752116 0.0037849704 0.009977537 -0.0046100914 0.0067910273 0.0016268452
0.00043179307 -0.003182134 -0.0017905472 0.0013769378 0.0040855636 0.0007107652 0.011309927 -0.0017169361
-0.011929401 -0.010472615 -0.0013934303 -0.0061653215 -0.001989438 -0.0038914154 0.0067862687 -0.0070606973
0.0029194641 -0.00341466 0.006373519 0.0024416076 0.0045226435 -0.0025966563 0.0020798647 -0.0021650395
-0.0025603564 -3.2683383e-05 0.0026829962 -0.0025697218 -0.0075510237 -0.00024780227 0.00811064 -0.0008956621
0.0006925748 -0.009434926 0.0004786379 -0.0105889095 -0.00059535884 -0.006619657 -0.0025199133 -0.012587214
-0.0027212135 0.008072951 -0.0039484515 0.0021437246 0.0039212094 -0.0012707431 -0.00093786855 0.00037761722
0.009163863 0.0004376287 0.013492624 -0.004988356 -0.0031134954 -0.007287611 -0.004371758 0.026465734
0.0023320897 -0.00030566953 -0.002738584 0.0014919025 -0.003965249 0.004029131 -0.0013531968 0.0030817995
-0.0047758357 -0.0028703762 0.021764 0.0010957026 0.024635367 0.015199948 0.0038247767 -0.0053453427
-0.0049780756 -0.01942514 0.0046517467 -0.004372797 0.001669197 -0.005046194 0.00042460626 -0.0048800665
-0.00039412826 -0.0015033023 -0.013368553 0.0028749814 0.007180943 -0.0072777136 -0.005746398 0.0001835469
0.003028795 -0.016226813 -0.0020304213 -0.000958222 -0.0044924454 0.0063057547 -0.007917637 -0.0004481095
-0.0048159338 0.005562768 -0.0006042542 -0.00025477112 -0.001466928 -0.010660648 -0.0077748545 -0.010303767
0.0060183294 0.010343238 0.0002630222 -0.00411248 -0.020345718 -0.00044718926 -0.010971185 -0.006613455
0.015278134 -0.004016427 0.04516573 -0.0021652519 0.0007079976 -0.0035800466 -0.0099808145 -0.011379022
