Unity-projects/Pro3.1_Tennis/models/agent1_critic.pth (torch_old, 711884 bytes, 7 tensors)

fcs1.weight f4 [512, 24]
0	0x3c017ee7	0.007903791
1	0xbb517e5b	-0.0031966183
2	0x3cd4e44c	0.025987767
3	0xbc7052e8	-0.014668204
4	0x3ba41235	0.0050070533
5	0x3d02e2f1	0.03195471
6	0x3b81c3e3	0.003960119
7	0x3b948159	0.004532021
8	0xbc4b00d8	-0.012390338
9	0x3d5c7eae	0.05383175
10	0x3be4f27d	0.0069869147
11	0x3ca0d5ce	0.0196332
12	0xbd1c93fe	-0.038227074
13	0xbd008125	-0.03137316
14	0x3cdcb6b2	0.026942585
15	0x3cc1a7b2	0.023639534
16	0x3c9ad371	0.018899651
17	0x3d0b7418	0.034046263
18	0xbcb80daa	-0.022467453
19	0xbccda013	-0.025100743
20	0xbce0032d	-0.027345264
21	0xbd382846	-0.044960283
22	0x3cdc13fe	0.026865002
23	0x3c019189	0.007908233
24	0xbd313be5	-0.04327001
25	0xbc0c913a	-0.008579547
26	0xbc8898a5	-0.01667435
27	0xbc143f27	-0.00904826
28	0x3d300c61	0.042980555
29	0x3b55e7d9	0.0032639413
30	0xbcebfedb	-0.028808048
31	0xbc5f347f	-0.013623356
32	0x3cf2334c	0.029565476
33	0xbd386747	-0.045020368
34	0xbc96c4ea	-0.018404443
35	0xbd0528c1	-0.03250957
36	0x3c84b657	0.016200228
37	0x3cba544f	0.02274528
38	0x3c91c18e	0.01779249
39	0xbd3e5c53	-0.046474766
40	0x3d190c3f	0.037365194
41	0x3ac39b4a	0.0014923599
42	0xbc30aa9d	-0.010782865
43	0x3cf7c24e	0.030244019
44	0x3d28e3de	0.041232936
45	0x3c7d9da3	0.015479478
46	0xbb0c2f65	-0.0021390554
47	0xbd0a7183	-0.03379966
48	0xba5b90ad	-0.00083757454
49	0x3cee9ad9	0.029126571
50	0xbc87a190	-0.016556531
51	0xbcaa6b03	-0.02080298
52	0xbd0c817f	-0.034303185
53	0x3c8f9475	0.017526845
54	0xbb3f3c5a	-0.002918026
55	0xbc12088a	-0.008913169
56	0xbc773985	-0.015089397
57	0x3d61f2bd	0.055163134
58	0x3ad3df5b	0.0016164588
59	0x3cdbcc6c	0.026830874
60	0xbd3c7507	-0.046010043
61	0xbccbb2e3	-0.024865573
62	0x3cc73a9e	0.024319943
63	0x3d1b8fce	0.03797894
64	0xbc3b27a0	-0.011423022
65	0x3d1d2a29	0.038370285
66	0x3d2453e0	0.040119052
67	0x3cb80800	0.022464752
68	0xbc69c7a3	-0.0142687885
69	0xbcc2343a	-0.023706544
70	0xbcbf45ba	-0.023348678
71	0x3baa0920	0.005189076
72	0x3bdc00e3	0.006713973
73	0x3d5e6ff1	0.054305974
74	0x39f2252b	0.0004618553
75	0x3cb84f4a	0.022498745
76	0x3d36ff12	0.044676848
77	0xbda73c8d	-0.08165846
78	0xbcc00d0c	-0.023443721
79	0x3ba9defe	0.0051840534
80	0xbb917c0f	-0.0044398378
81	0x3c41a51c	0.01181915
82	0x3c430ffb	0.0119056655
83	0xbcefeadd	-0.029286796
84	0xbb1820c2	-0.0023212885
85	0x3c94c892	0.018162046
86	0xbd3a288b	-0.04544882
87	0x3c935003	0.017982488
88	0x3d137ed6	0.036009632
89	0x3d2abf37	0.041686263
90	0x3c8f44df	0.017488895
91	0xbb19dd24	-0.0023477757
92	0xbc1a48a8	-0.009416737
93	0xbbb58b49	-0.0055402857
94	0x3b07cf80	0.0020723045
95	0x3c9f8367	0.019471837
96	0x3cfbac80	0.030721903
97	0xbd3f1f36	-0.046660624
98	0x3be5f713	0.007017979
99	0x3c161281	0.009159685
100	0xbcc678d0	-0.02422753
101	0x3d3a1182	0.045426853
102	0x3d1d5498	0.038410753
103	0x3c4557a1	0.012044818
104	0xbc860063	-0.016357606
105	0xbc9fafe1	-0.019493045
106	0xbcceb73e	-0.025233861
107	0xbd0cbb4a	-0.0343583
108	0xbd1b2fa8	-0.037887245
109	0xbd1b8538	-0.037968844
110	0x3cf1c346	0.029512059
111	0x3cb39b7f	0.021924732
112	0xbd355724	-0.044272557
113	0xbc987354	-0.01860968
114	0xbd19cc19	-0.03754816
115	0xbd3ca314	-0.04605396
116	0xbcbee192	-0.02330092
117	0xbaa213a8	-0.0012365477
118	0x3cdd635d	0.02702492
119	0x3c8106e2	0.015750352
120	0xbbf0f02b	-0.007352849
121	0x3bbf4db2	0.0058381194
122	0x3d017786	0.031608127
123	0xb9fa8dd6	-0.00047789392
124	0x3c67b798	0.014142893
125	0x3caa3b05	0.020780096
126	0x3c3e5475	0.011616816
127	0x3b771492	0.003770147
128	0xbcfda25d	-0.03096121
129	0x3bfdde49	0.0077474457
130	0x3cdc9bb0	0.026929706
131	0xbbfec2b1	-0.007774674
132	0xbd03b578	-0.032155484
133	0x3cf9f8e3	0.030514186
134	0x3c1574d5	0.009122093
135	0x3cd48aed	0.025945151
136	0x3bd1349a	0.0063844444
137	0xbb91c28c	-0.0044482406
138	0xbc93d8bb	-0.018047681
139	0xbc1bf520	-0.009518892
140	0x3d2c33c1	0.042041544
141	0x3c86d02d	0.016456688
142	0xbc93a84b	-0.018024584
143	0xbcda94a9	-0.026682215
144	0x3d2120f3	0.039338063
145	0x3be431db	0.006963951
146	0x3d24956d	0.040181566
147	0xbd2188e0	-0.039437175
148	0xbb717319	-0.0036842285
149	0x3ca4379e	0.020046052
150	0x3c803042	0.015648011
151	0xbbc14632	-0.0058982605
152	0x3cea163a	0.028575052
153	0x3bc3fdf6	0.0059812022
154	0xbcb4cfa4	-0.022071667
155	0x3c88a48b	0.016680023
156	0x3d0aa58c	0.033849284
157	0x3d104110	0.0352183
158	0x3ca6f000	0.020378113
159	0x3a42a5c5	0.0007425214
160	0xbd0a4ebf	-0.033766504
161	0x3b025041	0.001988426
162	0xbccd19bb	-0.025036683
163	0xbcc6d34f	-0.024270682
164	0x3bd3b7e0	0.0064611286
165	0xbd39f4e2	-0.045399554
166	0xbc219d67	-0.009864188
167	0xbd16cc86	-0.036816142
168	0x3c914bb5	0.017736295
169	0xbc5b7e7f	-0.013396858
170	0x3c84522f	0.01615247
171	0xb898a8ed	-7.27939e-05
172	0xbcc5e0cc	-0.024155043
173	0x3d15e13a	0.036591746
174	0xbd19f031	-0.03758258
175	0x3cac4150	0.021027237
176	0xb8f9cada	-0.00011911029
177	0xbc8729ec	-0.016499482
178	0x3b9b959b	0.004748059
179	0xbc5f1808	-0.013616569
180	0x3c4c3337	0.012463382
181	0xbd30296d	-0.043008257
182	0xbced2ee6	-0.028953027
183	0xbd001646	-0.03127124
184	0x3d100cbb	0.03516839
185	0xbc12e279	-0.008965128
186	0x3bae51d1	0.005319812
187	0xbc3c5b57	-0.0114963865
188	0xbce40c5c	-0.027837925
189	0xbd1280d1	-0.03576738
190	0x3c273f9d	0.010208038
191	0xbc810ce8	-0.015753224
192	0x3bba9fba	0.0056953104
193	0x3d4a65bc	0.049413428
194	0x3c0798ba	0.008276159
195	0x3cedadcf	0.029013542
196	0xbd03839c	-0.032107934
197	0xbd2fb2ba	-0.042895056
198	0xbc60e2de	-0.013725964
199	0x3c7df2cb	0.015499781
200	0xbd2b1251	-0.041765515
201	0x3d57a8ef	0.052651342
202	0x3ca40b1d	0.02002483
203	0x3c4ce5e6	0.012505984
204	0xbbecd6ca	-0.0072277533
205	0xbcf965c8	-0.03044404
206	0xbd2041cb	-0.039125245
207	0x3cd647ca	0.026157279
208	0xbd1595cc	-0.03651981
209	0x3d39bc33	0.045345496
210	0x3c88dc83	0.01670671
211	0xbd29e75c	-0.041480407
212	0x3cf6e3bc	0.03013789
213	0xbda9cc12	-0.082908764
214	0x3c7a321c	0.015270736
215	0x3ce95919	0.028484868
216	0xbd1853c4	-0.03718926
217	0xbc8a984d	-0.016918326
218	0xbcbebfc9	-0.02328481
219	0xbbf8d44c	-0.007593667
220	0x3c9f73f5	0.019464472
221	0x3d010351	0.031497303
222	0xbb046e02	-0.0020207171
223	0xbd288589	-0.041142974
224	0x3d1eb5c7	0.038747575
225	0x3d6310fc	0.05543612
226	0xbcdc1e6c	-0.026869975
227	0xbb0f7527	-0.0021889897
228	0xbaaa8837	-0.0013010566
229	0x3d97656d	0.07392392
230	0x3c9ef5c0	0.019404292
231	0x3cf4737f	0.02984023
232	0xbcd58327	-0.026063515
233	0xbc3bc22b	-0.0114598675
234	0xbd07e11f	-0.033173677
235	0xbcc27aa9	-0.02374013
236	0xbd23a57d	-0.039952744
237	0xbcc5074d	-0.024051333
238	0xbd3ba259	-0.045809124
239	0x3cba6b91	0.02275637
240	0xbc08cd3f	-0.008349716
241	0x3d382652	0.04495842
242	0xbb4c85ea	-0.0031207749
243	0xbb4ee517	-0.0031569654
244	0x3d27bd1c	0.040951833
245	0x3caa35ef	0.02077767
246	0xbc954f96	-0.018226426
247	0x3c1e9455	0.00967892
248	0x3cec2f82	0.028831247
249	0x3d437c68	0.047726065
250	0x3d5079e6	0.0508975
251	0x3c6c92ea	0.014439324
252	0x3c846228	0.016160086
253	0x3d42d941	0.04757047
254	0xbd053185	-0.03251793
255	0x3cc6b43a	0.02425586

fcs1.bias f4 [512]
0	0xbd056c34	-0.032573894
1	0xbcc1c86d	-0.02365514
2	0x3e378a81	0.17923929
3	0x3cc34e82	0.023841146
4	0x3dee5a61	0.11638332
5	0xbe6250b7	-0.22101103
6	0xbc2d1a23	-0.0105653135
7	0x3df5f174	0.12008944
8	0x3dcc958d	0.09989462
9	0x3ca6532c	0.020303331
10	0xbe2df605	-0.1698838
11	0xbdb5f9c0	-0.08885527
12	0xbd9fc716	-0.078016445
13	0x3da1e79b	0.07905503
14	0x3e12a00d	0.14318867
15	0x3d710f69	0.058852587
16	0x3cb389ac	0.021916233
17	0xbe57d010	-0.21075463
18	0xbc9d68fe	-0.019215103
19	0xbd75f71d	-0.06005012
20	0x3e37778e	0.179167
21	0x3d32961b	0.043600183
22	0x3e3cdbed	0.1844327
23	0xbdffc1eb	-0.12488159
24	0xbdef7c59	-0.11693639
25	0x3e1a72e0	0.15082884
26	0x3d9d7ee2	0.076902166
27	0x3e48be93	0.19603948
28	0xbe4f8794	-0.20266563
29	0xbe387604	-0.1801377
30	0xbe531dff	-0.20616911
31	0x3da8d429	0.08243591
32	0xbd898696	-0.06715123
33	0x3e28eab3	0.1649578
34	0xbdaa3180	-0.083102226
35	0xbc7e1fff	-0.015510558
36	0x3e11ab7f	0.14225577
37	0x3d05e63c	0.03269027
38	0x3d247272	0.040148206
39	0xbe162aac	-0.14664716
40	0x3d187b3c	0.0372269
41	0x3e277f2e	0.16357109
42	0x3e205d1d	0.1566052
43	0xbe03953e	-0.128499
44	0x3dfd5e75	0.12371532
45	0x3dc2213b	0.094789945
46	0xbd0a326b	-0.03373949
47	0x3dfcca8d	0.12343321
48	0xbe45bed5	-0.19311078
49	0x3dada665	0.08479003
50	0x3cac3c3e	0.02102482
51	0x3dc73132	0.0972618
52	0x3e57c3c2	0.2107077
53	0xbde69806	-0.11259465
54	0x3e3fa39e	0.18714759
55	0x3db21075	0.08694545
56	0x3de47782	0.11155607
57	0xbd200e9d	-0.039076436
58	0x3c4a0fd6	0.012332877
59	0x3afc036e	0.0019227096
60	0xbe2b2ece	-0.16717073
61	0x3e0d403e	0.13794038
62	0x3df309b4	0.11867085
63	0x3d9742fa	0.07385822
64	0x3e2b8a6b	0.16752021
65	0x3e0d8078	0.13818538
66	0x3d5feebc	0.054671034
67	0xbe3112dd	-0.17292352
68	0x3db746fb	0.08949085
69	0x3d1e4e57	0.03864893
70	0x3e1cb3de	0.15302989
71	0x3e44c0df	0.192142
72	0x3e029071	0.12750413
73	0xbdc098a4	-0.09404114
74	0xbc7d2f41	-0.015453161
75	0xbcbc66fb	-0.022998324
76	0x3c398cd9	0.011325085
77	0xbd52faaf	-0.0515086
78	0xbe2211a1	-0.15827037
79	0x3d27ef89	0.040999923
80	0xbce4690f	-0.027882127
81	0x3d9f2d4b	0.07772311
82	0x3d9092c6	0.07059245
83	0x3d8ba4d9	0.068185516
84	0x3e14029c	0.1445412
85	0x3e0196f7	0.12655245
86	0x3dbdf21b	0.092746936
87	0xbd3bda02	-0.045862205
88	0x3e1fd99c	0.15610355
89	0xbd66b8e9	-0.056328688
90	0x3d67b589	0.05656961
91	0x3d143fa5	0.03619351
92	0xbe1f8365	-0.15577467
93	0x3d302d65	0.04301204
94	0xbe1edd99	-0.1551422
95	0xbe3e0046	-0.18554792
96	0xbe26226e	-0.16224071
97	0x3e270cf5	0.16313536
98	0xbe016cbd	-0.12639137
99	0x3c880251	0.016602667
100	0x3e0e8e87	0.13921557
101	0xbe33faca	-0.17576137
102	0x3b14ec4e	0.0022723856
103	0x3d26401e	0.04058849
104	0x3ded3df1	0.1158408
105	0xbdcd91ac	-0.1003755
106	0xbdfb9689	-0.12284572
107	0xbdfacee8	-0.122464955
108	0xbb3be2ba	-0.0028669075
109	0xbd42d2bd	-0.047564257
110	0xbe24ac0a	-0.16081253
111	0xbd6b2f8d	-0.057418395
112	0xbd8141c4	-0.06311372
113	0x3e0661d9	0.13123263
114	0xbd662549	-0.0561879
115	0x3e38dc7e	0.18052861
116	0x3e3e5331	0.18586423
117	0xbdea9894	-0.11454883
118	0x3c3b83fb	0.011445041
119	0xbd273a9b	-0.040827375
120	0x3994fec7	0.00028418584
121	0xbe2ca001	-0.16857912
122	0x3ad57bfe	0.0016287563
123	0xbdc9c505	-0.098520316
124	0x3d41ec9d	0.047344793
125	0xbd784b24	-0.060618535
126	0xbe17220a	-0.14759079
127	0x3dcae1b7	0.09906333
128	0xbe3dc6a7	-0.18532811
129	0xbdecbd2b	-0.115595184
130	0xbda661db	-0.08124133
131	0x3dfad198	0.12247008
132	0x3c9188bb	0.017765393
133	0x3d889631	0.06669272
134	0xbd93d89b	-0.072190486
135	0xbe4a43f4	-0.19752485
136	0x3dab92e5	0.08377627
137	0x3d1c88bc	0.038216338
138	0xbe153290	-0.1457007
139	0x3e4c4550	0.19948316
140	0x3e4a561c	0.1975941
141	0xbcc3c449	-0.023897307
142	0x3e0507aa	0.12991205
143	0x3e082c01	0.13298036
144	0x3e0c9599	0.13728942
145	0xbe037a3b	-0.12839596
146	0x3e4d3165	0.20038374
147	0xbe53b5f3	-0.20674877
148	0xbd95e416	-0.073188946
149	0x3dc07f62	0.09399296
150	0xbe445114	-0.19171554
151	0xbd440863	-0.04785956
152	0xbdac4248	-0.0841108
153	0xbde9767b	-0.113995515
154	0x3d016b57	0.031596508
155	0x3e377178	0.17914379
156	0x3e1b90bc	0.1519193
157	0xbd0078d7	-0.03136524
158	0x3daccfd8	0.084380805
159	0x3c81de78	0.015853152
160	0xbdfdb799	-0.12388534
161	0xbbc3b191	-0.0059720953
162	0x3d55d34b	0.052203458
163	0xbd5e2017	-0.054229822
164	0xbe471f94	-0.1944564
165	0xbe22e018	-0.15905797
166	0xbdc7f0f9	-0.09762759
167	0xbdbee656	-0.09321277
168	0xbdb122a1	-0.08649183
169	0x3e2b789d	0.16745229
170	0xbdd29df2	-0.10284032
171	0xbcedbdbd	-0.029021138
172	0x3cc3040c	0.02380564
173	0x3d9a79eb	0.07542785
174	0x3dedc905	0.11610607
175	0xbddd72a9	-0.10812885
176	0x3e418d79	0.18901624
177	0xbca6120f	-0.020272283
178	0x3e4bc516	0.19899401
179	0xbe2cb4a1	-0.1686578
180	0x3dec6ea5	0.11544541
181	0xbcc3ac8f	-0.023885993
182	0x3d8d1d04	0.068903
183	0xbe59dd11	-0.21275736
184	0xbdcb4c1d	-0.09926627
185	0xbe5d8e53	-0.21636324
186	0xbe162a21	-0.14664508
187	0x3d24c24c	0.04022436
188	0xbcc69220	-0.0242396
189	0x3dcee67f	0.101025574
190	0xbe124d34	-0.14287263
191	0xbe3ff42e	-0.18745491
192	0xbe48c0ea	-0.19604841
193	0x3e46064f	0.19338344
194	0xbe0456fb	-0.12923805
195	0xbe0c7a0e	-0.13718435
196	0xbd2f2e9c	-0.04276906
197	0x3d8fc969	0.07020838
198	0xbdc3fb9e	-0.095694765
199	0xbe2a26ae	-0.16616318
200	0xbe2e660a	-0.17031112
201	0xbc321d8b	-0.010871301
202	0x3e22257a	0.15834609
203	0x3e25c6e4	0.16189152
204	0xbda00e9f	-0.07815289
205	0x3c735c01	0.014853478
206	0xbe35f83f	-0.1777048
207	0xbe3a2279	-0.18177213
208	0xbd2349b0	-0.039865196
209	0xbd66f7a4	-0.056388512
210	0xbe514912	-0.2043803
211	0x3e24d193	0.16095571
212	0x3de34a75	0.11098186
213	0x3df99cb5	0.121880926
214	0x3de09564	0.10965994
215	0x3baf77f7	0.005354877
216	0x3d60a0b6	0.054840766
217	0x3c289b4f	0.010290935
218	0x3b768104	0.003761352
219	0x3d4bbb8f	0.049739417
220	0x3d86f79d	0.06590197
221	0x3e13baaf	0.14426683
222	0xbe2b4638	-0.16726005
223	0x3e2194b1	0.15779378
224	0xbe1bbcf6	-0.15208802
225	0x3e33eea5	0.17571504
226	0xbe2be336	-0.16785893
227	0xbde32c94	-0.11092487
228	0xbd0bf91c	-0.034173116
229	0x3c19d4b5	0.009389092
230	0x3e3e9497	0.1861137
231	0x3df3062d	0.11866412
232	0x3e184f06	0.14873895
233	0xbe5305ef	-0.20607732
234	0xbdd91510	-0.105997205
235	0x3e31cd32	0.17363432
236	0xbe0b672a	-0.13613573
237	0x3e50b922	0.20383123
238	0x3e2203ed	0.1582181
239	0x3dea29ee	0.11433779
240	0x3da377aa	0.079818085
241	0x3de0420a	0.10950096
242	0xbd966cfa	-0.073450044
243	0x3d858f95	0.06521527
244	0xbbb2f7c4	-0.005461665
245	0xbe56f204	-0.20990759
246	0xbd89104b	-0.06692561
247	0xbe36e7d3	-0.17861871
248	0xbda923ce	-0.08258782
249	0xbe4399a8	-0.19101584
250	0x3e299a39	0.16562738
251	0x3e215e26	0.15758571
252	0xbe254379	-0.1613902
253	0x3b94ee2b	0.0045449934
254	0xbc9523d3	-0.018205559
255	0x3e0ded0f	0.13859962

fc2.weight f4 [256, 514]
0	0xbce52de6	-0.027975988
1	0xbd42538b	-0.047442954
2	0xbd249447	-0.04018047
3	0x3cbda484	0.023149736
4	0xbd5956ce	-0.0530613
5	0xbc8a7b92	-0.016904626
6	0xbaf6485d	-0.0018789876
7	0x3d5d03f0	0.053958833
8	0xbcb7f796	-0.022456925
9	0x3cb82cdc	0.022482328
10	0xbc912443	-0.017717486
11	0x3c65fa3a	0.014036709
12	0x3d4f7590	0.050649226
13	0xbc0e5a09	-0.008688458
14	0x3bc301c9	0.0059511405
15	0xb778e97c	-1.4836314e-05
16	0xbd8c3600	-0.06846237
17	0x3d86398e	0.065539464
18	0x3d403e9e	0.046934716
19	0x3d867db7	0.06566947
20	0xbc1516a7	-0.009099639
21	0xbcc958aa	-0.024578411
22	0xbcb700ac	-0.022339188
23	0x3d066324	0.03280939
24	0x3b78f64d	0.0037988604
25	0xbd6460ef	-0.055756506
26	0xbb62f57e	-0.0034631188
27	0xbd3e48ce	-0.04645615
28	0x3d06535f	0.032794353
29	0x3bd27fa0	0.0064239055
30	0x3cc19256	0.023629349
31	0x3cdc2a92	0.026875768
32	0x3ce65a6d	0.02811929
33	0xbd632c4a	-0.05546216
34	0x3c7ed139	0.015552812
35	0xbd4f9d62	-0.0506872
36	0x3bd8f763	0.0066212877
37	0xbd09bd41	-0.033627752
38	0xbd5678de	-0.05236136
39	0x3d1f817c	0.038941845
40	0xbd1c640c	-0.03818135
41	0x3c1c06fc	0.00952315
42	0xbc7f8629	-0.015595951
43	0x3d080057	0.03320345
44	0xbc369fd6	-0.011146506
45	0x3c41ea8b	0.011835705
46	0x3ca56d81	0.020193817
47	0xbd7a00ef	-0.061036047
48	0xbd0e297d	-0.034707535
49	0x3d0ead25	0.034833092
50	0xbd3a3b3c	-0.045466647
51	0xbd1c176d	-0.038108278
52	0x3d1138ce	0.035454564
53	0x3bdad5a2	0.006678299
54	0x3d4bcd3e	0.04975628
55	0x3d763da2	0.06011737
56	0xbd517d3c	-0.051144823
57	0xbd0251fb	-0.031816464
58	0xbccb30d2	-0.024803553
59	0x3d17c41c	0.03705226
60	0x3d78f189	0.06077722
61	0x3d1e0517	0.038579073
62	0x3a8bb106	0.0010657615
63	0xbd23ffed	-0.04003899
64	0xbd38dd4a	-0.045132913
65	0xbd7dd16b	-0.061967295
66	0x3ce788d1	0.028263481
67	0x3d1d6bcb	0.038432878
68	0xbd341e30	-0.0439741
69	0x3cd5d975	0.026104668
70	0x3be94800	0.007119179
71	0x3d48be86	0.049009822
72	0x3d65c340	0.056094408
73	0x3cec5605	0.028849611
74	0xbd30a86b	-0.043129366
75	0xbd0805b2	-0.033208556
76	0x3d21446c	0.039371893
77	0xbd31d77a	-0.043418385
78	0xbd3753ed	-0.044757772
79	0xbd15804e	-0.036499314
80	0x3d4bccab	0.049755733
81	0xbd0cd18e	-0.034379534
82	0x3d4b03ef	0.0495643
83	0xbc8d9a38	-0.017285451
84	0x3d61590a	0.055016555
85	0x3d1f6fc3	0.038924944
86	0xbd24442a	-0.04010407
87	0xbcf7c710	-0.030246288
88	0x3d711598	0.058858484
89	0xbc3de2ff	-0.011589765
90	0x3cfaf4dd	0.030634338
91	0xbcff3e68	-0.031157687
92	0x3b5eb1c9	0.003398048
93	0x3cf5a9cc	0.029988192
94	0x3c98f68f	0.018672256
95	0x3cfabc34	0.03060732
96	0x3d18b3f9	0.03728101
97	0x3ceaa3d0	0.028642565
98	0xbd567cd4	-0.05236514
99	0x3ca155c7	0.019694222
100	0x3cb741ac	0.022370182
101	0x3bbdff9b	0.005798293
102	0xbd4064b0	-0.046971023
103	0xbcee73a9	-0.029107885
104	0xbd0634db	-0.03276525
105	0x3d1e269c	0.03861104
106	0x3d563102	0.05229283
107	0x3bff3e24	0.00778939
108	0xbc9acc5d	-0.018896276
109	0x3cac9514	0.02106718
110	0xbc86ebc5	-0.016469846
111	0x3ba17d43	0.0049282624
112	0xbd846410	-0.06464398
113	0x3b846724	0.0040406156
114	0xbbeb42d5	-0.007179598
115	0x3d23c728	0.039984852
116	0xbcd4e43a	-0.025987733
117	0xbb5bdcc0	-0.0033548325
118	0xbd995652	-0.074871674
119	0xbd37123e	-0.04469513
120	0xbd0db649	-0.03459767
121	0x3c0aded8	0.008475982
122	0xbd3adff5	-0.04562374
123	0xbd006601	-0.03134728
124	0x3d2e19bd	0.042505015
125	0x3c106601	0.008813382
126	0x3d46965b	0.048483234
127	0x3b985892	0.0046492303
128	0xbd1d4588	-0.03839639
129	0x3d38bfc9	0.045104776
130	0xbc219ef5	-0.0098645585
131	0x3b8a8871	0.004227691
132	0xbce332e7	-0.027734233
133	0xbd6a4cf5	-0.0572023
134	0x3d4d780b	0.05016331
135	0x3d7f6b95	0.062358458
136	0xbd5579df	-0.05211818
137	0xbcc08a9b	-0.023503592
138	0xbd596655	-0.053076107
139	0xbcdf7d32	-0.027281377
140	0xbd7f6b00	-0.062357903
141	0x3c63a3a5	0.013893996
142	0x3d1d9b37	0.038478103
143	0x3d087f3f	0.033324476
144	0x3ce34b45	0.027745852
145	0xbd4d35e8	-0.050100237
146	0xbd1b5f3a	-0.037932612
147	0xbd510437	-0.05102941
148	0x3d2511b6	0.040300094
149	0x3d338092	0.043823786
150	0xbc1484ce	-0.009064866
151	0xbc8674bc	-0.016413085
152	0x3d11a6a8	0.035559326
153	0x3cda13af	0.026620714
154	0xbcde50c9	-0.02713813
155	0xbbea8f48	-0.0071581937
156	0xbc9bb64f	-0.01900783
157	0xbc6dd1cb	-0.014515351
158	0xbd510946	-0.051034234
159	0x3d7fa39e	0.062411897
160	0x3d3e4772	0.046454854
161	0x3ccf3bf2	0.025297139
162	0xbd227adc	-0.03966795
163	0xbca199d7	-0.019726677
164	0xbd0f428f	-0.034975585
165	0x3ccf72c8	0.025323287
166	0xbad051c9	-0.0015893515
167	0x3d3177ce	0.043327145
168	0xbca3ccb2	-0.019995067
169	0xbd34c802	-0.044136055
170	0xbc9769e2	-0.018483106
171	0xbd3f0bc1	-0.04664207
172	0x3d103975	0.035211045
173	0xbc81d9ad	-0.015850866
174	0x3d088086	0.033325695
175	0xbc672b05	-0.014109378
176	0x3ccb2f6c	0.024802886
177	0xbd0769f0	-0.033060014
178	0xbd11f653	-0.035635304
179	0xbba8f6c6	-0.005156371
180	0xbd8a4a20	-0.067524195
181	0xbd2458a7	-0.040123608
182	0xbc9b332e	-0.018945303
183	0x3d481e4b	0.048857015
184	0xbcb42662	-0.021990959
185	0x3c1644fa	0.009171719
186	0x3d380c5f	0.044933673
187	0x3d6c3ad6	0.057673298
188	0x3d55c946	0.052193902
189	0xbd7de63e	-0.061987154
190	0xbd4de589	-0.05026773
191	0x3cee4289	0.02908446
192	0xbd8bc85c	-0.06825325
193	0xbd5b4a90	-0.053537905
194	0xbb962334	-0.0045818333
195	0x3ccd3315	0.025048772
196	0xbca7877d	-0.020450348
197	0x39cbdf7f	0.00038885695
198	0xbd13d405	-0.03609087
199	0x3d756036	0.059906207
200	0xbcb40cd5	-0.021978775
201	0xbc0416e2	-0.008062096
202	0x3d39782b	0.045280617
203	0xbcfab9d2	-0.030606184
204	0xbb4aba8f	-0.0030933951
205	0x3d708ac5	0.05872609
206	0x3d6e6fd2	0.05821211
207	0x3d7e7ac8	0.062128812
208	0x3d036ff5	0.032089192
209	0x3d577e57	0.05261072
210	0x3cffb47a	0.031213988
211	0x3b6882e1	0.00354784
212	0xbb73a230	-0.0037175529
213	0x3c2981b7	0.010345868
214	0x3d6a2375	0.05716272
215	0x3c110922	0.008852275
216	0xbd3ee274	-0.04660268
217	0xbc5753c6	-0.013142532
218	0x3749d228	1.2029464e-05
219	0x3c9a3275	0.018822888
220	0xbd71278c	-0.058875605
221	0xbd2f04ff	-0.042729374
222	0xbca2c259	-0.019868063
223	0x3d3c864a	0.046026506
224	0xbd087d16	-0.033322416
225	0x3c9222b5	0.017838815
226	0xbd9f968d	-0.07792387
227	0x3b29b162	0.0025893082
228	0x3b3b9e4e	0.0028628292
229	0xbd7d6be3	-0.061870467
230	0x3cba55d3	0.022746002
231	0xbc0d3f03	-0.00862098
232	0xbc72933b	-0.01480561
233	0x3d4df12c	0.050278828
234	0x3c2b9785	0.010473137
235	0x3d1a81e3	0.037721526
236	0x3cdc400d	0.02688601
237	0x3bccfeb5	0.0062559494
238	0xbb81a448	-0.0039563514
239	0x3d4a2be7	0.049358275
240	0xbbc782d7	-0.0060885954
241	0xbd215442	-0.039386995
242	0xbd710451	-0.058842007
243	0xbd5aa017	-0.05337533
244	0x3d35c37a	0.044375874
245	0xbc9e3193	-0.019310748
246	0xbce95332	-0.028482053
247	0xbd2e88ff	-0.04261112
248	0xbc90d67e	-0.017680403
249	0x3c36ff2a	0.011169234
250	0xbd5a552d	-0.053303886
251	0x3d1b85ab	0.037969273
252	0xbd704199	-0.05865631
253	0xbd41a38d	-0.047275115
254	0x3c8da992	0.017292771
255	0xbd6c324e	-0.05766516

fc2.bias f4 [256]
0	0xbc30baf8	-0.010786764
1	0xbc8de3aa	-0.017320473
2	0xbcd77a63	-0.026303476
3	0xbc0c29d1	-0.008554892
4	0xbcd4098e	-0.025883462
5	0x3c27afeb	0.010234813
6	0xbd161e18	-0.036649793
7	0x3ccf7f45	0.025329242
8	0xbca4a5d9	-0.020098614
9	0x387e4742	6.0624683e-05
10	0xbd562c0b	-0.052288096
11	0x3ad1e85b	0.0016014682
12	0x3d248a59	0.040171
13	0xbd46e260	-0.04855573
14	0x3cba3b56	0.022733372
15	0xba57f80a	-0.000823856
16	0xbc24836c	-0.010041099
17	0x3c9e3f3a	0.019317258
18	0x3a335d81	0.0006842241
19	0x3c8e9f75	0.01741002
20	0x3d05d8a8	0.032677323
21	0xbd2b0363	-0.041751277
22	0x3c9e2159	0.01930301
23	0x3d05bad4	0.032648876
24	0xbbb0adf4	-0.0053918306
25	0xbd131525	-0.035908837
26	0x3cc212fa	0.02369069
27	0x3c624f1f	0.013812809
28	0xbc0cdb47	-0.008597202
29	0xbbbb806c	-0.005722096
30	0x3cd74c3a	0.026281465
31	0xbd2f3e13	-0.042783808
32	0x3b10b29a	0.002207911
33	0x3b062e00	0.0020474195
34	0x3cfaf822	0.030635897
35	0xbd3bd279	-0.04585502
36	0xbd1948d3	-0.037422966
37	0xbba33051	-0.004980125
38	0xbd219e6c	-0.039457723
39	0x3c652751	0.013986425
40	0xbcd06c65	-0.025442312
41	0x3d2768fd	0.04087161
42	0xbd351018	-0.0442048
43	0x3cf1cfeb	0.029518088
44	0xbd11fbdb	-0.03564058
45	0x3c9f4c7c	0.01944565
46	0xbce1d1ae	-0.027565803
47	0xbc00fde8	-0.007873036
48	0xbc0b8047	-0.00851447
49	0xbcaba172	-0.020951007
50	0x3d3b23ae	0.045688324
51	0xbd54e0db	-0.05197225
52	0x3bdab754	0.0066746864
53	0x3b191d24	0.0023363316
54	0xbbf9d6ff	-0.0076245065
55	0x3d69c208	0.05706981
56	0xbcb2f991	-0.021847518
57	0xbc35b8bd	-0.011091408
58	0x3ce8b99a	0.028408814
59	0xba71ab62	-0.00092189584
60	0x3c7a043a	0.015259797
61	0x3c10eabb	0.008845027
62	0x3cab0b61	0.02087945
63	0xbccf8d07	-0.025335802
64	0xbced38e3	-0.02895779
65	0x3c10a720	0.008828908
66	0xbcacc3b3	-0.02108941
67	0x3ca687e4	0.02032847
68	0xbc4e59c6	-0.012594646
69	0xbc0d90a6	-0.008640444
70	0xbc543f8d	-0.012954605
71	0xbd08f6a7	-0.03343835
72	0x3d1f35e1	0.038869742
73	0xbc3466dd	-0.011010853
74	0x3cbd63e1	0.023118915
75	0xbc8bfea1	-0.01708919
76	0xbca3169b	-0.01990824
77	0x3c93b5df	0.018031059
78	0x3a552323	0.0008130541
79	0xbc347e5d	-0.0110164555
80	0x3bc3f5b1	0.0059802164
81	0x3ce31396	0.0277193
82	0x3af9fdca	0.0019072827
83	0xbc8c9ab1	-0.017163606
84	0x3bada824	0.005299585
85	0x3d5194fa	0.051167466
86	0x3d00f5ba	0.031484343
87	0x3d304776	0.0430369
88	0x3d05b63b	0.03264449
89	0x3cc6ed4c	0.024283074
90	0xbd5cefad	-0.05393951
91	0xbd375042	-0.044754274
92	0xbd304ec7	-0.043043878
93	0x3ca91322	0.020639006
94	0xbc17b802	-0.0092601795
95	0xbc998636	-0.018740755
96	0x3c88a45a	0.016679931
97	0x3a87686b	0.0010330802
98	0x3c8f85a8	0.017519787
99	0x3c0e9fe9	0.008705118
100	0x3d2c0c49	0.042003904
101	0x3d0e9203	0.034807216
102	0xbca61969	-0.020275788
103	0x3c9370a5	0.017998049
104	0x3cd2e4f9	0.025743948
105	0xbb81b5b8	-0.00395843
106	0xbcb0f475	-0.021600941
107	0x3b168b7c	0.0022971323
108	0x3d535a79	0.051599953
109	0xbd4d056e	-0.050054006
110	0xbcc9026e	-0.024537291
111	0x3c139d17	0.009009621
112	0x3c1f2005	0.009712224
113	0xbcf666e2	-0.030078355
114	0xbc092165	-0.008369778
115	0xbbc85950	-0.0061141625
116	0x3d022a16	0.031778418
117	0x3d243505	0.040089626
118	0xbd2f027c	-0.04272698
119	0xbd3a1e07	-0.045438793
120	0xbd0f4f10	-0.03498751
121	0xbd25890f	-0.040413912
122	0xbc6de510	-0.014519945
123	0x3d516ecc	0.051131055
124	0xbc4809cf	-0.01220937
125	0x3c424740	0.011857808
126	0x3d0f879e	0.035041444
127	0x3cfc2d92	0.030783448
128	0xbcbebc0c	-0.023283027
129	0x3bd83a40	0.006598741
130	0xbcf403f0	-0.029787034
131	0x3d1f4dfa	0.038892724
132	0xbcdd2742	-0.026996259
133	0x3d171377	0.036883797
134	0xbd0b632a	-0.034030117
135	0x3b13521d	0.0022479363
136	0xbd349065	-0.044083018
137	0x3bae92ad	0.0053275437
138	0xbcb6ba8c	-0.02230575
139	0x3cc4189e	0.02393752
140	0xbd35046c	-0.04419367
141	0x3d113b7b	0.035457116
142	0xbd116ff0	-0.035507143
143	0xbcb1b654	-0.021693386
144	0xbd471798	-0.048606485
145	0xbcdd3145	-0.027001033
146	0xbc89b8ff	-0.016811846
147	0x3d2c2bde	0.042034023
148	0xbcc82569	-0.024431901
149	0x3c01bfe1	0.007919283
150	0x3cbb70d7	0.022880955
151	0xbd3e0cad	-0.046398807
152	0x3cffcf5b	0.031226804
153	0xbbd0e3b9	-0.006374803
154	0x3d3e6f38	0.046492785
155	0xbd2743de	-0.040836208
156	0x3d088123	0.03332628
157	0xbc0612f3	-0.008183229
158	0xbcde2795	-0.027118484
159	0xbd0babfd	-0.034099568
160	0x3c61c100	0.013778925
161	0x3d01f594	0.031728342
162	0x3d40fcdd	0.04711615
163	0xbd1a24d3	-0.037632775
164	0xbbe86a43	-0.0070927455
165	0x3ca98677	0.020694
166	0x3d4efa99	0.050531957
167	0x39f561e6	0.00046802982
168	0xbc96a60f	-0.01838973
169	0x3c9dfacb	0.019284626
170	0x3cf7fb9e	0.030271348
171	0xbcf6432b	-0.030061325
172	0xbd4b6184	-0.049653545
173	0xbba1dff7	-0.004940029
174	0x3cd9e5ae	0.026598778
175	0xbc59ac89	-0.0132857645
176	0x3d422439	0.047397826
177	0xbb875a8e	-0.004130668
178	0xbd02758d	-0.031850386
179	0xbd0b62cd	-0.03402977
180	0x3c9fd3f0	0.01951024
181	0x3d07b109	0.03312782
182	0x3d35dfb7	0.044402804
183	0xbd2e8dc8	-0.042615682
184	0xbab1ec42	-0.0013574439
185	0xbd15f905	-0.036614437
186	0x3cd05b8e	0.025434282
187	0xbbb5b6f7	-0.0055454927
188	0xbcfb3382	-0.03066421
189	0xbc9bc327	-0.019013954
190	0xbc8af502	-0.016962532
191	0xbcd19355	-0.025582949
192	0x3cb4da9b	0.022076895
193	0xbb3969de	-0.0028291862
194	0xbc9af93b	-0.01891767
195	0xbcd2020a	-0.025635738
196	0x3c31f02d	0.010860485
197	0x3cbab447	0.022791041
198	0xbc34f7e5	-0.011045431
199	0x3c96170a	0.018321533
200	0x3c8dd270	0.017312258
201	0xbcb26674	-0.02177737
202	0xbd1e2884	-0.038612857
203	0xbd0ab004	-0.033859268
204	0x3cc282af	0.023743955
205	0xbc9f3695	-0.019435206
206	0x3cea49a8	0.028599575
207	0x3d19fb0a	0.037592925
208	0xbc86ad1c	-0.016439967
209	0x3ba68fb0	0.005083047
210	0x3d3d4ca8	0.046215683
211	0x3b1c3b2e	0.0023838985
212	0xbd1df735	-0.038565833
213	0x3d18d4a2	0.037312157
214	0xbc57741a	-0.013150239
215	0xbd0c76b1	-0.03429288
216	0xb7a63248	-1.9812156e-05
217	0x3d0a6755	0.03378995
218	0x3d132713	0.035925936
219	0xbc2bcf76	-0.010486474
220	0x3c8dd9b1	0.017315717
221	0x3cedaa44	0.029011853
222	0x3c14786c	0.009061914
223	0xbb6ab819	-0.0035815297
224	0xbc95f95a	-0.018307377
225	0xbd0860c2	-0.0332954
226	0xbd27062b	-0.040777367
227	0x3c90283a	0.017597307
228	0xbb308c94	-0.002693926
229	0xbd0fed01	-0.035138134
230	0xbcde8290	-0.027161866
231	0xbc4dbd37	-0.012557319
232	0xbd0c5494	-0.034260347
233	0x39d18cfb	0.00039968625
234	0xbd3a055d	-0.04541527
235	0xbd077f66	-0.03308048
236	0x3cab8c88	0.020941034
237	0xbccf020e	-0.025269534
238	0xbc9fb380	-0.019494772
239	0xbc1d8517	-0.009614251
240	0xbd3f912e	-0.046769314
241	0xbcd1acc6	-0.02559508
242	0x38c51f40	9.399513e-05
243	0xbb81e2b0	-0.003963791
244	0x3c0d5b94	0.008627791
245	0xbce1093b	-0.027470222
246	0x3cf74bbe	0.030187484
247	0xbbbe414b	-0.0058061234
248	0x3b15c88b	0.0022855129
249	0x3b7fbb4a	0.0039021545
250	0xbb495dbf	-0.0030726043
251	0x3cd586b7	0.026065214
252	0x3d293445	0.041309614
253	0xbd428c58	-0.047497123
254	0xbc0bf750	-0.008542851
255	0x3b959b65	0.0045656436

fc3.weight f4 [128, 256]
0	0xbd91a89c	-0.07112238
1	0x3cf2aa2d	0.029622162
2	0xbce8bd31	-0.028410526
3	0xbd6ab728	-0.057303578
4	0x3cca3d17	0.024687333
5	0xbd07b9a9	-0.033136044
6	0xbd2e3494	-0.04253061
7	0x3cfd6f26	0.030936789
8	0xbdbf55cc	-0.09342536
9	0x3ca8daf4	0.020612217
10	0xbd9d1bcf	-0.0767132
11	0x3d2284f4	0.039677575
12	0x3bc51787	0.0060147676
13	0xbd314f62	-0.043288596
14	0xbd177298	-0.03697452
15	0xbd285568	-0.041097075
16	0xbd72efa0	-0.059310555
17	0x3d60cb71	0.054881517
18	0xbda0813b	-0.07837149
19	0xbd2909c8	-0.041269094
20	0xbb9106cc	-0.004425859
21	0x3d43d04e	0.047806077
22	0x3bf9f961	0.0076286052
23	0x3cbdfb02	0.023190979
24	0xbd5b11d9	-0.053483818
25	0x3d2943c7	0.041324403
26	0xbd939154	-0.072054535
27	0xbb82fcce	-0.003997422
28	0xbd2e5364	-0.042559996
29	0xbd598fc6	-0.05311563
30	0xbd934436	-0.071907446
31	0x3d00d430	0.031452358
32	0xbd946530	-0.072458625
33	0x3cb82cac	0.022482239
34	0x3cecf2b7	0.02892433
35	0xbd3d339f	-0.046191808
36	0x3da2e769	0.07954294
37	0x3d608d97	0.05482253
38	0x3b112815	0.0022149135
39	0x3d99fe99	0.07519264
40	0xbd9d5c6b	-0.07683643
41	0x3d22d54a	0.03975419
42	0x3da82c94	0.082116276
43	0xbcd55b60	-0.026044548
44	0x3d89d2ab	0.06729635
45	0xbd4350f1	-0.047684614
46	0x3d0fb43c	0.035083994
47	0xbda02492	-0.07819475
48	0xbdaf7497	-0.085671596
49	0x3d837ef6	0.064207
50	0xbc91b074	-0.017784335
51	0x3cde01f5	0.027100543
52	0x3cb993df	0.022653518
53	0xbda5a27a	-0.080876306
54	0xbd6923c3	-0.05691887
55	0xbcbc2beb	-0.02297016
56	0x3d0d29c3	0.034463655
57	0xbd397d62	-0.04528559
58	0xbd1df925	-0.03856768
59	0xbb0c7b51	-0.0021435807
60	0xbda4c1af	-0.08044755
61	0x3cdccf82	0.026954416
62	0xbb371ae5	-0.0027939614
63	0x3cd3347f	0.025781868
64	0xbd07d947	-0.033166196
65	0xbd326d9c	-0.043561563
66	0xbda1370d	-0.07871828
67	0x3ae14bca	0.0017188725
68	0xbda2edd9	-0.07955522
69	0x3d373632	0.04472942
70	0xbd70b6d3	-0.058768105
71	0xbd9bd3ce	-0.07608758
72	0xbd12e52a	-0.03586308
73	0xbd2f4e2a	-0.042799152
74	0xbd2d4663	-0.042303454
75	0xbdc78ee4	-0.09744051
76	0xbcd9c2d0	-0.026582152
77	0xbbe30cb4	-0.0069290046
78	0x3d6b986e	0.057518415
79	0x3d1fa376	0.038974248
80	0x3d8fa8b2	0.07014598
81	0xbd817223	-0.06320598
82	0x3ba056ea	0.0048931735
83	0xbc367e69	-0.011138537
84	0x3d37b40b	0.044849437
85	0x3caea8b3	0.021320676
86	0x3d0c90ee	0.034317903
87	0xbd2a3e4f	-0.04156333
88	0xbb8ce956	-0.0043002767
89	0xbcd2e551	-0.025744112
90	0xbd380f0d	-0.04493623
91	0x3cbae12e	0.022812452
92	0xbd98ab0c	-0.074544996
93	0x3d6990db	0.05702291
94	0xbd93bf3a	-0.07214208
95	0xbd35a244	-0.0443442
96	0xbd8875e9	-0.066631146
97	0xbd97e851	-0.07417358
98	0x3d9974a6	0.07492952
99	0xbccf6f7a	-0.02532171
100	0xbdc6b72d	-0.09702907
101	0xbd4716d1	-0.048605744
102	0x3d49b906	0.049248718
103	0xbc10a058	-0.008827291
104	0x3ccdb98d	0.025112892
105	0x3b076e9a	0.002066529
106	0x3d2f610a	0.042817153
107	0x3d948474	0.07251826
108	0x3dad214a	0.08453615
109	0x3c38870b	0.0112626655
110	0xbd4722b9	-0.0486171
111	0x3d8f6fb1	0.07003725
112	0xbd31b28e	-0.043383174
113	0x3c60feec	0.013732653
114	0x3da30c12	0.079612866
115	0x3d16122d	0.036638428
116	0x3d9b0aee	0.07570444
117	0x3d93df28	0.07220298
118	0x3bcead14	0.0063072536
119	0x3b4a0355	0.003082474
120	0x3c9591aa	0.018257935
121	0x3cce2741	0.025165202
122	0x3d8f928e	0.07010375
123	0xbd3f3135	-0.046677787
124	0xbd6963eb	-0.056980055
125	0x3c681b46	0.014166659
126	0x3c635ce8	0.013877131
127	0x3d15ca34	0.03656979
128	0xbdb9a1ec	-0.09064087
129	0x3a2bac7c	0.00065488345
130	0x3bbc4955	0.0057460465
131	0xbdaa0c46	-0.08303122
132	0xbc2182a7	-0.00985781
133	0x3d85886e	0.065201625
134	0xbda5b8c7	-0.08091884
135	0xbd02dc79	-0.03194854
136	0xbdbd448d	-0.09241591
137	0xbd48dab8	-0.04903671
138	0xbd56f0e7	-0.052475836
139	0xbd9321bf	-0.07184171
140	0xbc50226d	-0.01270352
141	0x3d9ccf78	0.07656759
142	0x3b76e7e2	0.0037674834
143	0xbdcb72aa	-0.0993398
144	0x3c9d199f	0.019177256
145	0x3daaec4c	0.08345851
146	0xbd232b77	-0.039836373
147	0x3d0dff15	0.034667093
148	0x3cd2edd9	0.02574818
149	0x3ceef1d6	0.02916805
150	0xbd5bb299	-0.05363712
151	0xbd4cf697	-0.050039854
152	0x3dac539c	0.08414385
153	0x3d817996	0.06322019
154	0x3da8bbc5	0.08238939
155	0xbc61e847	-0.013788289
156	0x3d8804c8	0.06641537
157	0x3cff5a08	0.03117086
158	0xbda5d9a2	-0.08098151
159	0x3dc202b2	0.0947317
160	0x3da3f8b2	0.08006419
161	0x3c835e4b	0.016036173
162	0x3d8a68b3	0.06758251
163	0x3cf5bfb2	0.029998634
164	0xbd3a0f63	-0.04542483
165	0x3d468e69	0.048475657
166	0xbda5fa7f	-0.08104419
167	0x3d91f1fb	0.07126232
168	0x3b934346	0.0044941036
169	0x3d589acb	0.052881997
170	0xbda90e5f	-0.08254694
171	0x3cb38187	0.02191235
172	0xbd9b62b7	-0.07587188
173	0xbaf0f7af	-0.0018384362
174	0x3c981a00	0.018567085
175	0xbc971bb6	-0.01844583
176	0x3c71b563	0.014752719
177	0xbd6edbae	-0.05831497
178	0xbdb217c4	-0.08695939
179	0x3d5a7964	0.053338423
180	0x3c49fb74	0.0123280175
181	0x3ca0c7c5	0.019626508
182	0x3d3e1280	0.04640436
183	0xbd7aadd7	-0.061200943
184	0x3d9f7aa8	0.07787067
185	0x3d8c5f59	0.068541236
186	0x3bad6dbf	0.005292624
187	0xbcca1b20	-0.024671137
188	0x3bb7b0c1	0.0056057875
189	0x3da34960	0.079729795
190	0x3d07e2e0	0.03317535
191	0xbd9c9ebe	-0.07647465
192	0xbd83b3bf	-0.06430768
193	0xbd14b08d	-0.036301184
194	0x3d1cdcfb	0.03829668
195	0xbd30d169	-0.04316846
196	0x3d36d3f5	0.04463573
197	0x3a788cf7	0.00094814546
198	0x3d235752	0.039878197
199	0xbd5312a9	-0.051531468
200	0xbbe154f0	-0.0068765804
201	0xbd2a7e58	-0.041624397
202	0xbdaa7dfd	-0.083248116
203	0x3c8ba7ae	0.01704773
204	0xbc42efaf	-0.011897965
205	0xbd9416dc	-0.072309226
206	0xbd1eb6e9	-0.038748655
207	0xbd45682f	-0.04819506
208	0x3d3fbe36	0.04681226
209	0xbc4f7039	-0.012661033
210	0x3cd29c35	0.025709251
211	0xbd6b4514	-0.057438925
212	0x3ca1ae7b	0.01973652
213	0x3d3e50bc	0.046463713
214	0x3d9b11ed	0.075717784
215	0x3d5a811b	0.05334578
216	0xbd853131	-0.06503523
217	0xbd2238bc	-0.039604887
218	0x3da22b08	0.07918364
219	0xbd21c54c	-0.039494798
220	0xbd714c02	-0.058910377
221	0x3d184f9a	0.03718529
222	0xbd8df570	-0.06931579
223	0x3d8a1aec	0.06743416
224	0xbcb8ffd7	-0.022582931
225	0xbd0233d1	-0.031787697
226	0x3d2e9dae	0.042630844
227	0xbd74da14	-0.059778288
228	0x3d91ccf0	0.07119167
229	0xbd308824	-0.043098584
230	0xbb2e4e5a	-0.0026596994
231	0xbd12c2f7	-0.035830464
232	0xbca8210f	-0.020523576
233	0x3b8f3c71	0.004371219
234	0x3c85939a	0.016305733
235	0xbd255e01	-0.040372852
236	0xbda1b2f8	-0.07895464
237	0xbbfa0163	-0.00762956
238	0x3befe203	0.007320644
239	0xbc2ae476	-0.010430446
240	0x3cda5e45	0.02665628
241	0xbb7f4c86	-0.0038955524
242	0x3cb48fb8	0.022041187
243	0x3da37417	0.07981127
244	0xbd17e21b	-0.037080865
245	0xbcbcf9c7	-0.023068322
246	0xbd50d43a	-0.050983645
247	0xbc12725b	-0.008938397
248	0xbdac63de	-0.08417486
249	0x3c2eb33c	0.01066285
250	0xbcd39b73	-0.02583096
251	0x3d920071	0.071289904
252	0x3d6a747e	0.05724
253	0x3d90fea7	0.07079821
254	0xbc48affb	-0.012248988
255	0xbd1a7ade	-0.03771483

fc3.bias f4 [128]
0	0x3d16a969	0.036782656
1	0x3c84e784	0.016223677
2	0x3bcf08f9	0.0063182083
3	0xbd7b6c45	-0.06138255
4	0xbd6a29f6	-0.057168923
5	0x3d40401c	0.04693614
6	0x3d0981ec	0.03357117
7	0x3ca92583	0.02064777
8	0x3cf7d0a2	0.030250851
9	0x3cde8cc8	0.02716674
10	0x3d1d00d7	0.03833088
11	0xbd6ff1a3	-0.058580052
12	0x3d173b70	0.03692192
13	0x3cfe9e45	0.031081328
14	0x3a463be3	0.00075620244
15	0x3ae32a4a	0.0017331329
16	0xbacc081a	-0.0015566379
17	0x3d1e90a1	0.038712148
18	0x3d1f2281	0.038851265
19	0x3d96a514	0.07355705
20	0xbc0ac0c8	-0.008468814
21	0x3c815e0c	0.015791915
22	0x3cb5d2a9	0.022195177
23	0xbcb2620e	-0.021775272
24	0xbccf58c7	-0.025310887
25	0x3cde28a7	0.027118994
26	0x3d49dcd1	0.049282853
27	0x3cda6653	0.02666012
28	0xbcdc48a0	-0.026890099
29	0x3c823aac	0.015897118
30	0xbd867f43	-0.06567242
31	0xbce1ca8d	-0.027562404
32	0x3a767390	0.00094013754
33	0x3cb4e41d	0.02208143
34	0x3b5314ad	0.0032208369
35	0x3d226c40	0.039654016
36	0x3d316d4d	0.043317128
37	0x3b5892a0	0.003304638
38	0xbce3b972	-0.027798388
39	0x3d3405b7	0.043950763
40	0x3c9dcc2b	0.019262394
41	0x3da25865	0.07927016
42	0xbc9d2ad7	-0.019185467
43	0xbd274b6e	-0.04084342
44	0xbacc77d7	-0.001559968
45	0x3d9b0fb4	0.075713545
46	0x3d0faf00	0.035079002
47	0xbd238603	-0.039922725
48	0x3ce688d4	0.028141417
49	0xbd1f1374	-0.03883691
50	0xbd12ab48	-0.035807878
51	0x3c8f904e	0.017524865
52	0x3c75a4d0	0.014992908
53	0xbb065fd5	-0.0020503898
54	0xbc4a9d96	-0.012366673
55	0xbcf36cc6	-0.029714953
56	0x3d52963a	0.0514128
57	0xbcca5d7b	-0.024702778
58	0xbcede19f	-0.029038249
59	0x3d934ab0	0.0719198
60	0xbd119e03	-0.035551082
61	0x3c345e52	0.011008816
62	0x3ccb9eae	0.024855938
63	0x3d2b9c60	0.041897178
64	0xbd8316ce	-0.06400834
65	0x3cacf898	0.021114632
66	0x3d7610fd	0.060074795
67	0x37a38f4c	1.9497842e-05
68	0x3cc5a652	0.02412716
69	0xbc501e1d	-0.012702492
70	0xbd642f5c	-0.055709228
71	0xbd1ea20b	-0.038728755
72	0x3bdf5fed	0.006816855
73	0x3d74b543	0.059743177
74	0x3d2fe932	0.042947
75	0x3c1e729e	0.009670882
76	0x3d00b55c	0.031422958
77	0xbd049062	-0.032364257
78	0xbc80d05f	-0.01572436
79	0x3a82836f	0.0009957383
80	0xbd50a702	-0.05094052
81	0x3d5cef70	0.053939283
82	0xbd3ff1a5	-0.04686131
83	0x3c427f04	0.011871103
84	0xbd836974	-0.06416598
85	0xbc97a47b	-0.018511048
86	0xbd6f69f6	-0.05845066
87	0xbca63c1a	-0.02029233
88	0xbc0fbcc9	-0.008773037
89	0x3c9565ea	0.018237073
90	0x3d833fe8	0.064086735
91	0xbd293e98	-0.04131946
92	0xbd9b6876	-0.07588284
93	0xbd246c62	-0.040142424
94	0x3d1819e2	0.03713406
95	0xbd4c2e9e	-0.049849145
96	0xbd39e9e0	-0.045389056
97	0xbd226916	-0.039651
98	0xbd351606	-0.044210456
99	0xbcd6f788	-0.026241079
100	0x3d971fe8	0.073791325
101	0xbd5c4e13	-0.053785395
102	0x3d066eb7	0.03282043
103	0x3d362e57	0.044477787
104	0x3d8d3544	0.06894925
105	0xbd59a937	-0.05313989
106	0xbb98223a	-0.004642752
107	0x3d09cab6	0.033640586
108	0xbc156e87	-0.00912059
109	0x3c578a65	0.013155554
110	0xbc35f77e	-0.01110637
111	0xbd3d28e8	-0.04618159
112	0x3d1172bf	0.03550982
113	0x3ca3fd12	0.020018134
114	0xbd57d41d	-0.05269252
115	0x3d53d885	0.05172016
116	0xbd1b2e84	-0.037886158
117	0xbd5d98fc	-0.054100975
118	0xbd1421ad	-0.03616493
119	0xbcc1d803	-0.023662573
120	0x3cf438a3	0.029812163
121	0x3d87de24	0.06634167
122	0xbd642f0c	-0.05570893
123	0xbc221b2e	-0.009894175
124	0xbd7953d0	-0.060870945
125	0xbbecf7ba	-0.0072316797
126	0xbce6cd1e	-0.02817398
127	0xbcca4c23	-0.024694508

fc4.weight f4 [1, 128]
0	0xbc2853aa	-0.010273853
1	0x3abedda3	0.0014561902
2	0xbb328c74	-0.002724436
3	0x3b73fbf5	0.0037229036
4	0x3c384675	0.011247267
5	0xbbe068c8	-0.0068484284
6	0x3ad980cf	0.0016594174
7	0xba330635	-0.0006829233
8	0x3a442ce2	0.00074834947
9	0x39e0e18b	0.00042892652
10	0xbb2f05b4	-0.002670628
11	0x3b8528cf	0.0040637027
12	0x3b53e2d2	0.003233124
13	0x3a784a7d	0.0009471549
14	0x3bdf9d13	0.0068241446
15	0xbb6cb5c9	-0.0036119095
16	0xbc54d64e	-0.012990547
17	0xbc0a385b	-0.008436288
18	0x3b8137f6	0.0039434386
19	0xbb3c68ff	-0.0028749106
20	0xbb09168c	-0.002091798
21	0x3c45ac34	0.012064982
22	0x3b9eaddc	0.004842503
23	0xbc2e8202	-0.010651113
24	0x3bbb81e9	0.0057222736
25	0xbb3f558e	-0.0029195282
26	0x3b5336df	0.003222875
27	0x3bb45586	0.0055033593
28	0x3c917896	0.017757695
29	0xbb9813aa	-0.004641016
30	0x3a80373e	0.0009782088
31	0xbb3286bd	-0.0027240955
32	0xbb38ad52	-0.0028179479
33	0xba194903	-0.00058473664
34	0xba6f2b29	-0.0009123558
35	0x3a3d1527	0.000721293
36	0xbba2cf2e	-0.0049685454
37	0x3a4d588c	0.0007833324
38	0x3ba55a2b	0.0050461493
39	0x39d8a0c2	0.00041318504
40	0x3b64b225	0.0034896221
41	0xbc0f51d8	-0.00874754
42	0xb9ef482e	-0.0004563941
43	0xbc486ce1	-0.01223299
44	0xbab4a367	-0.0013781608
45	0xbc07a614	-0.008279342
46	0xb9617aa8	-0.00021503365
47	0xbc3c5699	-0.011495256
48	0xbb1b80a9	-0.002372781
49	0x3b9e6814	0.0048341844
50	0xbb990bf3	-0.004670614
51	0x3b0aaa4b	0.0021158631
52	0x3c300cdc	0.010745253
53	0xbb9e4b13	-0.004830727
54	0xbab2ee1d	-0.0013651286
55	0x3c23a02d	0.009986919
56	0x3a87f098	0.0010371385
57	0x3a823d2b	0.0009936442
58	0x3c21a8e1	0.009866924
59	0xbc1680bd	-0.009185967
60	0xbbe440ea	-0.006965746
61	0xbbfe146f	-0.0077539007
62	0xbb43ee2a	-0.0029896596
63	0x3c897733	0.016780471
64	0xbad6c5d6	-0.0016385864
65	0xbaa6f7cf	-0.0012738648
66	0xbb298ee7	-0.002587253
67	0xb9c20d84	-0.00037012633
68	0xbb1f97fd	-0.0024352067
69	0x3c0c3ec5	0.008559887
70	0xb9fe26d4	-0.00048475584
71	0x3bca0148	0.0061647035
72	0xba0e250c	-0.00054223905
73	0xbafd3aa4	-0.0019319844
74	0x3c560bbe	0.013064323
75	0x3bfb68ad	0.0076723904
76	0x3b11debb	0.0022258002
77	0xbb74497d	-0.0037275248
78	0x3b8de1b8	0.0043298863
79	0xbb904e6b	-0.0044038794
80	0x3bc68fd0	0.0060596243
81	0xbcd3fdaf	-0.025877802
82	0x3b8b18e9	0.004244913
83	0xbba6bbfd	-0.005088328
84	0xba91dd82	-0.0011128637
85	0xbc1bdd84	-0.009513263
86	0xba5963b9	-0.0008292753
87	0xbb637e1a	-0.0034712614
88	0xbb07224f	-0.0020619815
89	0xba3f5664	-0.0007298945
90	0xbbf197fa	-0.0073728533
91	0xbb496c82	-0.0030734842
92	0x3c21d334	0.009877015
93	0xbc21f3b4	-0.0098847635
94	0xbb711608	-0.0036786813
95	0xbaaed3ef	-0.0013338308
96	0x3ba41329	0.005007167
97	0xbcc2198a	-0.023693819
98	0xbafb9e71	-0.0019197
99	0xbbb01023	-0.0053730174
100	0xbb47e7c0	-0.0030503124
101	0x3c11bb2a	0.008894721
102	0xbb7580bb	-0.0037460763
103	0xb9e73cbc	-0.00044105004
104	0xbb55692e	-0.0032563913
105	0x3bd1153c	0.006380705
106	0x39e54fd9	0.00043737775
107	0x3ab28e4b	0.0013622729
108	0xbb8c8ef4	-0.0042895023
109	0xbc0fa863	-0.008768174
110	0x3c4d13ba	0.01251691
111	0xbbe1ff91	-0.006896921
112	0x3aacf859	0.0013196572
113	0x3bade0de	0.0053063473
114	0xb95bcf75	-0.00020962751
115	0xbb8f48b0	-0.0043726787
116	0xbbbb19d3	-0.0057098656
117	0xba769285	-0.00094059884
118	0xbc5a905c	-0.013340082
119	0x3b75e980	0.003752321
120	0x3c4ca19d	0.0124897035
121	0xbb846d36	-0.0040413393
122	0x3d5fc6a3	0.054632794
123	0xbb267c3e	-0.0025403644
124	0xba4063cc	-0.00073390896
125	0xba89af05	-0.001050443
126	0xbc3492de	-0.011021344
127	0xbc88a084	-0.016678102
