Unity-projects/Pro3.1_Tennis/models_v2/agent1_actor.pth (torch_old, 159206 bytes, 6 tensors)

fc1.weight f4 [256, 24]
0	0xbe2044c8	-0.15651238
1	0xbe5fefe8	-0.2186886
2	0x3d443065	0.047897715
3	0x3d504b90	0.050853312
4	0xbda1f97e	-0.07908915
5	0xbcfdbf1e	-0.03097492
6	0xbc3b7a2b	-0.011442701
7	0x3d721324	0.059100285
8	0xbe30a891	-0.17251803
9	0xbe6cd240	-0.23127079
10	0x3c81ac0c	0.015829109
11	0xbd143e27	-0.036192086
12	0xbe3ff85f	-0.1874709
13	0x3ce6fbc8	0.02819623
14	0xbdad5eb1	-0.084653266
15	0xbde36dd3	-0.11104932
16	0xbdd025ab	-0.101634346
17	0xbe4cf5be	-0.20015618
18	0xbca63607	-0.020289434
19	0xbd282af8	-0.041056603
20	0xbe869cb3	-0.26291427
21	0xbd21ade4	-0.039472476
22	0xbd401c87	-0.046902206
23	0x3b7f5d33	0.0038965463
24	0x3db34988	0.08754259
25	0x3cb90772	0.022586558
26	0x3d0ad609	0.033895526
27	0xbd2a187e	-0.041527264
28	0xbc7cd1c7	-0.015430874
29	0xbe042eec	-0.12908524
30	0xbc91768a	-0.01775672
31	0xbda3f92d	-0.08006511
32	0x3a28122c	0.0006411399
33	0xbdd7ff77	-0.10546773
34	0x3b143d4e	0.0022619548
35	0x3d0b9a74	0.034082845
36	0x3d9c98fa	0.076463655
37	0x3e1f67fc	0.1556701
38	0xbd94673e	-0.072462544
39	0x3cbfed05	0.02342845
40	0x3d05f4ed	0.032704283
41	0xbe32e203	-0.17469029
42	0x3bde9b10	0.0067933872
43	0xbcbef508	-0.0233102
44	0x3e02f201	0.1278763
45	0x3ec03406	0.3753969
46	0xbc0cdeb6	-0.00859802
47	0xbd8d8e2d	-0.069118835
48	0xbd8c54f8	-0.06852144
49	0x3d6ee159	0.058320377
50	0x3ce0019f	0.027344523
51	0x3d91d73c	0.07121131
52	0xbda79196	-0.08182065
53	0xbdee0a4a	-0.11623056
54	0x3bbb94c4	0.0057245214
55	0x3deef79e	0.11668323
56	0xbded8efe	-0.11599539
57	0x3db2caad	0.087300636
58	0x3baf76d7	0.005354743
59	0x3d96061e	0.073253855
60	0xbaca2fd6	-0.0015425633
61	0xbe6049fe	-0.21903226
62	0x3d5fc09f	0.054627057
63	0x3daf8eea	0.085721806
64	0xbe2ca014	-0.1685794
65	0x3e2f0b0c	0.17094058
66	0x3d29cea6	0.04145684
67	0x3c6ff07f	0.014644741
68	0x3daa4387	0.08313661
69	0xbec60672	-0.38676792
70	0xbc76f688	-0.015073426
71	0x3d72b095	0.059250433
72	0x3c8cee7c	0.017203562
73	0xbd1f3795	-0.038871367
74	0xbd404b2a	-0.046946682
75	0xbd2849e6	-0.0410861
76	0x3c9a5f2c	0.01884421
77	0x3dfdbee8	0.12389928
78	0x3cb294c0	0.021799445
79	0x3d3876cc	0.04503517
80	0x3d186f89	0.037215743
81	0xbe1cb640	-0.15303898
82	0xbd2cdff9	-0.042205784
83	0xbdf1b0a8	-0.11801273
84	0x3d510681	0.051031593
85	0x3ca063b6	0.019578796
86	0x3c63a06d	0.013893229
87	0xbe24ba34	-0.16086656
88	0xbc399413	-0.011326808
89	0xbdb9b433	-0.090675734
90	0x3d93307b	0.07186981
91	0xbe65be8f	-0.22435974
92	0xbd155bc9	-0.036464486
93	0xbe0c5db5	-0.13707621
94	0x3d7df03b	0.06199668
95	0xbe7192eb	-0.23591201
96	0xbd5bb0e3	-0.05363549
97	0x3d79eec8	0.061018735
98	0xbd949e56	-0.07256763
99	0x3e322cfd	0.17399974
100	0x3dc6d8e0	0.097093344
101	0x3d9a1dc6	0.0752521
102	0xbd237b22	-0.03991235
103	0x3d93f0bb	0.0722365
104	0xbd0e9176	-0.03480669
105	0x3e0a62ed	0.135143
106	0xbdf06585	-0.11738113
107	0xbda41490	-0.080117345
108	0xbc3a5504	-0.011372808
109	0x3de1662b	0.11005815
110	0xbdbcf9cd	-0.09227333
111	0xbd1d666c	-0.038427755
112	0xbdb7dff5	-0.08978263
113	0x3cd118fe	0.025524613
114	0x3bc708b0	0.0060740337
115	0x3bddfe1c	0.006774677
116	0xbc370e44	-0.011172835
117	0x3e096e0a	0.13420883
118	0x3a805166	0.0009789884
119	0xbcd869bc	-0.026417606
120	0x3e0a1c02	0.13487247
121	0xbdcde8bf	-0.100541584
122	0x3b37c631	0.0028041715
123	0x3dc77315	0.09738747
124	0xbe8fb387	-0.28066656
125	0x3d0e06c3	0.034674417
126	0x3be1a83f	0.0068865116
127	0x3d0a4923	0.033761155
128	0x3dd47a8a	0.10374935
129	0xbe110460	-0.14161825
130	0xbdb3d1ec	-0.08780274
131	0xbd677e90	-0.056517184
132	0xbe928597	-0.28617546
133	0x3dfd11d1	0.12356914
134	0x3c5cdf03	0.0134809045
135	0xbda82e89	-0.08212001
136	0x3d6e8477	0.058231797
137	0xbde58dae	-0.11208664
138	0xbd2fc79e	-0.04291498
139	0xbe0528c2	-0.13003829
140	0xbe923ce0	-0.2856207
141	0xbc18c080	-0.009323239
142	0xbd545de4	-0.051847354
143	0xbe15945f	-0.1460738
144	0x3d8d3c91	0.06896318
145	0x3c49b792	0.012311833
146	0x3dbb4236	0.09143488
147	0xbd12d2c8	-0.035845548
148	0xbe267b55	-0.16257985
149	0xbe0bd05b	-0.136537
150	0x3d7435c5	0.05962159
151	0xbdfe5675	-0.12418834
152	0x3de5e5f4	0.11225501
153	0xbd479fd6	-0.048736416
154	0x3c3bf4db	0.011471952
155	0xbdc3715b	-0.09543105
156	0xbd9dfb6d	-0.07713971
157	0x3d81f628	0.06345779
158	0x3d16bf5f	0.0368036
159	0xbc861448	-0.016367093
160	0x3c8f9158	0.01752536
161	0xbc534f4a	-0.012897322
162	0xbde60d78	-0.11233038
163	0x3e10a707	0.14126216
164	0x3bac4106	0.005256775
165	0x3e17a106	0.1480752
166	0xbcab0e4e	-0.020880844
167	0x3deddb7f	0.11614131
168	0xbd41b83d	-0.047294844
169	0x3cfaee7a	0.030631293
170	0x3c5be860	0.013422102
171	0x3c227ccf	0.009917452
172	0x3d3d6594	0.04623945
173	0x3e2e372d	0.17013235
174	0x3c9f4c97	0.0194457
175	0x3d9a7cab	0.0754331
176	0xbde5fe8b	-0.11230191
177	0x3dd7c6aa	0.10535939
178	0xbba6fc44	-0.0050959904
179	0xbdbceb46	-0.09224562
180	0x3d91b060	0.07113719
181	0x3d7c49d2	0.061593838
182	0x3d1eea7e	0.038797848
183	0xbddb1f9e	-0.1069939
184	0xbb63fc78	-0.0034787934
185	0x3d8eb2b1	0.069676764
186	0xbbb69c3c	-0.005572824
187	0x3d193f83	0.037414085
188	0x398921c0	0.00026155822
189	0x3d6f2b52	0.058390923
190	0x3d5ed207	0.054399516
191	0xbd4e0c49	-0.050304685
192	0xbcefbeb1	-0.029265733
193	0x3e473e80	0.19457436
194	0xbc17d1ee	-0.00926636
195	0xbe006e50	-0.12542081
196	0x3dfb20c2	0.122621074
197	0x3d1899b4	0.037255958
198	0x3ddf5a02	0.109058395
199	0xbe0d46c0	-0.1379652
200	0x3bb3220f	0.0054667066
201	0x3e33deb5	0.17565425
202	0x3bbb37e7	0.005713451
203	0xbe86ce4b	-0.26329264
204	0x3d84f6b4	0.064923674
205	0xbdd232d8	-0.10263604
206	0x3ddbf18c	0.10739431
207	0xbe5ee649	-0.21767534
208	0xbca75f5d	-0.020431215
209	0xbcd24ea5	-0.025672266
210	0xbd3903b3	-0.045169543
211	0xbed434e9	-0.41446617
212	0xbc83c396	-0.016084474
213	0xbdf29fbd	-0.11846874
214	0x3c27fcd1	0.010253147
215	0xbed288bd	-0.41119948
216	0xbe261f37	-0.16222845
217	0xbd12f506	-0.035878204
218	0xbcb5f32b	-0.022210678
219	0xbdc24eb3	-0.09487667
220	0xbcab5504	-0.020914562
221	0x3e288440	0.164567
222	0x3d1d9b55	0.038478214
223	0xbdc0cd73	-0.09414186
224	0xbd573d3c	-0.052548632
225	0x3cf23743	0.029567366
226	0x3c2d3b5d	0.010573235
227	0xbc1fb8f1	-0.009748683
228	0x3c3bdb8e	0.01146592
229	0x3e2073e1	0.15669204
230	0x3d95528d	0.07291136
231	0xba26e2fd	-0.00063662214
232	0xbe0dee97	-0.13860546
233	0x3c996c2c	0.018728338
234	0x39c286c7	0.0003710298
235	0xbcb1cfa7	-0.021705462
236	0x3d34e504	0.04416372
237	0x3dca096e	0.0986508
238	0xbd8f0a3f	-0.06984376
239	0xbc9bcdbd	-0.019019002
240	0xbe282c18	-0.1642307
241	0x3e06dc3c	0.1316995
242	0x3b458031	0.0030136222
243	0x3cf98a91	0.030461581
244	0x3e0cd58c	0.13753337
245	0x3b9da83c	0.004811315
246	0x3cd0aa6a	0.025471885
247	0xbd209241	-0.03920198
248	0xbccfca1e	-0.025364932
249	0x3dea06ec	0.114271015
250	0xbb31fbf0	-0.0027158223
251	0xbdd178eb	-0.102281414
252	0x3d7a0d64	0.061047927
253	0xbda9cb92	-0.08290781
254	0x3dec4fd6	0.11538665
255	0xbe1af98a	-0.15134254

fc1.bias f4 [256]
0	0x3e27b047	0.16375838
1	0xbda71a22	-0.08159281
2	0x3d20b9a7	0.039239552
3	0xbb0e3d8b	-0.0021704163
4	0xbdae8b2a	-0.08522637
5	0xbe4de972	-0.20108584
6	0x3c951d80	0.018202543
7	0x3e5c9598	0.2154144
8	0x3e2a54ac	0.16633862
9	0xbdf4a994	-0.11946407
10	0xbdfcdc3c	-0.12346694
11	0x3d50c7fd	0.050971974
12	0x3cea3308	0.028588787
13	0x3e867943	0.2626439
14	0x3da7b457	0.08188694
15	0x3e6c5756	0.23080191
16	0x3c5f6163	0.013634059
17	0xbe234a35	-0.15946276
18	0x3e0ca8ff	0.13736342
19	0x3d699471	0.05702633
20	0xbdb0b075	-0.086274065
21	0x3e477fc8	0.19482338
22	0xbe63261a	-0.22182503
23	0xbe186ef0	-0.1488607
24	0x3e3b33c4	0.18281466
25	0xbd166448	-0.03671673
26	0xbe4bfb13	-0.19919996
27	0xbd54e325	-0.051974434
28	0xbdebf710	-0.11521733
29	0xbd83605f	-0.06414866
30	0x3df5f593	0.1200973
31	0xbd194b69	-0.037425432
32	0xbdfb0c23	-0.12258174
33	0x3e7353bf	0.23762415
34	0xbd3df24c	-0.04637365
35	0x3e1df335	0.15424807
36	0x3e5d4b4d	0.21610756
37	0x3d4a0581	0.049321655
38	0xbe12532c	-0.1428954
39	0x3e0da186	0.13831148
40	0xbd8763d9	-0.06610841
41	0xbe0aabcd	-0.135421
42	0xbe0cae75	-0.13738425
43	0xbd9832f2	-0.07431592
44	0x3de38b34	0.11110535
45	0xbe477832	-0.19479445
46	0x3d09b480	0.033619404
47	0x3d060241	0.032716993
48	0xbc11d0ec	-0.0088999085
49	0x3d9ae766	0.07563667
50	0x3ec402c0	0.38283348
51	0xbe727c77	-0.23680292
52	0x3e088487	0.13331805
53	0xbdc8966b	-0.09794315
54	0x3cebc96d	0.02878257
55	0xbe2b4a63	-0.16727595
56	0xbe818fe3	-0.2530509
57	0x3de82593	0.11335292
58	0x3d33001e	0.043701284
59	0x3d1989af	0.03748482
60	0x3e2aff50	0.16698956
61	0x3d33e239	0.043916915
62	0x3cb9b4b0	0.022669166
63	0xbd71d18d	-0.059037734
64	0x3d03a9a8	0.03214422
65	0x3e533e64	0.20629269
66	0x3e84c308	0.25930047
67	0xbe710f40	-0.23540974
68	0x3e6fa86f	0.23404096
69	0xbcbf63e0	-0.023363054
70	0x3da89c9d	0.082329966
71	0xbe079a86	-0.1324254
72	0x3e65b517	0.22432362
73	0x3e078793	0.13235311
74	0xbe34bd2b	-0.17650287
75	0xbd8d2b1f	-0.0689299
76	0x3d97af17	0.074064426
77	0x3e740545	0.23830135
78	0xbd0db728	-0.0345985
79	0xbe571aa0	-0.2100625
80	0xbd80bd01	-0.0628605
81	0x3db77f18	0.08959788
82	0x3defa72a	0.11701806
83	0x3e94d222	0.2906657
84	0x3ca43d19	0.020048665
85	0x3c85de72	0.016341422
86	0x3e6c7010	0.23089623
87	0xbe1b6896	-0.15176615
88	0x3e29989d	0.16562124
89	0xbd48430b	-0.048892062
90	0x3c926f94	0.01787547
91	0x3e3f00e0	0.18652678
92	0x3d085490	0.03328377
93	0xbe2773ce	-0.1635277
94	0x3d045408	0.0323067
95	0xbccec335	-0.025239566
96	0x3e0616c4	0.13094622
97	0xbdd209db	-0.10255786
98	0xbe8740f3	-0.2641674
99	0x3e5ac0bd	0.21362586
100	0xbd56ff3b	-0.0524895
101	0x3ccc677f	0.024951695
102	0xbc7d89a1	-0.015474708
103	0xbe080992	-0.13284901
104	0x3e67a63d	0.22622009
105	0x3e4938c1	0.19650556
106	0x3e6279eb	0.2211682
107	0xbe060bc1	-0.13090421
108	0xbe07c7eb	-0.13259856
109	0xbda8f287	-0.082493834
110	0xbc49d4c3	-0.012318793
111	0x3e383bf0	0.17991614
112	0xbda0aa35	-0.078449644
113	0x3e28635a	0.1644415
114	0x3e3feded	0.18743105
115	0xbe3b5f59	-0.18298091
116	0x3e029062	0.1275039
117	0x3e2c63bc	0.1683492
118	0xbe13b3e4	-0.14424092
119	0x3b1dd95f	0.0024085862
120	0x3e543fd7	0.20727478
121	0x3df73c2a	0.12072022
122	0xbe3625b2	-0.17787817
123	0x3d81d350	0.06339133
124	0xbdf93c9d	-0.12169764
125	0x3db0b69a	0.086285785
126	0xbe698be3	-0.22807269
127	0xbe00dfbe	-0.12585351
128	0x3e25ef5a	0.16204587
129	0x3e80f561	0.2518721
130	0x3ce823a9	0.028337317
131	0xbd60e9d7	-0.054910507
132	0x3e30d469	0.17268528
133	0x3d8fe12f	0.07025372
134	0xbda83ba1	-0.08214498
135	0xbe45c727	-0.19314252
136	0x3d847302	0.064672485
137	0x3e8c35c7	0.2738478
138	0x3e079bfc	0.13243097
139	0x3e304040	0.1721201
140	0xbdfedd6f	-0.12444579
141	0xbcd7c206	-0.026337635
142	0xbe298a54	-0.16556674
143	0xbdcaccc6	-0.09902339
144	0xbdf46ee3	-0.119352125
145	0xbdc55957	-0.09636181
146	0xbe1b1637	-0.15145193
147	0xbe0848e6	-0.13309059
148	0x3e4b307d	0.19842716
149	0x3e03af54	0.12859851
150	0xbd82299a	-0.06355591
151	0xbde671e7	-0.11252194
152	0x3d1604c3	0.036625635
153	0x3e502f28	0.20330489
154	0x3e22b1c7	0.15888129
155	0x3de09e49	0.109676905
156	0xbe7a9b22	-0.24473241
157	0xbb8bf8a5	-0.004271584
158	0x3e1af89b	0.15133898
159	0xbda57e57	-0.08080738
160	0x3ce68948	0.028141633
161	0x3e0c46a6	0.13698825
162	0x3e18bfb9	0.14916886
163	0x3d55844f	0.052128132
164	0x3e02983d	0.12753387
165	0xbdd3884d	-0.10328732
166	0xbc004514	-0.0078289695
167	0xbe6f3150	-0.23358655
168	0x3d84844e	0.064705476
169	0x3dc90c80	0.09816837
170	0xbd0502ce	-0.032473378
171	0xbe0a9d93	-0.13536672
172	0xbd049c7d	-0.0323758
173	0xbd5fd451	-0.05464584
174	0x3dda6eed	0.10665689
175	0x3d85111c	0.06497404
176	0xbe167ea1	-0.14696743
177	0x3d601425	0.05470671
178	0xbe5eeb49	-0.21769442
179	0xbe05043c	-0.12989897
180	0x3d7c8474	0.061649755
181	0xbddc139a	-0.10745926
182	0xbd6d7993	-0.05797727
183	0x3e0992c1	0.13434888
184	0x3e1b7b4f	0.15183757
185	0x3bd55d43	0.006511362
186	0x3d4017fb	0.04689787
187	0x3de072bf	0.10959386
188	0x3d59a784	0.05313827
189	0x3e89c4db	0.26908
190	0x3d6f4a59	0.058420513
191	0xbd78845f	-0.060673114
192	0x3e407bcb	0.18797223
193	0xbeab8d9b	-0.33506474
194	0xbe006856	-0.12539801
195	0x3ddad1ba	0.106845334
196	0xbda6eb85	-0.081503905
197	0xbe2a6718	-0.1664089
198	0xbd8225f8	-0.06354898
199	0x3e007d10	0.12547708
200	0xbe563aaa	-0.20920816
201	0xbd87166e	-0.06596075
202	0x3dcada56	0.099049255
203	0xbebc9f52	-0.36840302
204	0x3b300507	0.0026858465
205	0xbe5bc08c	-0.2146017
206	0xba5976fe	-0.0008295624
207	0x3d896eab	0.06710561
208	0x3dd5772f	0.10423123
209	0xbe793e64	-0.24340206
210	0xbd0fd6b6	-0.035116874
211	0xbd90e23e	-0.07074402
212	0x3e6fc999	0.23416747
213	0xbd9c966b	-0.076458775
214	0x3e036585	0.12831695
215	0xbe10af27	-0.14129315
216	0x3d6281fc	0.055299744
217	0x3bf26fb9	0.0073985723
218	0x3dd0a4b6	0.10187666
219	0xbd7b0da2	-0.0612923
220	0x3d8ac49d	0.06775782
221	0x3d34f835	0.04418202
222	0x3dc10baa	0.09426053
223	0x3c1fab66	0.009745454
224	0x3e276fea	0.16351286
225	0x3ddcb32a	0.1077636
226	0x3db03fef	0.08605944
227	0x3e0e6100	0.1390419
228	0x3dbc9790	0.09208596
229	0x3e337d01	0.17528154
230	0x3c1e0645	0.009645049
231	0x3ec0b8ea	0.37641078
232	0xbd9b8568	-0.075938046
233	0xbe66061c	-0.22463268
234	0x3d5e9f82	0.054351337
235	0x3e4fd0cc	0.20294493
236	0x3e54aa0f	0.20767997
237	0x3d921b01	0.07134057
238	0x3e1071b4	0.14105874
239	0xbe2d8c4f	-0.16948055
240	0x3de7996e	0.11308561
241	0x3c46f3ee	0.012143118
242	0xbe2eda13	-0.17075376
243	0xbdf72c0a	-0.12068947
244	0x3e0f1acd	0.13975067
245	0x3d83ddeb	0.06438812
246	0xbc7424f6	-0.01490139
247	0xbe9509de	-0.2910909
248	0x3d559cd4	0.052151516
249	0x3cde8a35	0.027165512
250	0x3e00048a	0.12501732
251	0x3e5d9c92	0.21641758
252	0x3e3043a4	0.17213303
253	0x3d9a75e1	0.07542015
254	0x3daa0c41	0.083031185
255	0xbdb28710	-0.087171674

fc2.weight f4 [128, 256]
0	0x3e39cbd4	0.1814416
1	0x3dff0a80	0.124531746
2	0x3e0ea81a	0.13931313
3	0xbd8bec49	-0.06832177
4	0x3e1b2f12	0.15154675
5	0x3c9620c6	0.018326174
6	0x3ded7a69	0.115956135
7	0xbd3f224c	-0.046663567
8	0x3d0670db	0.03282247
9	0x3e21b245	0.1579066
10	0xbdc4d9f7	-0.09611886
11	0x3da27ade	0.07933591
12	0x3d2bd1ee	0.04194825
13	0xbc827d24	-0.015928812
14	0x3e49fa49	0.19724382
15	0xbbbe7e25	-0.0058133774
16	0x3c5d09d2	0.013491111
17	0xbdeab801	-0.11460877
18	0x3cb73b83	0.022367245
19	0x3ddcef32	0.107878104
20	0x3e08c46c	0.13356179
21	0x3d94248c	0.07233533
22	0xbc7ed5ec	-0.015553933
23	0x3dc2d6e2	0.09513642
24	0x3d9cf71c	0.0766432
25	0x3ebddc64	0.37082207
26	0xbcbb27b2	-0.022846077
27	0xbe15c9ee	-0.14627811
28	0x3c09eda1	0.008418472
29	0x3e07423b	0.13208859
30	0xbdf190b1	-0.11795176
31	0xbd0bc55c	-0.034123763
32	0x3eac93e9	0.33706596
33	0x3d19b78b	0.037528556
34	0xbe12d903	-0.14340596
35	0x3d1dea58	0.038553566
36	0xbd9948b0	-0.07484567
37	0xbe2da211	-0.16956355
38	0x3cad6d0a	0.021170158
39	0x3dcc93e6	0.09989147
40	0x3dfbbaf9	0.122915216
41	0x3ddad42e	0.10685001
42	0x3dcab304	0.09897426
43	0x3d918b86	0.0710669
44	0x3e40e9c1	0.1883917
45	0xbc07e5e3	-0.008294555
46	0x3e4a67af	0.19766115
47	0xbdd2a893	-0.10286059
48	0x3dba2335	0.090887465
49	0x3c20a720	0.009805471
50	0xbd852488	-0.065011084
51	0x3d365c57	0.044521656
52	0xbc1e9c00	-0.009680748
53	0x3d72a448	0.059238702
54	0x3dcfabc3	0.10140183
55	0x3ba30c0b	0.004975801
56	0x3e5c92bb	0.21540348
57	0x3d57a003	0.052642833
58	0xbcdb7cf5	-0.026792983
59	0x3d04e994	0.03244932
60	0xbbaed32a	-0.0053352313
61	0x3d15fd41	0.036618475
62	0x3ca87de7	0.020567847
63	0xbe3d3a18	-0.18479192
64	0xbcc17b59	-0.023618387
65	0x3db8913b	0.090120755
66	0xbe61c1de	-0.2204661
67	0xbd408e7b	-0.04701088
68	0x3e7e3701	0.2482567
69	0x3dc596b3	0.09647884
70	0x3d9b909c	0.075959414
71	0x3d8d0533	0.06885757
72	0x3d85162f	0.06498372
73	0xbdf9719d	-0.12179873
74	0x3d588cae	0.052868538
75	0x3e96eb36	0.29476327
76	0x3db41357	0.08792751
77	0x3e275ffb	0.16345207
78	0xbd8f3d64	-0.06994131
79	0x3d61df1b	0.05514441
80	0xbe956f8a	-0.2918666
81	0xbd29a15a	-0.041413642
82	0xbdaedf44	-0.08538678
83	0xbd9fd958	-0.07805127
84	0x3c9420e4	0.01808209
85	0xbb723ac6	-0.0036961301
86	0x3d5d1456	0.053974472
87	0xbdbda1be	-0.092593655
88	0x3d1dd5a0	0.038533807
89	0xbc5af5dd	-0.013364282
90	0x3df99ca4	0.1218808
91	0x3d543bef	0.05181497
92	0x3d83bb00	0.06432152
93	0x3dc70f10	0.0971967
94	0x3d5cbc7e	0.053890698
95	0x3d6a52a9	0.057207737
96	0xbe6bcd54	-0.23027545
97	0xbdceedf0	-0.10103977
98	0x3d8af160	0.0678432
99	0x3d9e5603	0.07731249
100	0x3d8db315	0.06918923
101	0xbac5c6b6	-0.0015089128
102	0x3cd54424	0.026033469
103	0xbd431c1b	-0.047634225
104	0x3d9f966e	0.07792364
105	0x3c616594	0.013757128
106	0xbdfa3245	-0.122166194
107	0x3cae1dce	0.021254446
108	0x3d9a21eb	0.075260006
109	0xbdf51410	-0.11966717
110	0x3cccacf8	0.024984822
111	0x3d2add42	0.041714914
112	0xbd878198	-0.06616515
113	0x3d80e477	0.06293576
114	0x3ac701d5	0.0015183041
115	0x3e0d2907	0.13785182
116	0xbc2a0b54	-0.010378677
117	0x3c9c3c4d	0.019071722
118	0xbda828f2	-0.08210935
119	0xbb588d9a	-0.0033043385
120	0xbdb63b78	-0.088980615
121	0xbcc344e6	-0.023836564
122	0xbe2f3a09	-0.17111982
123	0xbdf28d6b	-0.118433796
124	0xbd46729f	-0.048449155
125	0x3dc34808	0.09535223
126	0x3e4c400f	0.19946311
127	0x3b9cc144	0.0047837812
128	0xbc8b1a3e	-0.016980287
129	0xbd4b6e0d	-0.0496655
130	0x3de15fc6	0.110045955
131	0x3e14cb4f	0.14530681
132	0x3d90a7e5	0.07063273
133	0xbd3517c1	-0.044212107
134	0x3db61bb2	0.08892001
135	0x3ddfdf2a	0.10931237
136	0x3c5f0f7d	0.013614533
137	0xbbda7d45	-0.0066677653
138	0xbe02082e	-0.12698433
139	0x3d876a3b	0.06612059
140	0xbe959053	-0.29211673
141	0xbd6dff20	-0.058104634
142	0xbd267b24	-0.04064478
143	0x3df3f76e	0.11912428
144	0x3db8efc7	0.09030109
145	0xbcdfcc05	-0.027318964
146	0x3c6561f2	0.014000403
147	0xbda1d583	-0.07902052
148	0xbd8a5215	-0.06753937
149	0x3df98496	0.12183492
150	0x3dd8202f	0.105530135
151	0xbd849470	-0.06473625
152	0x3cf0a633	0.029376125
153	0xbdc6ff5e	-0.09716676
154	0xbe0af6f7	-0.13570772
155	0x3d80f283	0.062962554
156	0xbdcaf81e	-0.09910606
157	0x3d058cb4	0.032604888
158	0x3ce24d06	0.027624618
159	0xbd2f7af5	-0.04284187
160	0xbcec1995	-0.028820792
161	0x3d096395	0.033542234
162	0xbe9216d4	-0.2853304
163	0xbdfe78fa	-0.12425418
164	0x3d2c855b	0.042119365
165	0x3ca69dd9	0.02033894
166	0xbdfaadaa	-0.12240155
167	0x3e15c38d	0.14625378
168	0xbdc32f14	-0.09530464
169	0xbac340e5	-0.0014896659
170	0xbdb5dbcf	-0.08879816
171	0x3d6749c7	0.056466844
172	0x3e36a506	0.17836389
173	0x3d7cd02e	0.061721973
174	0xbdd71bc2	-0.10503341
175	0x3d373265	0.044725794
176	0x3e2817f2	0.16415384
177	0x3c486007	0.012229926
178	0x3c10e481	0.008843542
179	0xbdb2c2ee	-0.08728586
180	0xbda43d2a	-0.080194786
181	0x3d8b2900	0.067949295
182	0x3de46dc4	0.11153749
183	0xbd8eaa36	-0.06966059
184	0x3cfc0437	0.030763729
185	0xbd135b3b	-0.035975676
186	0x3c255032	0.010089921
187	0x3de164b0	0.11005533
188	0x3e25789a	0.16159287
189	0x3cb5d526	0.022196364
190	0x3cd21d0a	0.025648613
191	0xbe07f983	-0.13278775
192	0xbdad708f	-0.084687345
193	0xbca26966	-0.019825649
194	0xbd932d70	-0.07186401
195	0xbdc93d70	-0.098261714
196	0x3dcb5475	0.09928218
197	0x3cb82209	0.022477167
198	0x3c2bfdcf	0.010497524
199	0x3d8e91c1	0.06961394
200	0x3d923744	0.07139447
201	0x3e1c6e52	0.15276459
202	0xbd41a017	-0.047271814
203	0x3e12d115	0.14337571
204	0xbda2d8a7	-0.079514794
205	0x3dec0e81	0.11526204
206	0xbd1eab03	-0.03873731
207	0xbdb403d9	-0.087897964
208	0xbcd743be	-0.02627742
209	0xbde82c2b	-0.11336549
210	0x3beb23e2	0.0071759084
211	0x3cd37834	0.025814153
212	0xbcb3a489	-0.021929042
213	0x3cd0bb85	0.025480041
214	0xbcc2b8dd	-0.02376979
215	0x3d64dabf	0.055872675
216	0x3e3fd900	0.18735123
217	0xbc2930d7	-0.010326586
218	0xba42d0cb	-0.0007431625
219	0x3e0ee855	0.13955815
220	0x3df3b2a9	0.11899311
221	0x3dc88c66	0.09792404
222	0xbdcd8a0c	-0.10036096
223	0xbde7c19a	-0.113162234
224	0x3debfa5f	0.11522364
225	0x3a879851	0.0010345076
226	0xbdc15a59	-0.094410606
227	0x3e155b4b	0.14585607
228	0xbd7198c9	-0.058983598
229	0xbd576611	-0.052587572
230	0xbcf0ee45	-0.02941049
231	0xbdca24d3	-0.09870305
232	0x3da0648d	0.078316785
233	0x3c2485f9	0.010041707
234	0x3d038a9b	0.032114606
235	0xbd3b1c09	-0.045681033
236	0x3dc0a270	0.094059825
237	0xbc8a48b1	-0.016880365
238	0x3df1dd0a	0.11809738
239	0x3c6a399a	0.01429596
240	0x3d89ba18	0.06724948
241	0x3db68402	0.08911897
242	0xbe3270f5	-0.17425902
243	0x3c80598f	0.015667705
244	0xbd9b809b	-0.07592889
245	0x3d05cd17	0.032666292
246	0x3dafddf8	0.08587259
247	0x3e2f3294	0.17109138
248	0x3d8abce6	0.06774311
249	0x3db251aa	0.087069824
250	0x3dbb7d63	0.09154775
251	0xbdd5c6db	-0.10438319
252	0x3e16ac83	0.14714245
253	0x3e06f2a6	0.131785
254	0xbdd81d98	-0.105525196
255	0xbcc6ab29	-0.024251537

fc2.bias f4 [128]
0	0xbd5ff56c	-0.054677412
1	0x3cb4094b	0.021977087
2	0x3d49f295	0.04930361
3	0x3d826e36	0.06368677
4	0xbd6132d6	-0.05498012
5	0x3c77b4b1	0.015118764
6	0xbd6929f8	-0.05692479
7	0x3c42da38	0.011892848
8	0xbdbd98c7	-0.092576556
9	0x3d75b3c1	0.05998588
10	0x3c6225bc	0.013802942
11	0x3c099fb2	0.008399891
12	0xbd0c264d	-0.034216214
13	0x3de95d86	0.11394791
14	0x3d7f6ea3	0.06236137
15	0xbd82452d	-0.063608505
16	0x3c141c96	0.009040019
17	0x3cb12c86	0.021627676
18	0x3d67b1dd	0.056566108
19	0x3d526660	0.051367164
20	0x3d97f2e3	0.07419374
21	0x3dd21908	0.102586806
22	0x3e0046d5	0.1252702
23	0x3d5c5931	0.053795997
24	0x3d7bbdc7	0.061460283
25	0x3d5a5b07	0.053309467
26	0x3dcb0987	0.099139266
27	0x3cfdfae6	0.031003427
28	0x3d448dc1	0.04798675
29	0x3c304912	0.010759609
30	0x3c9fceeb	0.019507846
31	0xbd214f08	-0.03938201
32	0xbd91fc50	-0.07128203
33	0x3d010121	0.031495217
34	0x3cbb7844	0.022884496
35	0xbc9e62fd	-0.01933431
36	0x3de77d58	0.11303204
37	0x3d7bf024	0.061508313
38	0x3d5e239c	0.05423318
39	0x3a1f5a30	0.00060788076
40	0x3e1a1bee	0.15049717
41	0x3c58dbbc	0.0132359825
42	0xbda52411	-0.0806352
43	0x3d5281af	0.051393207
44	0x3df0c047	0.11755424
45	0xbc150653	-0.009095746
46	0xbd203110	-0.03910929
47	0x3d837a2a	0.06419785
48	0xbcb2010c	-0.021729015
49	0x3d9da17a	0.07696815
50	0x3d5f396e	0.05449813
51	0x3d3cb0f0	0.04606718
52	0x3cd06582	0.025439028
53	0xbd03a240	-0.032137156
54	0x3dc26c58	0.09493321
55	0xbc0abc20	-0.008467704
56	0x3e007e50	0.12548184
57	0x3d096682	0.033545025
58	0x3dc4808b	0.0959483
59	0x3dd68db4	0.104762465
60	0x3d186909	0.037209544
61	0x3dc4ef98	0.096160114
62	0xbd8ba5d6	-0.0681874
63	0x3cca510b	0.024696847
64	0x3d225db0	0.03964013
65	0xba5bcca9	-0.0008384684
66	0x3d3d0612	0.046148367
67	0x3db7068f	0.08936798
68	0x3d971cdc	0.07378551
69	0x3dbd74c5	0.09250788
70	0xbd9b8c83	-0.0759516
71	0x3dee0a41	0.116230495
72	0x3d97ed75	0.07418338
73	0xbc9ad581	-0.018900635
74	0x3cabdfeb	0.020980796
75	0x3dd52617	0.10407656
76	0xbc178f34	-0.009250451
77	0x3d957b5c	0.072989196
78	0xbc38cb75	-0.011278977
79	0x3e00ba67	0.12571107
80	0xbc9aad2b	-0.018881401
81	0x3e088c80	0.13334846
82	0x3e01a459	0.1266035
83	0x3d067ad0	0.032831967
84	0xbd8eb54f	-0.069681756
85	0x3e03f4d8	0.12886369
86	0x3d9ddf91	0.077086575
87	0x3c37ec4a	0.011225769
88	0xbcff9cad	-0.031202639
89	0xbcb561b8	-0.022141322
90	0xbc58cf74	-0.013233054
91	0x3d3489e0	0.0440768
92	0x3d15a038	0.03652975
93	0xbd7e4ce2	-0.06208504
94	0x3d48f3b2	0.04906053
95	0xbd7b9b1f	-0.061427232
96	0xbd3dc16a	-0.046327032
97	0xbd195b36	-0.0374405
98	0xbdb478d7	-0.08812111
99	0x3d1af079	0.03782699
100	0x3dec98c1	0.11552573
101	0x3d3aa451	0.04556686
102	0xbdc2483c	-0.09486434
103	0xbd1ea513	-0.038731646
104	0x3e3a571b	0.1819729
105	0x3d69a8b6	0.05704566
106	0x3d880feb	0.06643661
107	0x3d7d3180	0.061814785
108	0x3c967d66	0.018370342
109	0x3d9290da	0.071565345
110	0x3d32f4e7	0.04369059
111	0xbc0dbbb5	-0.00865071
112	0xbc8271cd	-0.015923405
113	0x3dd2cc59	0.102928825
114	0x3ba338dc	0.0049811434
115	0x3d896825	0.06709317
116	0x3c82eb2d	0.015981281
117	0x3e32129a	0.17389908
118	0x391456a4	0.00014146656
119	0xbd9e1ce8	-0.07720357
120	0x3d0b9cc6	0.034085058
121	0x3dce6469	0.100777455
122	0xbc9ed625	-0.019389221
123	0xbd9c0c3b	-0.0761952
124	0xbda1f276	-0.07907574
125	0x3d904e87	0.07046228
126	0xbaa8109c	-0.0012822333
127	0x3da31aee	0.07964121

fc3.weight f4 [2, 128]
0	0x3dd6dc77	0.10491269
1	0xbf26a087	-0.65088695
2	0xbebf0e8e	-0.37315792
3	0xbf120cff	-0.5705108
4	0xbf0c57fd	-0.5482176
5	0xbe347be6	-0.17625389
6	0x3dcd4534	0.10022965
7	0xbe4e01da	-0.20117894
8	0x3d434f36	0.047682963
9	0xbd2f8f15	-0.042861063
10	0x3cfe86bd	0.031070108
11	0x3db3c219	0.087772556
12	0x3d457ad5	0.048212845
13	0xbe4ff9d9	-0.20310153
14	0xbdbbcce4	-0.09169939
15	0x3dd4ed48	0.1039682
16	0x3d45ea5c	0.048319206
17	0xbe490592	-0.19631031
18	0xbd70e47f	-0.05881166
19	0xbe6d2d88	-0.231619
20	0xbd04e194	-0.03244169
21	0xbf1d29f4	-0.6139214
22	0xbe4d65fe	-0.20058438
23	0xbdabdd7b	-0.083918534
24	0xbd9b204d	-0.0757452
25	0xbed0ceaf	-0.40782687
26	0xbf311884	-0.6917803
27	0x3dd5cc87	0.10439401
28	0xbd854f1a	-0.06509228
29	0xbe1a8545	-0.15089901
30	0xbe6bb946	-0.23019895
31	0x3ce35d2c	0.027754389
32	0x3e043d54	0.1291402
33	0xbe65ec82	-0.22453502
34	0xba390c10	-0.00070589874
35	0xbddd6eeb	-0.108121715
36	0xbdeb680c	-0.11494455
37	0x3d1cea63	0.038309466
38	0xbd931c3a	-0.07183118
39	0x3d06bd91	0.03289563
40	0xbdbe0e93	-0.092801236
41	0xbda344dc	-0.07972118
42	0x3c50d76b	0.012746672
43	0xbdda5d80	-0.10662365
44	0xbe554f73	-0.20831089
45	0x3d963d21	0.07335878
46	0x3dd3810b	0.10327347
47	0xbe0d5117	-0.13800465
48	0x3d66acbe	0.056317084
49	0xbd9ffc88	-0.078118384
50	0xbe18389c	-0.14865345
51	0xbe36feb4	-0.17870599
52	0xbd3a8123	-0.04553331
53	0x3e264341	0.16236593
54	0xbd458e97	-0.048231687
55	0x3d354a16	0.044260107
56	0xbe30d7c6	-0.17269811
57	0x3eb41783	0.35174188
58	0xbec502f3	-0.38478813
59	0xbec52cee	-0.3851084
60	0x3da00037	0.07812541
61	0xbe806163	-0.250743
62	0xbc9cc56f	-0.019137112
63	0xbe6c999f	-0.23105477
64	0xbce7f73d	-0.028316135
65	0x3f0431f2	0.5163871
66	0xbddb2743	-0.10700848
67	0xbdfaa6dc	-0.12238857
68	0x3d4858b9	0.048912738
69	0xbe0e4c09	-0.13896193
70	0x3dd57914	0.104234844
71	0xbe95b37f	-0.29238507
72	0xbd6b7fbf	-0.057494875
73	0x3d9c9bf1	0.07646931
74	0x3d2ff357	0.042956676
75	0xbe075420	-0.13215685
76	0xbd9dd82f	-0.077072494
77	0xbdc94892	-0.09828295
78	0xbdeff592	-0.11716761
79	0xbdb553c3	-0.08853867
80	0xbd1ccef3	-0.0382833
81	0xbd976c9c	-0.073937625
82	0xbd33f9a2	-0.04393924
83	0xbf0129dc	-0.504545
84	0xbe3750c8	-0.1790191
85	0xbeb03a4a	-0.3441947
86	0xbf0779b4	-0.5292008
87	0xbe442282	-0.19153789
88	0x3d6fa505	0.058506984
89	0x3c43b646	0.011945313
90	0x3d7f6eab	0.0623614
91	0xbd6b0c7a	-0.057384945
92	0x3d51dd29	0.051236305
93	0x3e13af70	0.14422393
94	0x3c8c655d	0.017138178
95	0xbe2496f1	-0.16073205
96	0x3deb17be	0.11479138
97	0x3d65957b	0.05605076
98	0x3e037e7e	0.12841222
99	0xbd11e117	-0.035615053
100	0xbeebacb9	-0.46030214
101	0xbd936690	-0.071972966
102	0xbdb4419e	-0.08801578
103	0xbebefa89	-0.37300518
104	0xbed253e4	-0.41079628
105	0xbe4a59e4	-0.19760853
106	0xbe37ded1	-0.17956091
107	0xbddbfdfd	-0.10741804
108	0xbda969b0	-0.082721114
109	0xbe2cc540	-0.1687212
110	0xbe93abc5	-0.28841987
111	0xbeba3a12	-0.3637243
112	0x3ea61b81	0.3244286
113	0xbe3673db	-0.17817633
114	0x3ddad0fe	0.10684393
115	0xbe95bf33	-0.29247436
116	0x3e40c611	0.18825556
117	0xbeab7f37	-0.33495495
118	0x3e81c14f	0.25342795
119	0x3e41c904	0.18924338
120	0xbb156640	-0.0022796541
121	0xbf01f9ff	-0.5077209
122	0x3dbc4c17	0.091942005
123	0xbe0d282a	-0.13784853
124	0x3dce195c	0.10063431
125	0xbc12e18d	-0.008964908
126	0x3e24a52f	0.16078638
127	0xbeeb4955	-0.45954385
128	0x3bf234e5	0.0073915594
129	0xbd0c6510	-0.03427607
130	0x3e7438b5	0.23849757
131	0x3dcaa486	0.098946616
132	0xbe366142	-0.17810538
133	0x3e260869	0.16214146
134	0xbe88788d	-0.26654473
135	0x3d5a9cad	0.053372074
136	0xbe77d9ea	-0.24204221
137	0xbdff04f3	-0.12452116
138	0x3d8478ba	0.06468339
139	0x3cbdcac4	0.023167975
140	0x3d561f20	0.052275777
141	0x3caaddd1	0.020857723
142	0x3e3de3b3	0.18543892
143	0xbd7ed57d	-0.062215317
144	0x3d434303	0.04767133
145	0xbda5bde5	-0.0809286
146	0xbde95adc	-0.11394283
147	0x3e6378bf	0.2221403
148	0xbd90bb36	-0.07066958
149	0x3e41195b	0.18857329
150	0xbdecf064	-0.115692884
151	0xbe0c21fb	-0.13684838
152	0x3e0faa04	0.140297
153	0xbdc757dc	-0.09733555
154	0x3c27fc62	0.010253044
155	0xbcb49257	-0.022042437
156	0x3d33ef81	0.04392958
157	0x3e186159	0.14880885
158	0xbe116d8e	-0.14201948
159	0x3d7321de	0.05935847
160	0x3d5013d4	0.05080016
161	0xbd74f6e7	-0.059805777
162	0x3b1e2c9c	0.0024135476
163	0xbea607ce	-0.3242783
164	0x3bed2cd7	0.0072380113
165	0xbecd0fec	-0.4005121
166	0x3d3e73eb	0.046497267
167	0xbe784b17	-0.24247395
168	0x3cd4b4e2	0.025965158
169	0xbe6351dd	-0.22199197
170	0xbea27db3	-0.31736526
171	0x3d958d47	0.07302337
172	0x3d1cba26	0.038263462
173	0x3b8e8154	0.004348913
174	0xbd52fd5d	-0.051511157
175	0x3e53f791	0.20699908
176	0xbe5a163f	-0.21297549
177	0xbb3e2254	-0.002901216
178	0x3e1c74a7	0.15278874
179	0xbd63b575	-0.055592973
180	0xbe472118	-0.19446218
181	0x3c2bcc21	0.01048568
182	0xbd01c3b0	-0.031680763
183	0x3d34603e	0.044037096
184	0x3ddb197e	0.106982216
185	0x3e1cb424	0.15303093
186	0x3e1d6efe	0.15374371
187	0x3dba025b	0.090824805
188	0x3d136bd8	0.03599152
189	0x3be411cf	0.0069601308
190	0xbe616e83	-0.22014813
191	0xbda1736d	-0.07883344
192	0xbe752fb8	-0.23943985
193	0x3e509c2c	0.20372075
194	0xbc1671bb	-0.009182389
195	0xbe7cad51	-0.2467549
196	0x3de6552d	0.11246715
197	0x3c955ce9	0.01823278
198	0x3d0d12f6	0.03444191
199	0x3d43c09c	0.04779111
200	0x3df5fac0	0.120107174
201	0x3c622b7b	0.013804312
202	0xbb01036e	-0.0019685882
203	0x3d2000fe	0.039063446
204	0xbd2f82e5	-0.04284944
205	0x3d98d15f	0.07461809
206	0xbe834425	-0.25637928
207	0x3d977162	0.07394673
208	0xbe8cfb19	-0.27535322
209	0x3df53967	0.11973839
210	0x3e0d9231	0.13825299
211	0x3dc1883b	0.09449812
212	0xbea3f71b	-0.32024464
213	0x3d854412	0.06507124
214	0x3e831e52	0.2560907
215	0x3e2e6cbe	0.1703367
216	0x3d149781	0.036277298
217	0xbe9d1dc1	-0.30686763
218	0x3dc79522	0.09745242
219	0xbd5c4d36	-0.05378457
220	0x3c8fef7d	0.017570252
221	0x3d81031d	0.06299422
222	0xbe02f28e	-0.1278784
223	0xbeb3857f	-0.35062787
224	0x3e5241fd	0.20532985
225	0x3cb77505	0.022394666
226	0x3d625ea3	0.055266034
227	0xbda47571	-0.08030213
228	0xbc5d3618	-0.0135016665
229	0xbe8c0c09	-0.27352932
230	0xbe829040	-0.2550068
231	0xbf70860e	-0.9395455
232	0x3e29986a	0.16562048
233	0xbe81f24e	-0.25380176
234	0xbe32f4f8	-0.1747626
235	0x3b85dfbe	0.00408551
236	0xbd325a38	-0.04354307
237	0x3c8f939a	0.017526437
238	0xb9caeca6	-0.0003870476
239	0xbe110da2	-0.14165357
240	0x3ddb7d0a	0.10717209
241	0xbc4e2ffa	-0.012584681
242	0x3e3a999e	0.18222663
243	0x3ea8e48a	0.3298686
244	0xbeea9773	-0.45818672
245	0x3d5aaad8	0.053385586
246	0xbef542dd	-0.47902575
247	0x3e2a8002	0.16650394
248	0xbe26533d	-0.1624269
249	0xbf79b603	-0.9754335
250	0xbd221759	-0.039573047
251	0xbcca220e	-0.024674442
252	0x3d4381f7	0.047731366
253	0xbe33b944	-0.17551142
254	0xbe7be74c	-0.24599952
255	0xbc0e531f	-0.00868681

fc3.bias f4 [2]
0	0x3b7833d3	0.0037872687
1	0xbdcba4dd	-0.099435546
