Unity-projects/Pro3.1_Tennis/models_v2/agent2_critic.pth (torch_old, 47583 bytes, 5 tensors)

fcs1.weight f4 [128, 24]
000000 87 2d 33 bd 6f 2b 08 3f 4b ba 63 3b c4 38 d7 3e
       -0.04374459 0.53191274 0.003474849 0.42035496
000010 b9 8b 47 3d 0b f8 5a be c5 49 8b bc d4 c5 c0 3e
       0.048717234 -0.21383683 -0.01700295 0.3765093
000020 2a c1 e0 3d e3 18 13 3f 2c 9f 37 3d 8c cc 36 3e
       0.10974343 0.5745985 0.044829533 0.17851466
000030 5c 03 bf 3c 23 97 f4 be 09 e2 36 bc 60 5e 07 3e
       0.023317032 -0.47771558 -0.011162289 0.13219595
000040 8e 5e 96 bd 84 84 ca 3e 1e a8 f8 bc 10 ef 2b be
       -0.073422536 0.39554226 -0.030353602 -0.16790414
000050 9b 8e 2e be 17 2c 28 bf d9 7d 0e be c2 66 3b be
       -0.17046587 -0.65692276 -0.13915195 -0.18300918
000060 1a 84 5c bd 14 64 04 3f 74 75 89 3b 3a a0 6a be
       -0.05383692 0.5171521 0.0041949097 -0.22912684
000070 47 bc 41 3e a3 a3 f6 bd ba db df bc 1a 46 9a be
       0.18919478 -0.1204293 -0.027326453 -0.30131608
000080 18 cd 33 3b 11 6c d5 3e be b8 22 bd e6 1b 8d 3b
       0.0027435478 0.4168401 -0.039726965 0.0043063043
000090 60 f4 a7 3d 9b 92 5c 3e 9e e8 b9 3d a4 18 68 3c
       0.08200908 0.215403 0.09077571 0.014166031
0000a0 e0 6f 18 3e f2 b1 b9 3e df 41 ab 3d f0 e9 ae 3d
       0.14886427 0.36268574 0.08362173 0.08540714
0000b0 c1 d8 43 bc 2f 13 99 3e b9 a4 a6 3c 56 85 ec 3d
       -0.011953534 0.29897448 0.020342218 0.11548869
0000c0 08 14 4c 3e 23 f8 59 be 2f d3 c1 bb 14 1d bc bc
       0.19929516 -0.21286063 -0.0059150676 -0.022963084
0000d0 8c 88 66 be d1 c6 db be ab 6e 72 3c b4 e5 e8 3c
       -0.22513026 -0.42925122 0.014796893 0.028429843
0000e0 b4 93 be 3e 63 32 17 be a7 58 29 3c 93 6b 0a 3e
       0.37222064 -0.14765315 0.010336078 0.13517599
0000f0 cf 12 d8 bd cd 56 05 bf d0 19 52 3d 89 2a 2e 3e
       -0.105504625 -0.5208557 0.051294148 0.17008413
000100 ff 58 25 3e d4 bf 7d bd 34 f9 97 3d 68 b9 e2 3c
       0.1614723 -0.06195052 0.074205786 0.0276763
000110 88 66 17 be 53 f5 44 3f 5f 22 c8 3c 93 70 d7 3d
       -0.14785206 0.76936835 0.024430452 0.10519519
000120 fd f3 85 3e 89 6b 7c 3b d2 d1 6d be 9b 51 4e be
       0.2616271 0.0038516244 -0.23224571 -0.20148318
000130 7d 6c 70 3d b3 11 25 3e 17 d6 bd bd 2b 3a 32 be
       0.058697212 0.16120033 -0.0926935 -0.17405002
000140 56 c5 b4 3e 11 96 b3 3b 52 0d 25 3e a9 87 1c be
       0.35306805 0.005480536 0.16118363 -0.15286125
000150 b2 88 92 3c a0 2c 94 3d 90 ef 15 3e c1 6c 7d be
       0.017887447 0.07235074 0.14642167 -0.24748518
000160 78 70 23 3e c7 0a 98 bd fd 54 87 be 83 3c b7 be
       0.15960872 -0.074239306 -0.26432028 -0.35788354
000170 d0 f7 aa 3e 7b 5b a3 be 47 dc 98 be ff de a6 be
       0.3339219 -0.31905732 -0.29855558 -0.32592008
000180 64 ba cf 3d 20 02 0a bf bb ed 74 bd 6f 4d 4a bd
       0.10142973 -0.5390949 -0.05979703 -0.049390253
000190 73 cd 3a 3e da 9e 8c 3d 81 4e 28 bc ca c5 36 be
       0.18242435 0.06866236 -0.010272623 -0.17848888
0001a0 f6 c1 5a 3e 89 ec ba be 89 7b c4 bc 0f 97 92 be
       0.21363053 -0.36508587 -0.023984687 -0.28630874
0001b0 a9 80 85 bd 23 3f 37 be d1 ed dd bb 13 c2 96 be
       -0.065186806 -0.17895178 -0.0067727347 -0.29444942
0001c0 a0 42 08 3e 39 66 c3 be 57 81 24 3c 07 64 f6 3e
       0.13306665 -0.38163927 0.010040603 0.4812319
0001d0 79 c1 4f be 35 3f 0a bd e5 35 c3 bc 13 27 d9 3e
       -0.20288648 -0.033751685 -0.02382941 0.42412624
0001e0 48 2e 44 3e 1f 53 75 be 3b c0 6d bd 5d 9f a5 3d
       0.1915828 -0.2395749 -0.058044653 0.08087037
0001f0 cf 94 fb 3c 4e b3 91 be 8d 98 4a bd fb e2 4b 3c
       0.030710606 -0.2845711 -0.04946189 0.012444253
000200 66 0d 34 3c 77 d0 a6 be a3 b6 60 3c 83 dc 63 be
       0.010989523 -0.3258092 0.013715419 -0.22252087
000210 3b 22 55 3d af 5c 8b bd cf 33 86 bd 28 e7 99 be
       0.052034598 -0.06804787 -0.065528505 -0.3005917
000220 eb 6e 20 bc a4 c8 b1 be e7 6e 55 bd 8a 37 26 bd
       -0.00979207 -0.3472339 -0.052107718 -0.04058031
000230 50 af 0f be 17 ba aa 3e 13 a1 53 3c 5e 28 ea bc
       -0.1403172 0.333451 0.012916821 -0.028583702
000240 82 20 b3 3c 66 6f 1d 3e ec a7 30 3c ec 59 55 bd
       0.021866087 0.15374526 0.010782223 -0.05208771
000250 df 76 d5 3e 49 bd 88 3d 09 8f d0 bb a8 60 cd bd
       0.41692254 0.06676728 -0.0063647074 -0.10028201
000260 c2 d3 97 bc da 81 21 3c 0b 1e f8 bc ba 0f 2c be
       -0.018533591 0.009857619 -0.030287763 -0.16802874
000270 dc 1a 7d 3e 5b 68 9a 3d 41 4d 7d 3c 6a 84 28 be
       0.24717277 0.075394355 0.015460313 -0.16456762
000280 4a d5 d1 3d 35 3c c7 3d 46 bb 79 bd 74 48 95 ba
       0.1024576 0.097282805 -0.060969613 -0.001138939
000290 6e 1b b7 bd 62 ce c8 3e 48 33 7f 3d 71 09 1c 3d
       -0.08940779 0.39219958 0.062304765 0.03809494
0002a0 a8 6d 63 3e ee 10 34 bd b8 95 98 bd d9 9e 3b be
       0.222098 -0.043961458 -0.074504316 -0.18322314
0002b0 42 7f 8d bd 2c 2b d4 be f3 42 2d bd 8a 78 06 be
       -0.06909038 -0.41439188 -0.042300176 -0.1313192
0002c0 55 3c d6 3d 40 ac e4 bd 94 46 3e be 44 a8 1b be
       0.10460726 -0.111656666 -0.18581611 -0.15200907
0002d0 f1 e3 1b 3e bc a2 2c be 0a d9 99 bd c2 71 2b be
       0.15223671 -0.16858953 -0.075121 -0.16742614
0002e0 80 aa a0 3d 0b fb 72 bd d7 9e b0 bc fd 79 75 bd
       0.0784502 -0.059321444 -0.021560116 -0.05993079
0002f0 29 e2 8e 3e 7f 8c c2 3d 22 b5 95 bd 70 bb 08 be
       0.27906922 0.09499454 -0.07309939 -0.13352752
000300 bc 00 05 3e 5e c4 30 be 11 63 a1 bd 92 b5 a3 bc
       0.12988561 -0.17262408 -0.078802235 -0.01998404
000310 5f 02 53 3e 78 48 d7 3e 71 dc 9f 3d e2 05 98 3c
       0.20606373 0.42047477 0.07805718 0.018557493
000320 6f 02 43 3d ba f3 09 be 0e d8 f3 bd e7 06 96 be
       0.047609743 -0.1347188 -0.119064435 -0.2930214
000330 9d d8 e4 3c dd 95 28 3e a4 8c 33 bd 05 be a4 be
       0.02793532 0.16463418 -0.043835297 -0.32176223
000340 8b d6 c1 3d 82 4d 09 be 12 d7 9d bc 53 aa 08 3d
       0.09464749 -0.13408473 -0.019267593 0.03336556
000350 81 90 33 be 0c 36 0b bf e7 6c c0 3d e8 f1 93 bc
       -0.17535593 -0.54379344 0.093957715 -0.018059686
000360 59 fa a7 bd cf ec 6a 3e 82 3b ef bd b0 13 8d bc
       -0.08202047 0.22941898 -0.11681272 -0.017221302
000370 d3 b5 79 3d d5 49 f6 be d6 59 1d 3c fa 15 ca 3c
       0.060964417 -0.48103204 0.009603938 0.024668682
000380 69 7b 03 be f8 eb b3 3d 9a d1 a1 bc 40 a6 90 3e
       -0.12840046 0.08785242 -0.019753266 0.2825184
000390 64 56 b9 bd c1 83 cd 3d e0 42 6c bd 9c b4 9f 3e
       -0.09049681 0.10034896 -0.057680964 0.31192482
0003a0 cc 63 c6 bd ef 8e 71 3e 6c a9 ae bc dd dc a2 bd
       -0.096870035 0.23589681 -0.021321021 -0.079522826
0003b0 98 29 1a bc fd 3d af 3e bb 99 a8 bd f5 d3 c9 bd
       -0.009409331 0.3422698 -0.08232447 -0.09854881
0003c0 50 1f d9 bd 06 3e 63 3e a6 bb 86 3b fa e4 eb 3c
       -0.106016755 0.22191629 0.004111725 0.028795708
0003d0 92 29 33 bd 77 21 3f 3e df 81 c3 bb 11 cc a2 3d
       -0.043740816 0.1866511 -0.0059664096 0.07949079
0003e0 35 95 55 bd 6e 44 3d 3e 91 73 8f 3c af 19 75 bd
       -0.052144248 0.18483135 0.017511161 -0.059838947
0003f0 b1 1b 29 3d b8 2f 62 3e 90 0e a1 bc 6f ae e0 ba
       0.041286174 0.22088516 -0.019660264 -0.0017141829

fcs1.bias f4 [128]
000000 b4 d8 e0 3e 34 0c a8 be 96 70 df 3e eb 87 40 3c
       0.4391533 -0.3282181 0.43640584 0.011751155
000010 a0 c0 9a 3e 7d 3b 93 bd b8 a8 94 be 2b ac 6f bd
       0.30225086 -0.07189081 -0.29034972 -0.0585138
000020 02 9d 95 3d 6d 07 a3 be 03 88 89 3e 6c f3 a1 3c
       0.073053375 -0.31841603 0.2686158 0.019769393
000030 48 9c b0 3e 0e 9b 72 be de 27 2c 3e 2a 9a 9f be
       0.34494233 -0.23691961 0.16812083 -0.31172305
000040 59 84 26 3e 2a c3 f0 bd f0 8f 32 bf f2 db cd 3c
       0.16261424 -0.117559746 -0.6975088 0.025129292
000050 7f 19 02 be 5e 51 c7 3d d1 09 d1 3e 8b 59 e9 bd
       -0.12705038 0.097323164 0.40827802 -0.11394032
000060 69 b1 64 be 26 a4 10 3e 20 44 dc be 5b f0 76 3d
       -0.22333302 0.14125118 -0.43020725 0.060287815
000070 2c 1c 00 bf 75 28 0b bd 64 7c dc 3c dc 9e a5 be
       -0.50042987 -0.03397413 0.026914783 -0.32347763
000080 46 bf b2 be 58 17 ab be 6b 4a 31 bf 0b af 1d bf
       -0.34911555 -0.33416247 -0.6925418 -0.6159522
000090 53 f2 ed bd 32 5d 56 bb 22 8e f5 3e 31 1f eb be
       -0.11618485 -0.0032709357 0.4796 -0.45922235
0000a0 33 a5 3e 3f cc de 61 3e 43 e0 03 3d 9e 7b c2 be
       0.74470824 0.22057647 0.032196295 -0.37984937
0000b0 42 52 2d be bf ab a9 be e2 00 b8 bd 2a 5d 8c be
       -0.1692591 -0.33138844 -0.089845434 -0.2741483
0000c0 65 88 29 be ca e3 0a bd 16 30 a7 3e dc ec 54 3d
       -0.16555937 -0.033908643 0.32653874 0.0519837
0000d0 ff 71 95 3d b2 a2 fc 3b d2 b0 b9 be af 4a 12 be
       0.07297134 0.0077098245 -0.36267716 -0.14286302
0000e0 69 f4 2d be 68 ef cb 3d c0 e5 e1 3e 8c 7b c6 be
       -0.16987766 0.099577725 0.44120598 -0.38766134
0000f0 67 c1 4c be d0 37 84 be e3 7b 52 be b7 f9 09 bf
       -0.19995652 -0.25823832 -0.20555072 -0.5389666
000100 68 ef b6 be 65 07 3a 3e c6 95 71 3e 24 cf 06 3e
       -0.35729527 0.18166883 0.2359229 0.13164955
000110 23 66 6a 3e 55 cd 78 3e 72 40 b6 be c5 dd 5e 3e
       0.22890525 0.24297078 -0.35596043 0.21764286
000120 de fe 69 bc fa f6 df be 62 46 24 3c d7 f3 7d be
       -0.0142819565 -0.43743116 0.010026546 -0.24800049
000130 73 0d 93 3d 6b f5 38 bf e7 d0 43 bd 69 52 cf 3d
       0.071802996 -0.7224948 -0.047806647 0.1012314
000140 99 4b 3c 3d 0e 13 c5 3d b3 9c e8 3d 17 ff 46 be
       0.045970533 0.09622775 0.11358013 -0.19433247
000150 93 fb 17 3e 68 81 d0 bd f4 c5 f4 3d cb 2f 22 3e
       0.14842062 -0.10180932 0.11951819 0.15838544
000160 e8 ab 5c be 07 6a a3 be 21 fc e2 3d b1 8e b5 3e
       -0.21549952 -0.3191683 0.11083246 0.35460427
000170 5b 7e c4 3e e7 b0 62 be e0 6e 0d be 09 77 c0 be
       0.38377652 -0.22137795 -0.13811827 -0.37590817
000180 56 f4 64 3e 62 64 74 be 3c d0 ec 3d 8e 80 3c 3e
       0.22358832 -0.23866418 0.11563155 0.18408415
000190 12 5b ec bc cc 9b 78 3e c9 8d bc 3d 20 22 3e 3e
       -0.02885202 0.24278182 0.09206731 0.18567705
0001a0 3a 67 84 3d a4 5e 16 be e8 0c bc 3e 1a ed a6 3e
       0.064650014 -0.1468454 0.36728597 0.3260277
0001b0 a7 6a 2a bf 23 96 91 be b9 18 11 3e b3 f8 e1 3d
       -0.6656899 -0.28434858 0.14169587 0.11033764
0001c0 5e 1e df 3e 7a db c4 be 16 48 33 be 5e 8e 2c 3e
       0.43577856 -0.38448697 -0.17507967 0.16851184
0001d0 f8 cc ec bd 50 10 ff bc a3 ec ba be 83 d5 80 bd
       -0.11562532 -0.031135708 -0.36508664 -0.06290724
0001e0 48 69 68 bd 28 e0 1e 3d 5a fb ae bd 9e 40 3f bf
       -0.05674103 0.03878799 -0.08544035 -0.74707973
0001f0 8c 2d 89 be 8f 0d 8c be 99 43 10 3d 92 0a 1d be
       -0.26792562 -0.27354094 0.035220716 -0.15336064

fc2.weight f4 [64, 130]
000000 23 e0 80 be 19 73 be 3d 26 51 3c be 07 9f ab bd
       -0.25171003 0.09299297 -0.1839033 -0.083799414
000010 03 e4 e5 be 69 b1 bf 3b 23 19 ad 3c e3 a4 5d be
       -0.44900522 0.0058500064 0.02113015 -0.2164493
000020 13 52 cd 3c 49 60 9c be 89 6d 85 3e cc f9 f8 bd
       0.02506355 -0.3054221 0.2606013 -0.1215702
000030 04 33 cd 3e d7 f3 ba 3d c6 f0 ae 3e 60 7b 43 3e
       0.40077984 0.0912854 0.3416807 0.19090033
000040 41 97 8f be 8b 98 33 3d 0b bf 7f bd 81 6c 19 3e
       -0.28045085 0.04384665 -0.062438052 0.14982797
000050 f1 6d c8 3c 16 f3 07 3d 55 37 6f 3c 9a 7f d1 be
       0.024466487 0.03319081 0.0146005945 -0.40917665
000060 10 ea bb be 7f d2 1e be 2c 81 69 3e f0 e5 f6 bd
       -0.36702013 -0.15509985 0.22803181 -0.12055576
000070 ba c7 f7 bd 20 ad b9 be 41 65 23 bd e8 10 6c 3b
       -0.12098642 -0.36264896 -0.039891485 0.003602082
000080 aa 03 86 bf da 80 9a 3d cb ca 91 bb d7 ad 26 3c
       -1.0469868 0.07544108 -0.0044492236 0.010173283
000090 4d 63 3b bc e9 e5 2b bf bf f6 10 bf b7 c1 0c be
       -0.011437249 -0.6714769 -0.56626505 -0.13745771
0000a0 c8 79 6e 3e 30 b5 26 bf 97 03 25 3e 07 70 91 3d
       0.23288643 -0.6512022 0.1611465 0.07101446
0000b0 4e 6a de bd d7 b4 ee be c8 e0 1c 3d da a4 70 3e
       -0.1086012 -0.46622345 0.038300306 0.23500386
0000c0 10 56 29 3d de e3 af bd f1 ef 19 bd a6 40 44 3d
       0.04134184 -0.08588384 -0.03758234 0.047913216
0000d0 f6 f3 0f bf 6c f1 fc 3c 59 3d cb 3b 4a 96 47 3d
       -0.5623163 0.030876838 0.0062023816 0.04872731
0000e0 5f 96 69 be f0 77 e1 bd ac 09 0f 3d 5d cf 52 bc
       -0.22811268 -0.110092044 0.034921333 -0.012866822
0000f0 36 4a 0b 3c 2b 31 1f be 3b ef 50 3c 3d 2b a3 be
       0.00850158 -0.155461 0.0127523495 -0.31868926
000100 f3 ed 27 be 98 01 42 bf 44 5a 2d 3e e7 db 58 3e
       -0.16399364 -0.7578368 0.16928965 0.21177636
000110 25 a1 4c bd a2 83 2c bc 03 9c 0d be 59 59 cf bc
       -0.049958367 -0.010529431 -0.13829045 -0.025311159
000120 e6 c3 fb 3d 14 83 1d 3e 61 6a 3d be d0 67 85 3c
       0.12293224 0.15382034 -0.18497612 0.016284853
000130 3d ca f9 bd 94 32 27 bd dc de 96 bd 6c 7d 40 3e
       -0.12196777 -0.04081972 -0.07366726 0.18797845
000140 17 d9 d1 bc 44 f4 14 bd c6 69 5a bd d9 20 00 be
       -0.025616212 -0.036365762 -0.05332353 -0.1251253
000150 5a 7b 5c 3e 48 ec e1 3c 21 8a ce bd b3 ff 83 bd
       0.2153143 0.027578488 -0.1008494 -0.06445255
000160 77 f9 0a bf 9c 71 39 be cb be 29 bf 54 08 86 3e
       -0.54286903 -0.18109745 -0.6630675 0.2617823
000170 d4 23 f5 be 9b ed 0b 3e 58 84 23 3d 41 4e d8 3c
       -0.47878897 0.13664858 0.039921135 0.026404502
000180 12 c6 0b 3d b4 76 82 3d f3 d6 e9 be fa f2 29 bd
       0.03412444 0.06370297 -0.45671806 -0.041491486
000190 1d 8f 17 3e 74 55 f3 be bc 2e 14 3e 02 6b 4a 3e
       0.14800687 -0.47526133 0.14470953 0.19767383
0001a0 11 66 1f 3e d9 52 b2 bd 72 8a 94 3e 5c 98 ba 3d
       0.15566279 -0.08707208 0.29011875 0.091110915
0001b0 73 72 de bd 15 65 ce 3d d3 35 97 3d 5d d7 2e 3e
       -0.10861673 0.100778736 0.07383313 0.17074342
0001c0 70 7a b7 bd 79 18 81 bd b0 57 96 3e c8 97 1e bf
       -0.089589 -0.06303496 0.29363775 -0.6195035
0001d0 a6 55 f4 bd 60 fa ed 3d 66 71 6a 3e 2f 2e 24 be
       -0.11930399 0.11620021 0.2289482 -0.16033243
0001e0 6f 77 62 3e 79 c9 59 3c 35 13 ab bf af 4c dd be
       0.22115873 0.013292664 -1.3365237 -0.43222567
0001f0 1e 0e b3 bc dc ed 32 3c 12 b1 6b bb fa 0d cc bc
       -0.021857318 0.010920968 -0.0035963696 -0.024909008
000200 fa c6 89 3e bb fe 90 be bb 99 82 3e 2f a6 33 3d
       0.2690962 -0.28319344 0.25507912 0.043859657
000210 80 55 00 bd a9 6f 13 bd 12 a2 c0 3d f1 0d e8 bd
       -0.03133154 -0.03599516 0.094059125 -0.11330784
000220 59 25 83 3d c1 ff c8 bc e2 2e ec 3d 23 60 2d bd
       0.06403608 -0.024536015 0.1153238 -0.04232801
000230 f8 76 92 3d 60 cf 28 bd b8 21 00 3f 16 50 9a 3d
       0.07151598 -0.041213393 0.5005145 0.075348064
000240 d0 a8 d2 be 58 8b 4e be 37 32 27 bf 6c 48 9d bb
       -0.4114442 -0.20170343 -0.65310997 -0.004799893
000250 59 b9 9a 3d 19 88 de be 5f 59 28 be a2 8a 76 3e
       0.075548835 -0.4346321 -0.16440342 0.24076322
000260 00 d4 90 be 36 63 d5 bd 3c 31 6f be 33 47 01 3c
       -0.28286743 -0.104193136 -0.23358625 0.00789051
000270 b8 6b 57 3e 75 8d 29 be 62 35 8e 3d 94 49 ed be
       0.21037185 -0.16557868 0.06943776 -0.46345198
000280 83 0a 7b 3d 1a 16 ed bd 4f 20 54 bd 5d 72 ca be
       0.06128932 -0.11576481 -0.051788624 -0.39540377
000290 36 aa 1e 3c 30 a6 65 3e 15 27 63 3e 52 68 28 be
       0.009684136 0.22426677 0.22182877 -0.16446045
0002a0 7e 53 ba bb b5 f3 69 bc 9d ef 2d bd d3 4a 26 3e
       -0.0056862226 -0.014279296 -0.04246484 0.1623948
0002b0 64 c3 10 bf ba 77 44 3e fe e4 92 bd 8c 5a 8b 3e
       -0.5654814 0.19186297 -0.07172583 0.2721752
0002c0 d3 9a 10 3e 20 88 52 3e ef d9 74 be cd e5 0b 3e
       0.14121561 0.2055974 -0.2391126 0.13661881
0002d0 09 d5 1e 3e b3 8d 6e 3d 66 ad 1f be 5e 1d 17 be
       0.15510954 0.058240604 -0.1559349 -0.14757296
0002e0 04 f9 c1 3d 8f 7f 3a bd 79 9b 36 3e 8f 37 0c ba
       0.09471324 -0.045531806 0.17832746 -0.0005348855
0002f0 90 79 84 3d 84 51 d0 3d bf 3f 4d bc c3 93 af bd
       0.06468499 0.10171798 -0.012527405 -0.08573105
000300 7b 0b 92 bc 37 c2 87 be aa b7 7a be d0 18 56 3d
       -0.01782774 -0.26515362 -0.24484125 0.052269757
000310 a3 53 55 3d 90 81 54 bd 48 ef 5b 3d 75 33 ee bd
       0.052081715 -0.051881373 0.053694993 -0.116309084
000320 23 a5 aa 3d 05 1e 93 bd 2c 95 10 3e b2 e1 5f bf
       0.083322786 -0.0718346 0.14119405 -0.8745376
000330 2a ce 22 be 3a 88 c5 bd 80 a2 3a bc 8c 83 5f bf
       -0.15898958 -0.09645124 -0.011391282 -0.873101
000340 6a 8b cf bd bf 4f da 3e cb 27 08 3d c7 24 27 bd
       -0.10134013 0.42638966 0.033241075 -0.040806558
000350 a4 dc ae be 4a 28 f5 3d b7 1b 2b bd e9 b6 2b 3e
       -0.3415271 0.11970575 -0.041774478 0.16768993
000360 58 8e de 3d 0c 0d 0d bc 03 da 91 bd 98 2f 51 3c
       0.10866994 -0.008609068 -0.071216606 0.012767695
000370 50 63 21 be 89 67 bd 3d 77 07 a0 bc 32 b7 92 bd
       -0.15760541 0.092482634 -0.01953481 -0.07163848
000380 5b 6a 20 3d ce bc 72 3e 8e f5 60 be 7f f4 1e be
       0.03916393 0.23704836 -0.21968672 -0.15522955
000390 0d d2 7f 3e 5c 63 4f bd e1 3b 75 be a8 2c f0 be
       0.24982472 -0.050631866 -0.23948623 -0.4690907
0003a0 e0 a0 16 3e 39 75 0c be b9 92 88 bd c0 1b 2e bd
       0.14709806 -0.13716592 -0.0666861 -0.042506933
0003b0 9b 87 8d be ad 69 f3 bd ab 44 56 bc 8f 4a 16 3d
       -0.2764252 -0.118853904 -0.013077895 0.0366922
0003c0 61 a0 bf bd 1b e5 82 3e 2a bc 91 be 12 1f 9b bd
       -0.09356762 0.2556542 -0.2846387 -0.075742856
0003d0 03 00 a7 be 28 2d 7b bc 97 c4 57 3d 58 52 38 3e
       -0.32617196 -0.01533059 0.052677717 0.18000162
0003e0 47 85 aa 3d 86 00 b8 b9 57 93 5c 3e ea 3b ca bc
       0.08326202 -0.00035095605 0.2154058 -0.024686772
0003f0 27 6e a6 bf ed 9f 0c 3d b7 d1 89 bc be 2d ac bb
       -1.3002366 0.034332205 -0.016823633 -0.0052544763

fc2.bias f4 [64]
000000 71 82 b4 3c 27 5e a7 3e 06 69 2c bd 07 f3 27 3e
       0.022034856 0.3268902 -0.042092346 0.16401301
000010 fd 5f 40 bd f9 f7 06 be 9f ca a1 3e 81 5e eb 3d
       -0.04696654 -0.13180532 0.315999 0.114926346
000020 d2 38 1b 3f 82 06 6e be 56 f5 17 3e e2 e3 37 3e
       0.60633576 -0.2324467 0.14839682 0.17958024
000030 23 1c 36 be e8 8b 7b be b8 44 fa be d6 4e ac be
       -0.17784171 -0.24565089 -0.48880553 -0.33653897
000040 e5 b7 15 3e bb 35 1a bc fd 94 b4 3e 74 48 87 be
       0.14620931 -0.009412224 0.3526992 -0.26422465
000050 f5 49 08 bd ec 0b 96 be 17 c4 7d 3d 1a 7c 8a bd
       -0.033273656 -0.2930597 0.061954584 -0.06761952
000060 07 5e 17 3e c7 56 28 3e 1f fd 54 3e 33 6c ce bd
       0.14781962 0.16439353 0.20799683 -0.10079231
000070 d4 0a 6b bd c9 71 b6 3d 6d 87 6a 3e e9 9d bb 3d
       -0.057383373 0.089084215 0.22903223 0.09160978
000080 0e 06 85 bb 5e b7 93 be ba 50 35 3c 34 1f 4b 3e
       -0.0040595597 -0.28850836 0.01106661 0.19836122
000090 7f 96 04 bb 29 95 f3 3d 62 ac b2 3e 02 c3 2c be
       -0.0020231304 0.118936844 0.34897143 -0.16871265
0000a0 d4 a9 25 3c 97 0e da 3d 45 17 9e bd 33 51 dc 3e
       0.010111291 0.10647314 -0.07719282 0.430307
0000b0 72 40 ce 3d f1 48 44 be bc 8e 8a be b3 5c 47 bd
       0.10070886 -0.1916845 -0.27062023 -0.04867239
0000c0 4c 09 b1 3d f0 69 5a 3d bc db 5f be 26 82 7a bb
       0.08644351 0.053323686 -0.21861166 -0.0038224547
0000d0 55 d5 30 bd fa 1c 80 3e a2 b0 b8 be 5a fb b1 3e
       -0.0431722 0.25022107 -0.3607226 0.3476208
0000e0 1f 19 03 3f d9 53 72 3e d6 12 ad 3e 51 f5 84 bd
       0.51210207 0.23664798 0.33803433 -0.06492103
0000f0 2b 7f 4c be b6 39 11 3e 5e 2b 74 3d 88 56 88 be
       -0.19970386 0.14182171 0.05961167 -0.26628518

fc3.weight f4 [1, 64]
000000 5f ce 7f 3d fc 8d 84 3d de 49 b5 bd 01 59 8f 3d
       0.06245267 0.06472394 -0.0885198 0.06999398
000010 e8 33 0a 3f f1 3d 0e bc 8e a7 49 3d d0 5b ba 3d
       0.5398545 -0.00868176 0.04923206 0.09099543
000020 28 da cc 3d 90 d3 82 be 50 07 77 3e da 5d 8c 3d
       0.100025475 -0.25552034 0.24123883 0.06853838
000030 9d 77 46 3e b9 b7 69 be e8 64 16 be fe 61 a4 bd
       0.19381566 -0.22823991 -0.1468693 -0.08026503
000040 7e ca c6 3d 2a 73 da bd 02 d2 76 3e d7 fd fe bd
       0.09706591 -0.10666497 0.24103549 -0.1245076
000050 b6 38 fe ba 72 ee 60 be 05 69 0a 3e 1b 5c 47 bb
       -0.0019395563 -0.2196596 0.13516624 -0.003041989
000060 5b 49 1d 3e a8 f2 6e 3e 69 fa 8e 3d 03 7d 09 be
       0.15360014 0.23334754 0.06981356 -0.13426594
000070 ef 89 c6 bd 4c 2b e5 3d e8 aa 9c 3d 81 d6 8c 3f
       -0.096942775 0.11189899 0.07649785 1.1002961
000080 3f 7d 15 3e 32 65 9c bd 97 59 fd bb 66 91 7e 3f
       0.14598559 -0.07636489 -0.007731627 0.9944061
000090 c6 3e 84 3d 43 ae 61 3e 50 d1 85 3d 90 b7 b3 bd
       0.064572856 0.22039132 0.06534064 -0.08775246
0000a0 f2 90 96 bf 26 3c be 3e 7d df 1f 3e c7 ba 9f 3d
       -1.1762984 0.37155265 0.15612598 0.07799297
0000b0 80 a0 6d 3e 31 20 89 be 06 ef db bd 90 b1 9e bd
       0.23205757 -0.26782373 -0.107389495 -0.07748711
0000c0 35 a5 2f 3d 58 67 de bd 33 d2 45 be a0 d2 01 bc
       0.042882163 -0.10859555 -0.19318466 -0.007923752
0000d0 cc 5e 43 3c 02 10 01 3e 2b 9e 7b be 39 fa 57 3d
       0.011924457 0.12603763 -0.24572055 0.052728865
0000e0 6b 09 9e 3d 28 c7 82 3d e5 0b 95 3d d3 e7 69 bf
       0.0771664 0.06385642 0.07277659 -0.9136936
0000f0 a7 2f c8 be 7b f1 aa 3d 12 07 bc 3d 4d 2d 27 be
       -0.39098856 0.0834684 0.09181036 -0.16325875
