Unity-projects/Pro3.1_Tennis/models_v2/agent1_critic.pth (torch_old, 47583 bytes, 5 tensors)

fcs1.weight f4 [128, 24]
0.048176244 0.08718919 0.010878435 0.26179373 0.27786356 0.42579496 -0.009599214 0.21795246
0.21784873 0.17389931 0.029005859 0.06777452 0.20815219 -0.07289219 -0.026985418 0.02145666
-0.010656435 0.10900981 0.06453397 0.028288968 -0.33452466 -0.5395114 -0.044264242 0.013183471
-0.08046783 0.17131859 -0.03583197 0.0055243955 0.072704256 -0.2652592 -0.06735415 -0.06666663
-0.055064574 0.11562261 -0.05485955 -0.038630348 -0.08612173 -0.0055985725 0.075643666 -0.028770357
0.14884657 0.1305076 0.04672477 -0.004788458 -0.057420336 0.39557615 -0.016556842 0.02529386
-0.031711373 0.3607913 -0.01902655 -0.024139537 0.20613894 -0.03842515 0.0016853081 0.027252594
0.1466537 0.3950706 -0.023811195 -0.0020710852 0.4120608 -0.59822434 0.017146554 0.032837458
0.25786427 0.48692665 0.009128436 -0.15922323 0.20038442 0.31965628 -0.040646914 -0.081704006
0.050703306 -0.3996927 -0.14002217 0.09624226 0.035438403 0.35094348 -0.0004714542 0.123677224
0.42286423 -0.30293122 -0.0042010034 0.016010148 -0.18706352 -0.401927 -0.018963546 -0.07861194
0.3343558 -0.31503755 -0.0025851012 -0.16326945 -0.07629487 -0.9179352 -0.036820475 -0.13130696
-0.025831835 -0.17219062 -0.028654762 0.1227608 0.4616543 -0.26956427 0.02086903 -0.006336019
-0.07995678 -0.09851525 -0.011511628 -0.01726282 -0.13915987 -0.005832123 0.005700152 -0.025403827
-0.007600149 0.028292485 0.0058133984 -0.07402737 -0.51798666 0.11210136 -0.02805563 -0.13113113
-0.022414628 -0.056989327 -0.0041220323 0.035886142 0.45775476 -0.05028177 0.004460892 -0.032539453
-0.007893661 -0.034310453 0.0383698 0.016415125 0.07775683 -0.010697978 -0.04087447 -0.061655816
0.05158948 0.07948037 -0.035523806 0.18562163 -0.5839383 0.15729378 0.029501583 0.19761755
0.02272028 0.05987976 0.012071582 0.056885514 -0.061532896 -0.33687285 -0.0050755045 0.008689056
-0.0031665936 -0.014089269 -0.022357488 0.026711125 -0.07395386 0.13353527 0.023390548 0.030172456
0.025968986 0.06276963 -0.06894591 -0.017366147 0.4491778 0.8962267 0.054326877 0.02186741
-0.02756947 -0.136268 -0.020422412 -0.03903862 -0.32527435 -0.28521138 0.011780925 0.012866644
-0.09790481 -0.19971912 -0.052953612 -0.021949492 -0.10700633 0.25906938 0.05774196 -0.037366573
-0.09764823 -0.14469226 0.013026704 -0.06565434 0.31476578 0.21652332 -0.03851392 -0.13925219
0.12191149 -0.042396337 -0.07575705 -0.017149027 0.24468692 0.5160838 0.08110299 0.021392923
5.7117082e-05 0.10522746 -0.03127629 0.024361433 -0.064511016 0.44546127 0.043953463 -0.0043774885
0.15665609 0.17553462 -0.04626859 0.20570953 -0.2900199 -1.5312697 0.06695631 0.15428461
-0.016915303 0.20388108 -0.10217371 -0.008200511 0.15632614 -0.013791112 0.024243204 0.033688087
-0.006733775 0.18315674 -0.038028713 -0.048247434 0.079919934 -0.10015942 -0.075954415 -0.01884152
0.008510347 0.40237066 0.036191832 -0.011703679 0.1262505 0.025447428 -0.024811888 -0.030730281
-0.014104553 -0.1322332 0.0062720184 -0.09253112 0.1820531 0.5979146 -0.0038060942 -0.04183682
0.06547447 -0.14248356 0.020134602 -0.035707414 0.04155143 0.49917516 -0.017037135 0.022416912
00000000: 7454 453d 3f90 b23d 773b 323c d409 863e
00000010: 2244 8e3e cc01 da3e 0646 1dbc ee2e 5f3e
00000020: bd13 5f3e a912 323e b29d ed3c 5ecd 8a3d
00000030: d925 553e 8048 95bd 8610 ddbc e1c5 af3c
00000040: 5498 2ebc 8940 df3d 632a 843d 44be e73c
00000050: d146 abbe 6b1d 0abf 6c4e 35bd 7cff 573c
00000060: 51cc a4bd 246e 2f3e 8bc4 12bd fd05 b53b
00000070: f8e5 943d 0ed0 87be f9f0 89bd 8488 88bd
00000080: 648b 61bd 8ccb ec3d 68b4 60bd db3a 1ebd
00000090: 9760 b0bd 3b74 b7bb 11eb 9a3d d0af ebbc
000000a0: 3c6b 183e c9a3 053e 7962 3f3d 7fe8 9cbb
000000b0: 9631 6bbd f588 ca3e 37a2 87bc 1235 cf3c
000000c0: c9e3 01bd a3b9 b83e 91dd 9bbc 47c0 c5bc
000000d0: 1616 533e b163 1dbd 8ee5 dc3a d540 df3c
000000e0: 632c 163e b246 ca3e b20f c3bc 0bbb 07bb
000000f0: a2f9 d23e 3b25 19bf ee76 8c3c 9280 063d
00000100: c906 843e 734e f93e 708f 153c 6a0b 23be
00000110: 9331 4d3e fda9 a33e 617d 26bd 6e54 a7bd
00000120: 45ae 4f3d 86a4 ccbe f961 0fbe a91a c53d
00000130: dc27 113d ddae b33e 832d f7b9 7c4a fd3d
00000140: a981 d83e cd19 9bbe 92a8 89bb b727 833c
00000150: 948d 3fbe 60c9 cdbe 7059 9bbc 4cff a0bd
00000160: af30 ab3e 9a4c a1be cd6a 29bb 1b30 27be
00000170: 7c40 9cbd cdfd 6abf 11d1 16bd 5575 06be
00000180: 499d d3bc bd52 30be 64bd eabc 046a fb3d
00000190: f45d ec3e 5404 8abe 87f5 aa3c 619e cfbb
000001a0: 61c0 a3bd 5dc2 c9bd 449b 3cbc c26a 8dbc
000001b0: ed7f 0ebe 651b bfbb 57c8 ba3b b01b d0bc
000001c0: ac0a f9bb a4c5 e73c 527e be3b a99b 97bd
000001d0: c69a 04bf 6695 e53d ecd4 e5bc 3d47 06be
000001e0: e29e b7bc a46d 69bd 1d12 87bb 59fd 123d
000001f0: d55e ea3e 42f4 4dbd ad2c 923b 1748 05bd
00000200: 6a54 01bc 1e89 0cbd a729 1d3d 0379 863c
00000210: f93e 9f3d 9246 2fbc fd6b 27bd cf8a 7cbd
00000220: 7e4f 533d 9bc6 a23d 6981 11bd 9913 3e3e
00000230: fb7c 15bf 9f11 213e 4ead f13c 415c 4a3e
00000240: e11f ba3c 7b44 753d e2c7 453c c900 693d
00000250: eb09 7cbd 997a acbe 6b50 a6bb 8b5c 0e3c
00000260: a086 4fbb add6 66bc 0d27 b7bc 4ad1 da3c
00000270: 1f75 97bd 78bd 083e 899d bf3c 3a2c f73c
00000280: e9bc d43c 5d8d 803d 8333 8dbd 7343 8ebc
00000290: a2fa e53e 1d6f 653f dc85 5e3d 4823 b33c
000002a0: 5fd9 e1bc d789 0bbe e74c a7bc f6e6 1fbd
000002b0: 5c8a a6be 3a07 92be c804 413c 9ece 523c
000002c0: 5182 c8bd 2b83 4cbe e3e5 58bd 6ccf b3bc
000002d0: 2226 dbbd bea4 843e d582 6c3d b10d 19bd
000002e0: ccfb c7bd 352a 14be f56d 553c c875 86bd
000002f0: fb28 a13e 4ab8 5d3e c6c0 1dbd 2098 0ebe
00000300: bbac f93d c8a7 2dbd 8326 9bbd 1e7c 8cbc
00000310: 358f 7a3e 111e 043f 5319 a63d 3640 af3c
00000320: 0091 6f38 7f81 d73d 911b 00bd a191 c73c
00000330: 5a1e 84bd 8013 e43e 8c08 343d 0971 8fbb
00000340: 746a 203e 59bf 333e 2284 3dbd 85a5 523e
00000350: 7d7d 94be a500 c4bf 6420 893d c9fc 1d3e
00000360: f691 8abc 34c6 503e 7340 d1bd 705b 06bc
00000370: f613 203e 1ef4 61bc af99 c63c 85fc 093d
00000380: 00a7 dcbb 718d 3b3e ffc3 1bbd 1a9f 45bd
00000390: 10ad a33d 6220 cdbd fd8d 9bbd 8859 9abc
000003a0: fc6e 0b3c 8703 ce3e e33d 143d cac0 3fbc
000003b0: d047 013e 2077 d03c 4d42 cbbc 12be fbbc
000003c0: c816 67bc 2468 07be 8185 cd3b f580 bdbd
000003d0: 216c 3a3e ee10 193f aa6f 79bb 165d 2bbd
000003e0: 7b17 863d 36e7 11be 52f1 a43c f041 12bd
000003f0: d531 2a3d e393 ff3e 7691 8bbc aca3 b73c

fcs1.bias f4 [128]
0.3202405 -0.28522697 -0.3457691 0.39159688 -0.05508671 -0.56752723 -0.3041728 -0.06959339
0.13843627 -0.57953227 0.26785776 0.26237378 0.3895782 -0.5896087 -0.11215321 0.486903
-0.2102935 -0.38569483 -0.19023281 -0.338894 -0.10695796 0.22628804 0.29806188 -0.13972573
-0.14876284 0.023898024 0.104815535 0.07404322 -0.16158646 -0.53217036 -0.4830833 -0.56056964
0.2240339 -0.18347298 -0.3468423 -0.0010000697 -0.11488973 -0.11886913 0.19142185 0.21169567
0.23290245 -0.21497557 -0.065682575 -0.32859063 -0.27764362 -0.77957505 0.12600844 -0.23819336
-0.15997453 -0.10183191 -0.05748457 -0.06976066 0.029866798 0.29613286 -0.38300538 -0.21283238
0.1251851 -0.13676888 0.6032202 -0.5204406 0.0071766293 0.33730346 0.19247124 -0.19777945
-0.03499559 0.23815715 -0.16322267 0.04203553 -0.012116278 0.13302526 -0.352706 -0.381334
0.07216153 -0.19678806 -0.18022373 -0.6487593 0.1608549 -0.6234361 -0.24708228 0.11801352
-0.16848591 0.14133842 0.29941475 -0.09890152 -0.001039975 -0.12949646 0.0065457956 -0.17529862
-0.23946518 -0.5626041 0.072498076 -0.013150505 -0.056950733 0.117723756 -0.28819838 -0.21670878
0.06364677 -0.7099331 0.09659483 0.051951226 -0.7836741 -0.6684161 0.11311892 -0.5345227
-0.21403414 -0.06913061 0.26315212 0.044829853 -0.15953162 -0.50049204 -0.31754455 -0.32673627
-0.2221371 -0.5598869 -0.1177318 -0.3982446 0.062705375 0.6952817 -0.5116191 0.019531723
-0.1840848 0.45273545 -0.12876429 -0.027210025 -0.23754437 -0.40763664 -0.008672105 -0.22151309
00000000: 90f6 a33e 4509 92be a608 b1be 637f c83e
00000010: 9aa2 61bd 7749 11bf 8abc 9bbe fb86 8ebd
00000020: 3dc2 0d3e 3a5c 14bf a724 893e db55 863e
00000030: cb76 c73e 99f0 16bf 95b0 e5bd 5a4b f93e
00000040: 2e57 57be cb79 c5be 64cc 42be 8483 adbe
00000050: c60c dbbd 0db8 673e 919b 983e 4314 0fbe
00000060: 4955 18be cac5 c33c 87a9 d63d f9a3 973d
00000070: ec76 25be 513c 08bf b256 f7be 7e81 0fbf
00000080: 2569 653e 57e0 3bbe 5095 b1be c514 83ba
00000090: 4f4b ebbd a971 f3bd 1704 443e c0c6 583e
000000a0: fb7d 6e3e 8e22 5cbe 9684 86bd 083d a8be
000000b0: 4e27 8ebe 3b92 47bf 5b08 013e f6e8 73be
000000c0: 5dd0 23be 408d d0bd f174 6bbd adde 8ebd
000000d0: 37ab f43c ba9e 973e 4819 c4be bbf0 59be
000000e0: 8630 003e 240d 0cbe a46c 1a3f 983b 05bf
000000f0: ee29 eb3b 0ab3 ac3e 2e17 453e b286 4abe
00000100: 8957 0fbd 78df 733e d823 27be 732d 2c3d
00000110: 5a83 46bc c637 083e e195 b4be 363e c3be
00000120: 6dc9 933d cf82 49be 928c 38be 1715 26bf
00000130: 26b7 243e 8299 1fbf 2303 7dbe 13b1 f13d
00000140: 9287 2cbe 05bb 103e e44c 993e e18c cabd
00000150: c54f 88ba b89a 04be 1d7e d63b 7b81 33be
00000160: 5c36 75be d306 10bf df79 943d 3775 57bc
00000170: 2c45 69bd 2719 f13d bd8e 93be e8e8 5dbe
00000180: 3d59 823d 2dbe 35bf 83d3 c53d cfca 543d
00000190: de9e 48bf 511d 2bbf e4aa e73d 7bd6 08bf
000001a0: c42b 5bbe 5994 8dbd e0bb 863e 829f 373d
000001b0: 425c 23be 3f20 00bf 3395 a2be fa49 a7be
000001c0: e877 63be bf54 0fbf 5f1d f1bd b7e6 cbbe
000001d0: ad6b 803d fbfd 313f 78f9 02bf fe00 a03c
000001e0: ba80 3cbe f1cc e73e c9da 03be 8fe7 debc
000001f0: d53e 73be c0b5 d0be 7215 0ebc 54d4 62be

fc2.weight f4 [64, 130]
0.58763075 0.039622854 -0.055891976 -0.3823765 -0.16682686 0.034386523 -0.23527707 -0.2642146
-0.05846466 -0.08937968 0.15019637 -0.09406771 -0.08357665 -0.4101545 0.116499 -0.019506797
0.12548791 0.04846664 -0.75841504 -1.2034987 0.48687917 -0.13282083 0.525848 0.26082605
0.36323157 -0.40110904 0.53716296 -1.2748137 -0.07254258 0.082539305 -0.24540094 -0.38018116
-0.20508039 0.041440025 -0.011319705 0.11694904 -0.107142344 -0.025816653 -0.055946395 0.23368154
-0.20655029 0.32515728 -0.1176222 -0.07013561 -0.5305908 -0.2739511 -0.05622087 -0.18830109
-0.17023887 0.22686571 -1.0593675 0.021940202 0.04679801 -0.1814701 0.15353276 0.042325206
-0.034741722 -0.13344981 -0.030364458 -0.55620265 -0.024847796 -0.00097637245 0.26940513 0.036493234
0.12567869 0.11755096 0.035271697 -0.2621564 0.099335924 -1.583675 -0.18728064 -0.3546214
-0.18778351 -1.2301631 -0.27017835 -0.23234284 -0.30505353 -0.3704511 0.05292394 -0.10345422
0.088014886 0.3617421 -0.17986153 0.26292115 0.113451675 -0.5009937 0.06434921 0.02161084
-0.04125972 -0.06018929 -0.16197617 -0.25793207 -0.22176933 0.01525289 -0.12748264 -0.38861048
0.0035825397 -0.10931205 0.24991113 -0.11290846 -0.26748163 0.15392502 0.2758004 -0.10884382
-0.030510135 0.1999978 0.0013979382 -0.08783843 -0.7957415 0.10370279 -0.6504412 0.27924848
-0.16977744 -0.7644449 -0.1186088 -0.029860377 -0.13733411 -0.27409354 0.04189116 -0.84226346
0.028230978 0.04046949 -0.55764544 -0.09732695 -0.0070730117 0.13319273 0.20476367 -0.30294025
1.0555735 -0.018471597 0.10863282 -0.032148253 0.19053693 0.08141596 0.11585138 -0.09108693
-0.029396355 -0.077456355 -0.60263443 0.03334026 -0.020452704 0.17411113 0.1315031 -0.0054706624
-0.031332888 -0.14421605 0.0059161154 -0.088104375 0.022860676 -0.03649202 -0.39558458 -0.05980136
-0.08641799 0.010716678 0.023968931 -0.0027128651 0.061002214 -0.5705425 -0.011239515 -0.19430983
-0.07517936 0.077858575 0.0741931 0.20882155 0.13064398 0.12556593 0.06527053 0.17345953
-0.011018368 -0.024905838 -0.06487455 -0.44524232 -0.12381808 0.15399319 0.14247276 -0.036991682
0.112376064 -0.049802475 0.07112736 -0.22522533 0.07890409 -0.26742935 -0.088629 0.12740682
0.07688826 -0.17730145 -0.038477488 0.3203493 0.27820647 -0.044772957 -0.25079942 -0.006725003
0.107269615 -0.2575764 -0.25512978 0.11190024 -0.0025437013 0.013354992 -0.07314002 -0.30184367
-0.037719768 -0.10667995 0.029361758 0.16015288 0.16363084 -0.32406935 -0.27677065 0.2278597
-0.29035762 0.29045945 -0.33671153 0.032099035 -0.06878014 -0.13852672 -0.06994436 0.0724753
0.13677837 0.025514962 -0.08272547 -0.4095686 0.18430795 0.11085767 -0.37514192 0.07077805
-0.064878836 -0.18131122 0.0029051865 -0.14730722 -0.1314669 0.010370982 -0.017733563 -0.16188066
0.16143304 -0.19399253 -0.30580533 -0.24519844 -0.054795038 -0.06652914 0.07503327 -0.046326518
0.03281282 0.06669478 0.012568215 -0.30408657 -0.27609363 -0.1283695 0.11910903 -0.011009427
0.03935028 -0.24216363 0.007909505 0.22482198 0.18944977 0.053565256 0.024789352 -0.069646165
00000000: f86e 163f 934b 223d fcee 64bd dac6 c3be
00000010: a9d4 2abe e2d8 0c3d 79ec 70be 2347 87be
00000020: a478 6fbd b20c b7bd 14cd 193e 92a6 c0bd
00000030: 3c2a abbd c5ff d1be 0797 ee3d b8cc 9fbc
00000040: e77f 003e f584 463d 7d27 42bf 3f0c 9abf
00000050: 3a48 f93e 2f02 08be f99d 063f fe8a 853e
00000060: 7df9 b93e 2a5e cdbe 8383 093f 182d a3bf
00000070: 3491 94bd 5e0a a93d 624a 7bbe 1ba7 c2be
00000080: 9800 52be 04bd 293d 4976 39bc fa82 ef3d
00000090: 726d dbbd 727d d3bc 0c28 65bd 374a 6f3e
000000a0: eb81 53be 047b a63e e8e3 f0bd 42a3 8fbd
000000b0: ccd4 07bf 5243 8cbe db47 66bd 00d2 40be
000000c0: 1953 2ebe 7c4f 683e 5b99 87bf f0bb b33c
000000d0: 45af 3f3d 4cd3 39be b137 1d3e 325d 2d3d
000000e0: 564d 0ebd 11a7 08be e2be f8bc 4c63 0ebf
000000f0: 9b8d cbbc 3ff3 7fba 78ef 893e ee79 153d
00000100: eab1 003e 8fbe f03d 0e79 103d 5d39 86be
00000110: a270 cb3d ddb5 cabf 7fc6 3fbe f090 b5be
00000120: 524a 40be fc75 9dbf d154 8abe 48eb 6dbe
00000130: fa2f 9cbe c4ab bdbe c6c6 583d cedf d3bd
00000140: 2641 b43d 4336 b93e 9f2d 38be 9a9d 863e
00000150: 5a59 e83d 2041 00bf 85c9 833d 3709 b13c
00000160: f4ff 28bd 0c89 76bd 15dd 25be ac0f 84be
00000170: 8017 63be 42e7 793c cf8a 02be f4f7 c6be
00000180: 0bc9 6a3b ffde dfbd b4e8 7f3e 8d3c e7bd
00000190: 5af3 88be 859e 1d3e b635 8d3e 82e9 debd
000001a0: 64f0 f9bc 39cc 4c3e 063b b73a a3e4 b3bd
000001b0: b7b5 4bbf 2162 d43d 5183 26bf a8f9 8e3e
000001c0: 23da 2dbe a9b2 43bf 2ce9 f2bd c09d f4bc
000001d0: 50a1 0cbe fd55 8cbe 1196 2b3d 949e 57bf
000001e0: a744 e73c 56c3 253d dac1 0ebf 5a53 c7bd
000001f0: b9c4 e7bb ad63 083e 91ad 513e fc1a 9bbe
00000200: 081d 873f bf51 97bc e27a de3d e3ad 03bd
00000210: 1d1c 433e 69bd a63d 7d43 ed3d c98b babd
00000220: a0d0 f0bc 70a1 9ebd 4046 1abf cc8f 083d
00000230: 6e8c a7bc 304a 323e c0a8 063e 3e43 b3bb
00000240: ea56 00bd 5fad 13be f9db c13b 1170 b4bd
00000250: 5046 bb3c a878 15bd 108a cabe 45f2 74bd
00000260: eafb b0bd 0195 2f3c 7e5a c43c 53ca 31bb
00000270: 75dd 793d 130f 12bf f125 38bc 28f9 46be
00000280: a3f7 99bd 5174 9f3d 8df2 973d 51d5 553e
00000290: 89c7 053e 5b94 003e 8eac 853d 609f 313e
000002a0: 6386 34bc 5407 ccbc f3dc 84bd cdf6 e3be
000002b0: 5594 fdbd 64b0 1d3e 61e4 113e 9784 17bd
000002c0: 6c25 e63d aefd 4bbd 39ab 913d 78a1 66be
000002d0: 7898 a13d 80ec 88be 1f83 b5bd ef76 023e
000002e0: 9877 9d3d 838e 35be 929a 1dbd d304 a43e
000002f0: 1471 8e3e d963 37bd c868 80be 6a5d dcbb
00000300: 2cb0 db3d 0ee1 83be 5fa0 82be f42b e53d
00000310: 3ab4 26bb e5ce 5a3c 6fca 95bd 418b 9abe
00000320: 0b80 1abd 057b dabd 1288 f03c 1eff 233e
00000330: d88e 273e 6bec a5be e2b4 8dbe 0e54 693e
00000340: c1a9 94be 1ab7 943e 7465 acbe 477a 033d
00000350: 9adc 8cbd f3d9 0dbe fd3e 8fbd ee6d 943d
00000360: a10f 0c3e c104 d13c f96b a9bd fab2 d1be
00000370: 39bb 3c3e 5909 e33d 9a12 c0be 15f4 903d
00000380: 32df 84bd a6a9 39be f164 3e3b b4d7 16be
00000390: 429f 06be 0deb 293c fa45 91bc 0bc4 25be
000003a0: b44e 253e faa5 46be 8492 9cbe 4d15 7bbe
000003b0: c370 60bd 6e40 88bd 0bab 993d e0c0 3dbd
000003c0: bc66 063d 4697 883d eaea 4d3c 3cb1 9bbe
000003d0: 255c 8dbe 4b73 03be 6fef f33d e260 34bc
000003e0: c22d 213d bef9 77be de96 013c bc37 663e
000003f0: 1fff 413e 3e67 5b3d 0a13 cb3c a6a2 8ebd

fc2.bias f4 [64]
0.08173216 0.8090736 -0.3036687 -0.56498736 -0.023440147 0.013194196 0.39038575 -0.18161017
0.65977985 0.19333011 0.39846382 0.025629884 -0.020679317 -0.2487201 0.38083354 -0.058528632
0.7555582 -0.30523545 0.714087 -0.06706946 -0.18225376 -0.22533405 0.13352583 -0.25510454
0.46913314 0.42895785 0.39040568 -0.013370519 -0.091553725 0.5175709 -0.6115324 0.460681
0.14936063 -0.40219975 -0.00461131 0.24983086 0.36122754 0.3543647 0.5650092 0.13515024
-0.5416928 0.24995437 0.099448 0.2584615 -0.16861767 0.0013324895 -0.4399275 0.32210273
0.5253783 0.23806298 -0.31419128 0.026969163 -0.24023718 -0.18107341 -0.5304296 -0.480559
0.54220325 -0.23854706 0.6269111 0.025424443 -0.3978256 0.4865202 0.1527628 -0.12898652
00000000: 3163 a73d 731f 4f3f 777a 9bbe 03a3 10bf
00000010: 8d05 c0bc 782c 583c a4e0 c73e 04f8 39be
00000020: 55e7 283f 54f8 453e 7303 cc3e c3f5 d13c
00000030: ac67 a9bc 7bb0 7ebe 9dfc c23e b8bb 6fbd
00000040: 436c 413f d247 9cbe 68ce 363f b75b 89bd
00000050: bba0 3abe f8bd 66be ffba 083e 109d 82be
00000060: 3832 f03e 5da0 db3e 41e3 c73e 0510 5bbc
00000070: 8580 bbbd 877f 043f 638d 1cbf 61de eb3e
00000080: fef1 183e 20ed cdbe 791a 97bb a9d3 7f3e
00000090: d1f2 b83e 4a6f b53e 71a4 103f d364 0a3e
000000a0: 61ac 0abf 0af4 7f3e 65ab cb3d 1155 843e
000000b0: 1caa 2cbe eea6 ae3a 2d3e e1be a6ea a43e
000000c0: 317f 063f c8c6 733e aedd a0be 6fee dc3c
000000d0: bc00 76be 4f6b 39be 3cca 07bf d40b f6be
000000e0: d5cd 0a3f ae45 74be 3f7d 203f ec46 d03c
000000f0: ccaf cbbe 2d19 f93e da6d 1c3e 0b15 04be

fc3.weight f4 [1, 64]
1.1044595 0.40903145 -0.6943156 -0.45188633 1.2717882 0.98710734 0.49270418 -1.2654225
0.44881514 0.77107376 0.47312087 0.6835907 0.83197 -0.48562527 0.42826363 0.013884498
0.37328312 -0.9218257 0.26716277 -0.42842007 -1.140582 -1.0063065 0.5144597 -0.8334876
0.49794278 0.51588446 0.3348415 0.0029245298 -0.71677613 0.32939023 -1.3070563 0.6256651
0.47887096 -0.22639254 -0.0022402916 0.845536 0.30297232 0.4338621 0.39873126 0.49542928
-0.48660585 0.3717502 1.1161457 0.62082094 -1.1423188 1.1725287 -0.43892807 0.49064645
0.41383496 0.57592666 -0.67565465 0.019121356 -0.5159835 -0.6961056 -0.7318495 -0.41086924
0.40384328 -0.4562024 0.4141627 0.45699996 -0.37668604 0.41142228 0.87201655 -0.8549069
00000000: ee5e 8d3f 926c d13e abbe 31bf a55d e7be
00000010: f5c9 a23f 11b3 7c3f b943 fc3e 5df9 a1bf
00000020: 19cb e53e 1765 453f e63c f23e cdff 2e3f
00000030: fcfb 543f e0a3 f8be 5f45 db3e ce7b 633c
00000040: f71e bf3e c5fc 6bbf 8fc9 883e e059 dbbe
00000050: 97fe 91bf a7ce 80bf a2b3 033f 715f 55bf
00000060: 5bf2 fe3e 0111 043f 5870 ab3e 78a9 3f3b
00000070: a47e 37bf d6a5 a83e 9f4d a7bf 972b 203f
00000080: 932e f53e 72d3 67be dbd1 12bb 0c75 583f
00000090: 301f 9b3e 2c23 de3e 8126 cc3e e8a8 fd3e
000000a0: 6724 f9be 0b56 be3e dddd 8e3f 1fee 1e3f
000000b0: 8137 92bf 6c15 963f 2ebb e0be 0336 fb3e
000000c0: 2de2 d33e ee6f 133f b4f7 2cbf 64a4 9c3c
000000d0: 7f17 04bf fa33 32bf 7d5a 3bbf 745d d2be
000000e0: 8cc4 ce3e 5c93 e9be 220d d43e e6fb e93e
000000f0: fedc c0be f1a5 d23e 7a3c 5f3f 2edb 5abf
