Unity-projects/Pro3.1_Tennis/models_v2/agent2_actor.pth (torch_old, 159206 bytes, 6 tensors)

fc1.weight f4 [256, 24]
00000000: b1de 163c 1343 fdbd 946c a23d 08b4 d2bd
00000010: effe 85bd 2f75 07be dd95 a33c 34d0 c1bd
00000020: ec88 1fbd a75f 07be 8e36 d33c 940c 7e3c
00000030: 986c 02be 1949 ecbd f6fb 98bd b71b 73bd
00000040: 51f5 b4ba 015c 3fbd 1e0c 9a3c ec3f 9fba
00000050: 4f91 0ebe 6e76 46be b5dd ffbb 5a27 333d
00000060: 850a 81bd 6dbc 26bd 51db f83c e588 4fbc
00000070: 00f9 b7bd c134 99bd 7d45 aebc 9cbb 51bd
00000080: a608 d2bd 3d1e babd 5bf6 9b3c d8f3 7e3d
00000090: ca1b e23c c261 16be 2016 64bd fc4f 533d
000000a0: 267e f4bb 35b1 4abd 176a b5bd 91eb e43d
000000b0: 6ae6 b63d 779e 7dbe 41ef d4bd e119 873d
000000c0: 9d5a 89bd 100c 40bd 51c7 923d b6f8 973d
000000d0: 139a c7bd 6025 7c3d cd00 4d3d 5a19 f53d
000000e0: dbe5 d4bd 9801 e0bc 2cca 553c 6c54 17bc
000000f0: b28e fbbb c86a 79bd c243 7f3d 15cb 533b
00000100: 9395 8dbd 6524 b53b 9cfc 843d be55 a5bd
00000110: 0808 873d b9c0 d7bd dcb7 093c 28f7 13bd
00000120: 08d4 cc3c 27c1 8b3e ee30 1dbd d0a4 3dbc
00000130: a35f 9ebd 9f10 453e 7cc9 f83c e8ab 983d
00000140: 6915 973d 0913 3f3e f4b8 673b a18b 3e3d
00000150: 3f6f a53c e3a9 3e3e 4c43 743d 422d 703b
00000160: e081 3b3b 3d67 403e 52f9 4d3d ea4c f8bd
00000170: 4e86 11bc 4b85 d83d 8288 253d ecfa 07be
00000180: a9f2 073d 40c3 4bbe aed7 4cbd 74fb e9bb
00000190: 09c7 8d3d 3af1 04be 072d 8ebc 970a dfbd
000001a0: 9f50 1c3b 614b 2dbe cb01 26bb 16db 2fbd
000001b0: 33c9 4ebd 4513 2f3d bef0 b83c e40e a3ba
000001c0: a25a 8bbd e0e7 edbd dab5 81bd a0eb d13d
000001d0: 61b5 19be ff94 d73d ff24 8cbd 25f2 8d3d
000001e0: 1d57 da3d 8435 c13e c9bc 2c3c 37c9 683e
000001f0: b79c 1ebe 879a 993e 839f 6f3c 0ba2 273e
00000200: 89bf 063e 16c2 c23e 5706 42bd 5ee5 0a3d
00000210: 2c39 79bd 956c 813e bfd5 5c3d ba23 083c
00000220: 0bf9 833d ae3a ad3e 1125 f43c 6682 9d3d
00000230: f099 a5bd 2538 d23d 2df8 aa3c 6456 793d
00000240: 2b25 cfbb 0922 42be 48c2 953d 94fd c13d
00000250: 8efb 70bd 92a8 35be 9435 293d de18 d13b
00000260: 2425 a63d 9eaf 5bbe 2737 a6bc bd6e 90bd
00000270: 484f 11bd 32db edbd 5033 a53b f5ea 0b3c
00000280: e377 9dbd 9010 58be 2fc5 bfbc 0ceb 8c3c
00000290: 0c28 4abc aade b03d dc58 8b3d 64b8 01bc
000002a0: 0b8e 0c3e dba9 64bd 0006 353c 22f2 46bd
000002b0: c964 f2bd ea81 06bd fcd9 8b3c a0cf 8a3c
000002c0: 2e5b 963d c037 f33c 37a0 e3bc c2df 783c
000002d0: ef99 e5bd 813e 58be c4f4 833c 2492 e739
000002e0: 6946 5c3e 459c cabc 92db f9ba a874 db3d
000002f0: 777a 6bbe 8192 9ebe 0cd7 6d3d 143c 9f3c
00000300: cd43 0fbd 7f01 78bb b1c7 643d 175a a4bd
00000310: 5607 0f3d 736a c43d 5d5c 323e f30a bebd
00000320: 3cc6 3e3a 047c e1bc f038 5ebb 7dee 01be
00000330: d3a3 84ba fe32 073e 524c c93d f46f a6bd
00000340: 5fcc f5bb deaa b7bd 8a7f 85bd f931 c6bd
00000350: 1158 1f3d 1255 c73d e7e9 1fbc 5f81 bfbd
00000360: b13d 2fbd 4704 503d d14f 05bd c845 05bc
00000370: b9e6 0d3e ce38 e23d f08a e63c 7277 f2bb
00000380: 0547 7f3d a56a bf3d 9116 02bd 878d 2a3c
00000390: 467a 263e 9f52 143e d67f fa3c b2ec 9f3c
000003a0: eb63 b63c d75a 1d3e 790f 073d 7bc3 b4be
000003b0: 61a0 f63d e71c 653d 258a 18bd 6163 b3be
000003c0: b828 0bbe bd1e 73bd f7e8 7dbc a1aa 443d
000003d0: be6c 683c 0396 2ebe 841c e43b e456 b1bc
000003e0: ca73 28bd 96a0 b9bd fd40 e3bd d1c4 bd3c
000003f0: 270e 47bd dc3c 0fbe 4cee e93b d922 d4bc
0.009208367 -0.12366309 0.07930866 -0.102882445 -0.06542765 -0.13228296 0.019968921 -0.0946354
-0.03894894 -0.13220082 0.02578285 0.015505929 -0.12736738 -0.1153738 -0.07469933 -0.059352603
-0.001380602 -0.0467186 0.018804606 -0.0012149788 -0.13922618 -0.19381115 -0.007808412 0.0437387
-0.063008346 -0.04070704 0.030378016 -0.012666916 -0.0898304 -0.07480765 -0.021273369 -0.05120431
-0.10255556 -0.09087799 0.01903837 0.062244266 0.027601141 -0.14685729 -0.055685163 0.05158995
-0.007461327 -0.049485404 -0.08858126 0.11177743 0.08930667 -0.24767481 -0.103971966 0.06596733
-0.06706736 -0.046886504 0.07166923 0.07420485 -0.09746184 0.06155908 0.05004959 0.11967726
-0.10395404 -0.02734451 0.01304869 -0.009236436 -0.0076769227 -0.06089285 0.06232048 0.0032317091
-0.06913295 0.00552802 0.06493494 -0.08072995 0.06593329 -0.10534806 0.008405652 -0.03612438
0.025003448 0.272958 -0.03837674 -0.011574939 -0.07733085 0.19244622 0.030369513 0.074546635
0.073771305 0.18659605 0.0035358043 0.04651988 0.020194648 0.18619494 0.05963449 0.003664807
0.0028611347 0.18789382 0.0502866 -0.12124045 -0.008882118 0.105722986 0.040413387 -0.13279313
0.033190403 -0.198987 -0.050010376 -0.0071405713 0.069227286 -0.12982646 -0.017355455 -0.10890692
0.0023851765 -0.16923286 -0.0025330659 -0.042933546 -0.050484847 0.042742986 0.022575732 -0.0012440351
-0.06804396 -0.11616492 -0.063335136 0.1025002 -0.15010597 0.105264656 -0.06842994 0.06930951
0.10661147 0.37736142 0.010543057 0.22733007 -0.1548947 0.30000708 0.014625433 0.16370408
0.13159002 0.380387 -0.047369327 0.033910148 -0.06084554 0.25278154 0.05391478 0.008309299
0.064439856 0.33833832 0.02980283 0.07690887 -0.08086002 0.10264615 0.020870293 0.060873404
-0.0063215694 -0.18958296 0.07312447 0.09472194 -0.05883365 -0.17740086 0.04131086 0.006381138
0.08112553 -0.21453711 -0.02028997 -0.07052372 -0.035476 -0.11614074 0.0050415173 0.008539905
-0.07688882 -0.21100068 -0.023409454 0.017201923 -0.0123386495 0.0863622 0.06804058 -0.007917497
0.1372606 -0.05582605 0.011048794 -0.04857076 -0.118356295 -0.03283874 0.017071716 0.016944706
0.0734161 0.02968967 -0.027786357 0.015190067 -0.11211001 -0.21117593 0.016107924 0.00044168637
0.21511234 -0.024732718 -0.001906263 0.1071561 -0.22995935 -0.3097115 0.058066413 0.019437827
-0.03497677 -0.0037842689 0.055854503 -0.08024996 0.034919105 0.09590616 0.17418046 -0.09279432
0.0007277464 -0.027524956 -0.003390845 -0.12688632 -0.0010119624 0.13203046 0.0982901 -0.08126822
-0.0075011696 -0.08968137 -0.06518467 -0.096775 0.038902346 0.09733023 -0.0097603565 -0.093508475
-0.042783443 0.05078533 -0.032546822 -0.008134313 0.13857545 0.11045991 0.028142422 -0.007399493
0.06232359 0.09346513 -0.031759802 0.010409719 0.16257581 0.14484642 0.030578535 0.019522045
0.022264441 0.15366684 0.03297374 -0.3530539 0.120423086 0.055935767 -0.03724112 -0.35036758
-0.13589752 -0.059355486 -0.015497438 0.048014287 0.014186082 -0.17049412 0.006961407 -0.021647878
-0.04112605 -0.090638325 -0.1109638 0.023165138 -0.04859748 -0.1398806 0.007139003 -0.025895523

fc1.bias f4 [256]
00000000: 46cb 6b3e 9920 9dbc bf05 d03d 14ae 58bd
00000010: 09c7 1dbd e107 debd 6aca 893e a78c 9a3d
00000020: 338e b23d d8bc a4be 3538 27be 1429 933d
00000030: 8bde ec3d 3619 573e 121a 143e 3610 1b3e
00000040: 3763 2a3e 150d e0bd 16fa b33c 961b 6c3e
00000050: 857c b9bc 2a97 1d3e 9113 31be ffb7 03be
00000060: 8cc6 153e 88d2 dd3c ec8c 81bd e8e2 04be
00000070: 4c35 92bd 69d4 df3d 54e9 a3bb 5f49 9e3d
00000080: c51b 5cbd 0261 2d3e 5fb2 5ebe 3f4d 093e
00000090: 0172 473e 4994 4c39 1ec8 37bd f70d 983d
000000a0: 1670 fb3c 9983 78bd e8dd 32be 6f5b 2ebd
000000b0: f981 7a3e 9476 59be d7ef 5c3e 056f dc3c
000000c0: 7cea a83d a90b 5a3d d77f 133e 2e7c f7bd
000000d0: 7611 263e a9ac a9bc 3023 163e 1462 a8be
000000e0: 0b08 75be c962 553e 8cf3 143e 976b e13d
000000f0: 4bec 153e fd99 043e 0746 c03b 48a9 ecbd
00000100: 0a68 ae3d 21de 623e 1180 2f3e 62f7 30be
00000110: ed1f 433e 2d03 31be 3ead 0d3e 99dc 1bbe
00000120: c522 683e 3c2e 9b3d 67fb 6fbe c0b3 223d
00000130: 2a23 eb3d b59d 2c3e 9b4f d6bd 1800 64be
00000140: 51af 00be 6ee5 0cbd 2a40 c43d d240 4b3e
00000150: d417 70bd 474f 59be 68e5 c73d 7349 5fbe
00000160: 94c8 153e 1753 86bd 96f1 07be abc5 503e
00000170: 9dee a6bc 054e 13bc a3f4 0e3e 2d62 6fbd
00000180: 83db f03d 6e6b 92bd 4174 4ebe bd86 833e
00000190: addb 77bd 4286 d33b f50f 563d 6470 85be
000001a0: 6c36 343e 4718 083d 2bbf 233e be08 41be
000001b0: 4bbf 57bd 7c95 fcbd 8688 d53d 16f4 423e
000001c0: c59c e9bd 83a2 2a3e 6447 ff3d 2fc4 7bbe
000001d0: dc8f db3d 09da e53d e74d 2bbe 9a63 3c3e
000001e0: 84d2 523e 3a22 123d 7eee 63be 4323 b1ba
000001f0: 1a32 91bc 14fe ad3d d031 18be 5c69 973d
00000200: bcfd 7b3e 91e4 253e ec8b c83d 89b4 8ebd
00000210: 5c5a 4d3e 7c32 a0bd 7d99 243e 4fa2 34be
00000220: ea86 da3d 453a 943e e46e 013e cdf9 713e
00000230: 7738 4fbe bb44 61bd 0f0f 6a3d 985e 06be
00000240: a007 8a3d c065 23bc 5d01 28be 7423 cfbd
00000250: 8a73 af3c 7b89 4a3e 77c1 0fbe 6040 51be
00000260: 574b 50bc d233 143e a063 623e a337 b13d
00000270: 3182 3dbe 6bd3 123d ac3c 3e3e d551 d0bd
00000280: 4bab 443d 3f29 e23c 7193 c43c 1609 3dbc
00000290: 1566 2a3e 4e83 3b3d 2f7b 9ebd 993a 60be
000002a0: a9ac 7e3b 0fd3 523e ee28 16be 4421 6bbc
000002b0: fc01 1bbe bab8 3e3d f80a 013e 68f0 90bc
000002c0: 0e45 6dbd 0763 9ebb 07b1 97bd 6421 12be
000002d0: db31 f1bd 8301 c9bd 81c0 50bd 4876 073e
000002e0: c241 3f3e 02b1 b43d 4d37 e03d d98f dbbc
000002f0: 179a ae3c 8040 1e3e 1ae7 3d3e 8a9d bc3d
00000300: f2ea 1a3e 924d 27be f103 b3bc a2a9 7ebd
00000310: 58f4 74bd e48a f4bd bafd 14bd 9336 0a3e
00000320: deaa e7bd c8d0 963d 0740 943d 4b52 8fbe
00000330: cf9c 383b 7fe1 15be e22d edbd 66b0 553d
00000340: f3fe 7dbb 4958 cabe dda2 2abe 06d0 0a3e
00000350: 993d 423e bc2c abbc 7c15 693c 4387 2ebe
00000360: ef4b 9d3d a8cd d1bd 4f06 9bbd ed39 883d
00000370: 71b9 5e3a f405 ec3d dc66 433e 6b89 3d3e
00000380: 8825 983e ac95 fc3d bd9b 083d 5f31 7c3e
00000390: e544 c13d 68b0 013e 524b 963c 3b6c 6a3e
000003a0: e078 39be 484f 12be 1131 cd3c 03b6 123e
000003b0: 888b 2f3e ca7b 653e 7a2e ae3c 20db a53d
000003c0: 223d 9a3d 3679 fb3d 9191 26bd fbc3 18be
000003d0: 64a5 033d 01e8 1c3d 8f96 853b ddd0 08bd
000003e0: 0690 84bd 18d1 a43c ecf5 9dbc ebfe 813e
000003f0: 4a99 cc3d de5d a03e 3672 1b3e 5768 1bbe
0.23026761 -0.019180583 0.10157346 -0.05290039 -0.038519893 -0.108413465 0.26912242 0.075463586
0.087185286 -0.32175326 -0.16330035 0.071855694 0.11565884 0.21005711 0.1446307 0.15142903
0.1663941 -0.10939995 0.021969836 0.23057398 -0.022642383 0.15389696 -0.1729262 -0.12863158
0.14626521 0.027077928 -0.06325707 -0.12977183 -0.07139072 0.10929186 -0.00500218 0.07728838
-0.05373742 0.16931537 -0.2174773 0.13408373 0.19477083 0.00019510197 -0.04486858 0.074245386
0.030693095 -0.060672376 -0.17467463 -0.042567667 0.24463643 -0.2123664 0.21575867 0.026908407
0.08247849 0.053233776 0.14404236 -0.12084232 0.16217598 -0.020712214 0.1466186 -0.32887328
-0.2392885 0.20838465 0.14546031 0.11006849 0.1464092 0.12949367 0.005867723 -0.11555725
0.085159376 0.22155048 0.17138697 -0.17281869 0.19055147 -0.17286368 0.13835618 -0.1522087
0.22669514 0.07577178 -0.23435746 0.039722204 0.114813164 0.16857035 -0.10464402 -0.22265661
-0.12566878 -0.03439849 0.09582551 0.19848946 -0.058616474 -0.21221648 0.09760553 -0.21805362
0.14627296 -0.06558817 -0.13275751 0.20387904 -0.020377452 -0.008990769 0.13960509 -0.058443237
0.117606185 -0.07149397 -0.20161535 0.25688735 -0.060512234 0.0064552138 0.05226131 -0.2606231
0.17598885 0.033226278 0.15990894 -0.18850991 -0.052672666 -0.123331994 0.104264304 0.19038424
-0.114068545 0.16663556 0.124647886 -0.24586557 0.107207984 0.112232275 -0.16728936 0.1839737
0.20588118 0.035677172 -0.22258946 -0.0013514537 -0.017724086 0.08495727 -0.14862752 0.073931426
0.2460851 0.16200472 0.09792313 -0.06968028 0.20054 -0.07822129 0.16074176 -0.17640041
0.10670264 0.28950706 0.12639958 0.23630448 -0.20236383 -0.054997187 0.057143267 -0.13122022
0.067397356 -0.00997299 -0.1640677 -0.10114184 0.021417398 0.19779007 -0.14038645 -0.20434713
-0.012713275 0.14472893 0.22108316 0.0865319 -0.18506695 0.035846155 0.18577832 -0.10171858
0.04801492 0.027607558 0.023996087 -0.011537811 0.16640504 0.04577952 -0.07738339 -0.21897353
0.0038860238 0.20588325 -0.14664051 -0.014351193 -0.15137476 0.046562888 0.1260184 -0.01769276
-0.057927184 -0.0048335823 -0.07406812 -0.1427055 -0.11777087 -0.098147415 -0.050964836 0.13228714
0.18677428 0.08822824 0.10948048 -0.02680199 0.02131371 0.15454292 0.1854519 0.09209736
0.15128687 -0.16338184 -0.021852465 -0.062173493 -0.059803337 -0.11940554 -0.036374785 0.13497381
-0.11311887 0.073640406 0.07238775 -0.27992472 0.0028169637 -0.14636801 -0.11581017 0.05217018
-0.0038756698 -0.3952048 -0.1666369 0.13555917 0.1896881 -0.020895354 0.014226314 -0.17043786
0.07680499 -0.10244304 -0.07569563 0.066516735 0.0008496261 0.11524573 0.19082206 0.18509452
0.29716134 0.12333235 0.03335165 0.24628209 0.09436969 0.1266495 0.018346462 0.22892849
-0.18112516 -0.14288056 0.02504781 0.14327244 0.1714307 0.22410503 0.021262396 0.080984354
0.075311914 0.122789785 -0.040666167 -0.1491851 0.03214015 0.038307194 0.004076786 -0.033402313
-0.06472783 0.020119235 -0.019282304 0.253898 0.09990175 0.31321615 0.15180287 -0.15176521

fc2.weight f4 [128, 256]
00000000: b5e3 703d fc5b 713d d8d9 463d ee63 ef3c
00000010: c538 f23d f73e 183e 8558 8d3d d931 76bd
00000020: 6f38 cd3d 5133 3e3e 9c9d acbd 485c d53d
00000030: f451 623d ab40 4a3c 936a fb3d 0a60 97bc
00000040: 677b c1bd f66d 7ebc c836 65bd a6a1 c73d
00000050: 4201 d23d a9e6 0a3e 9524 9abd dee4 d93d
00000060: 0b92 c23c 49e8 3bbd 65e1 66bd a885 febc
00000070: daf5 93bc 5190 fd3d 6bf7 71bd 636d aa3c
00000080: 6cad 813d b633 f33b 12be 6dbd 89d0 dabb
00000090: 7678 75bd baf5 08be e3c3 093d 6b1c 5c3e
000000a0: ed09 b43d 66df 943d 0b12 e63d 4f88 583d
000000b0: 0238 9c3d 39fa f73c 6beb 77bd 6364 6dbd
000000c0: 52ba 9dbd 01e4 ebbb d7f1 423c 999f 5f3d
000000d0: 9edc 2b3d 0371 b53d 5c03 653d 53cb bd3d
000000e0: c399 243e 3093 163e 043c b8bd 3921 dc3c
000000f0: 7752 6abd 3969 a7bb 7c25 b8bd e209 4f3d
00000100: 6ab2 18bc c1c7 f43d d82c 913c cbf5 333b
00000110: 2ea5 7c3c 748f 5c3d 7597 a8bc 1569 bbbd
00000120: dd30 b33d 7069 3b3d 27a9 883d d3e6 2cbd
00000130: 37bf 003e 30db 9f3e a0fc d8bd 9d22 a43b
00000140: c528 263c c792 e2bc 962e 93bd 26ba 9abc
00000150: 4a30 ccbc 7d8c 54bc e4ff 3fbd 6ad1 85bd
00000160: c540 c73d 38da 9ebd ff38 e0bc 8674 ca3d
00000170: 08a7 10bd 921d eb3c 6b87 2abd dac3 d03c
00000180: 8be1 0c3e b7f0 64bd 77af 8fbc 7494 103e
00000190: 1f5f aa3d 27d2 873d 9bb3 d9bc 8405 00be
000001a0: c6bd 113e 6948 023e ef7a 58bc 0f5a 833d
000001b0: de55 363d 774e a9bd 6f18 cebd a1be 023e
000001c0: 24c1 6ebc 8a84 633d 7e74 453b 2df9 8f3c
000001d0: 4480 883d 7e59 2fbe 68bb 38bd c8d4 363d
000001e0: 3742 063d 791b 453d 1ef5 f9bd 21b4 193d
000001f0: 8a0d 04be fa9f 0c3e 3fab 253d 13fa bebc
00000200: bd4a 1cbe 4352 993d 362d d43d 7ccf ac3e
00000210: 645f 923d d25b bcbb f539 7b3d 8bbc f43d
00000220: 392a 14be cf34 8f3c 5e59 423c 9715 5a3d
00000230: eb58 c5bd 4a41 463c 47df 56bd 7f1b bd3d
00000240: d940 bf3d 1005 d9ba ce3c 93bd 4974 c53c
00000250: c165 77bd 6b72 b1bc 320b 033e 873d 6abd
00000260: d726 8b3c 2e0b 70bd cbfb 54bc 38a5 c33c
00000270: 73a4 1cbe 2c3b 84bd 2417 b03d 85fe 033d
00000280: 4a75 22b8 ca1c 713d 1ed2 dfbc 82b1 f2bc
00000290: 4eb2 763d 0c63 d63c b59f a7bd 8606 17be
000002a0: d4a0 81bd 1bae 373d d45d 2c3b cc7f bdbc
000002b0: 7e26 7d3e 0724 443a f114 38bd d33b 20bc
000002c0: 9b61 cc3d 3b5c 97bd ef7d d03d 3ac6 debd
000002d0: dcf1 cdbb 9e6a 693d 3696 a83d 4a48 04bd
000002e0: 325e 673d b389 4b3d 0c00 e53c 5b74 023e
000002f0: f465 5e3d 2660 aabc 9b75 55bd 456a d3bc
00000300: 90d2 15be 7f6b 29bd dc85 823c c525 d8bc
00000310: 585c 1d3d f707 3ebc efba 293d 0b6d 023e
00000320: 38be 37bd f383 523d 7165 96bd 4830 473e
00000330: e15a 943d aced 423d 654f 8e3c 0e80 773d
00000340: 482e d13c bb66 98bd 6721 963c ff30 0d3d
00000350: f9c1 cabc dd20 643d b5e1 6fbd a98a 36bd
00000360: f631 2f3d 0b35 df3c cb92 5d3d 0ef3 8a3a
00000370: adc1 823d 9ad1 5f3d 7461 d7bd ba83 87bd
00000380: cb34 ae3d 9da2 4dbd 48b3 0abe 4dca 97bd
00000390: e401 52be 186a 6f3d 7118 963c 3da6 10be
000003a0: 3233 d33d 24d3 943c 0707 2fbd 4bb6 8c3d
000003b0: f092 fb3d 82ff 7d3c 4216 ca3d 8bc7 bcbd
000003c0: 2ac8 81bd a0b6 2d3d cc13 2abe 854f 013d
000003d0: 4b73 c2bd 64a5 043d 8169 f23d eff2 4fbd
000003e0: 720f e33d 2044 893d dd9b 743d 1f8b bfbc
000003f0: fa38 963d 3df0 de3d cbf5 9ebd ab49 26bc
0.05881091 0.058925614 0.048547596 0.029222455 0.11827234 0.14867769 0.069016494 -0.060106132
0.100205295 0.18574263 -0.08428499 0.10417992 0.055253938 0.01234452 0.12276187 -0.018478412
-0.09447365 -0.015529146 -0.055960447 0.09747629 0.10254146 0.13564552 -0.07526509 0.10639356
0.02375128 -0.04587582 -0.056367297 -0.031069592 -0.018061567 0.12381042 -0.059073847 0.020804113
0.06331906 0.007421936 -0.058042593 -0.0066776914 -0.059929334 -0.13374987 0.033634078 0.21495216
0.08790956 0.07269172 0.1123391 0.05286437 0.0762787 0.030270683 -0.060527246 -0.057957064
-0.077015534 -0.007198811 0.011898479 0.054595564 0.041958444 0.08859446 0.055911407 0.09267297
0.1607428 0.14704585 -0.08995822 0.02687131 -0.05720755 -0.005108979 -0.089915246 0.050546534
-0.009319881 0.119521625 0.017721578 0.0027459736 0.015420241 0.053847745 -0.020580033 -0.09150902
0.08749554 0.04575485 0.06672888 -0.04221232 0.12572943 0.31221914 -0.105950594 0.005009009
0.010141556 -0.02765788 -0.0718662 -0.01888759 -0.02492537 -0.012972948 -0.046874896 -0.06534083
0.09729151 -0.07756466 -0.027370928 0.09885506 -0.035315543 0.028700624 -0.04163305 0.025484014
0.13757913 -0.055893626 -0.017539723 0.1411913 0.08318924 0.0663188 -0.0265749 -0.12502104
0.14232549 0.12722935 -0.013212903 0.06413662 0.044515483 -0.08266919 -0.10063254 0.12768032
-0.0145724155 0.05554632 0.003012925 0.017574871 0.0666509 -0.17123982 -0.0451006 0.044636518
0.03277799 0.048121903 -0.122049555 0.0375253 -0.1289579 0.13732901 0.040446516 -0.023312604
-0.15262885 0.07486393 0.10360186 0.33752048 0.071471006 -0.0057482505 0.06133457 0.11950024
-0.14469232 0.017481236 0.011862127 0.053243246 -0.096361004 0.012100527 -0.052459028 0.0923376
0.093385406 -0.0016557295 -0.07189332 0.0241033 -0.060399774 -0.021661004 0.1279724 -0.057187583
0.016986294 -0.05860441 -0.012999485 0.023882493 -0.15297107 -0.06456599 0.08598164 0.03222515
-3.8733044e-05 0.058865346 -0.027321871 -0.029625658 0.06022864 0.026170276 -0.081847586 -0.14748582
-0.06329504 0.044843774 0.0026301043 -0.023132227 0.24721715 0.0007482175 -0.044941846 -0.009779888
0.09979554 -0.073906384 0.1018027 -0.108776525 -0.0062849354 0.056986444 0.082317755 -0.032295503
0.056486316 0.049691867 0.027954124 0.12739699 0.05429645 -0.0207978 -0.05211411 -0.02580751
-0.14631104 -0.041362282 0.01593297 -0.026385197 0.038418144 -0.011598579 0.04143804 0.12736909
-0.04485914 0.051395368 -0.07343567 0.19452012 0.07243896 0.047589943 0.017371843 0.060424857
0.025534764 -0.07441469 0.018326474 0.034470554 -0.024750696 0.055695403 -0.05856486 -0.04456583
0.042772256 0.027246973 0.05409507 0.0010601 0.06384597 0.05464325 -0.105166346 -0.06616922
0.08506163 -0.05020391 -0.13544953 -0.07411633 -0.20508534 0.05845079 0.018322201 -0.14125915
0.10312499 0.018167086 -0.04273131 0.06870707 0.122838855 0.015502812 0.098675266 -0.09217747
-0.063370064 0.042410493 -0.16609114 0.031569976 -0.09494647 0.03238429 0.118365295 -0.05076879
0.1108693 0.06702447 0.059718955 -0.023381768 0.07335086 0.108856656 -0.07761725 -0.0101494

fc2.bias f4 [128]
00000000: f912 febb 9094 bd3b 22a3 083d e216 ffbd
00000010: c9f8 44bc b107 dc3c 363b fdbd 69b3 fb3c
00000020: 0ee4 80bd bb90 ea3c 5316 e23c 6f07 553d
00000030: afde a03c dc64 493c 2696 263c 6324 61bd
00000040: 6970 073d dad2 cdbd dfc2 0bbd 0c46 033d
00000050: 31a0 933d e45d ae3b d7ca 823c d6a4 9ebc
00000060: 9db9 deb9 5b96 513e 0ea9 3a3c ba11 0a3d
00000070: ddbe a93c 6943 debd dc92 f13c b965 8cbc
00000080: e474 6e3c cb0c 1d3d 2c63 6d3d 2be1 ca3d
00000090: 1e96 9c3d 0201 0fbd 384f bebd 940a 5dbd
000000a0: 218c c43c d9cf 553c 4cd2 ebbd 4cda a83b
000000b0: f5f9 563d 4d09 9e3d 4afd 9cbb 811a a93c
000000c0: 47b6 8a3c 78b8 acbd 871f a83c a90a f43c
000000d0: ca16 c8bc 1cab ac3c 9cd3 943d 5148 e63c
000000e0: 52a0 783d 294a 3e3d 38d7 983d 470f 9f3d
000000f0: 6c3b dd3d 1afb 14bd 0a91 65bd a222 cd3a
00000100: f41b b73c bfea 0c3d bbac b7bd b731 f2bd
00000110: 4de8 183e 7484 d83d e440 f4bc c934 b83d
00000120: 1046 16bd 3a2c 503d 33e4 573d 70ed 3abc
00000130: c630 c8bd d03f fbbb 30c1 f1bd 2d4d 17bd
00000140: d28a 07be 5656 b33b c383 a93d 9311 dd3c
00000150: 5bf8 123d 2dd6 753d 253c 92bc 1830 11be
00000160: 6d96 b83c 8248 febb ba3f 1b3d ff9a 16bc
00000170: e1cf 923c 09af 23bc 8286 193e ac0d f4bc
00000180: 87ab b0bc 3a45 d8ba 4633 13bd b123 87bd
00000190: 135f 3f3d f379 883c 4e4e 33bd 45cc 88bd
000001a0: 557a db3d 1d17 24bd cb5b ddbc 67b1 4f3d
000001b0: 6927 12bc fb98 9f3d bca6 eebc 63d1 28bd
000001c0: 2a8a 433d c8c3 0a3e 0807 993d 266a 0b3d
000001d0: 5fee 8abd b287 aabc 5811 fe3b 5ffc bb39
000001e0: d7f6 19bd 2b97 ea3c 932c 02bd 506a 1d3d
000001f0: 65e0 adbc 9739 2abb 1aa8 d53d f451 733d
-0.0077537266 0.0057855323 0.0333587 -0.124555364 -0.012022206 0.026859136 -0.12364809 0.030725198
-0.06293498 0.028633466 0.027598536 0.052009042 0.019637434 0.012292113 0.010167634 -0.05496634
0.033066187 -0.10049982 -0.03412139 0.032049224 0.072082885 0.005321251 0.015965862 -0.01936571
-0.00042481432 0.20467512 0.011392845 0.03370831 0.020720894 -0.10852701 0.029488973 -0.017138349
0.014554236 0.03834228 0.057955906 0.09906229 0.0764582 -0.03491307 -0.092924535 -0.053965166
0.0239926 0.013050043 -0.1151472 0.005152976 0.05248447 0.07716618 -0.0047909366 0.02064252
0.01693262 -0.08433622 0.020522846 0.02979024 -0.02442493 0.021077685 0.07266924 0.028110655
0.06069977 0.046457443 0.07462925 0.07766586 0.108023494 -0.03637228 -0.056046523 0.001565058
0.022352196 0.03440356 -0.089684926 -0.118258886 0.14932366 0.105721384 -0.029816099 0.08994443
-0.03668791 0.050823428 0.052707862 -0.011409149 -0.09774928 -0.007667519 -0.11804426 -0.036938835
-0.1323655 0.0054729385 0.08277085 0.02698592 0.03588138 0.060018707 -0.017850945 -0.14178503
0.022532666 -0.0077601084 0.03790257 -0.009192227 0.01792139 -0.009990462 0.14992717 -0.029791676
-0.021566166 -0.0016500123 -0.03593757 -0.065986045 0.04672153 0.016659712 -0.04377585 -0.06679586
0.10716692 -0.040061105 -0.02702131 0.050706293 -0.008920529 0.077928506 -0.02913224 -0.04121531
0.047739185 0.13551247 0.07472044 0.034036778 -0.06783747 -0.020816658 0.0077535324 0.0003585545
-0.03758892 0.028636536 -0.03178079 0.038431466 -0.021225164 -0.0025974268 0.104324535 0.05940433

fc3.weight f4 [2, 128]
00000000: 45ea ef3c 93db 5fba faf3 61bd 1377 5e3e
00000010: ff97 53bd 0857 033c 3324 6e3d d1ce 693c
00000020: dd45 f93c a2a9 39bd 03e8 6e3e 0707 1d3d
00000030: 9bc0 bd3c 52b5 a0bd 0b8f c6be 968e 3a3e
00000040: d243 533d cf83 893c 63a7 1cbe 0a2a 9cbe
00000050: 60d6 d0be 56df 7ebf d93d 9fbe b77d 993d
00000060: 6b99 33bd b1a1 ecbe 400d 2dbe cf5c 6e3e
00000070: 5f35 89bd a7bc 273b 569a b5be 08fc 1e3d
00000080: c827 443d 8e47 eabb 9b04 6b3e 99d2 dabc
00000090: a616 1bbd 31b4 09bc 38e4 a23e 4b41 e13b
000000a0: ac17 f7bc 78ad e3bd 27cb 39bf d241 8abc
000000b0: 2da6 b83c da0a 613e 9a3b ff3c eb6b 37be
000000c0: 2bec a03a 8c4b 0e3e 9b59 66bd 888c fabc
000000d0: ad05 973c 947a a63d ea70 9b3d fc25 8a3d
000000e0: e295 e5be d80c f2bc 9812 38bf 4735 92bd
000000f0: e174 53bc 29dc 8dbd 3e52 7cbd 6588 2cbd
00000100: 8512 693e f95f eabc 3a1e 59bd a1c9 503d
00000110: 8a3f 47bf fda9 b0be 7573 9b3d dbf0 4fbe
00000120: 6dcb 21be b3d6 a23e 097c b83e 061b 983c
00000130: f5b3 72bd 2e59 dcbe 1e2a 7ebe 1fea 6d3e
00000140: 7269 a0be 45ef b6be 1101 58bd ac1e 9cbc
00000150: 2500 71be 1bb9 ebbd 4f02 7ebe d3be 5f3e
00000160: 738b 303d 56ec a13e a57e 00be fc82 38bd
00000170: 08b8 a1bc fd29 583d 65f5 113b c006 c4bd
00000180: 4893 c83e ad37 813d 1a1c 793d 7a97 863b
00000190: 43e2 5ebd 2f21 1cbd cccb 40bd 2bba 8b3d
000001a0: df73 39be 5f28 5fbe 7164 a9be 273f 1bbe
000001b0: ede3 02be f02b 1bbe 6c52 b43d b8c4 40ba
000001c0: c452 763d aae1 8bbc 3a7e 673d f267 26bd
000001d0: bd8e 903d 1b59 2ebe 7134 923d 9320 50bc
000001e0: 1726 6fbd 6712 83bd 6e7c ac3e 7879 42be
000001f0: 9256 cf3c 2730 173c 5e5e 2abd 6f73 da3d
00000200: ccde 3b3d 2df4 693d c666 673d d07c 073e
00000210: 82cc 843c e34f 393d b102 2bbe 9505 9a3d
00000220: 3b7c f23d 9d8c 16be d208 18be a610 373d
00000230: c167 583e 6087 c8bd b96c f0bc 7c3d 08be
00000240: 25cd 293d 7f07 04be 9ccf b5be d8a7 3e3e
00000250: 4f6c c8bd 05bc dfbd 3983 453e 9c7a 7cbe
00000260: 8b69 4f3d e68e 1dbd dada a1bd f197 f6bd
00000270: 8205 623d b62b 6abe fa8d d43d 3d2d d33d
00000280: a5cc b63d b97d 6f3d cdc0 66bd fc75 163d
00000290: 7f68 733d ddb4 2cbf 36f7 11bd 5d99 28be
000002a0: 2692 66bd c9e4 40bd 2505 523e 539a 023e
000002b0: ecac febd 7ac1 72bd dfff 833c 63c6 563d
000002c0: a3af a3bb 7bd4 47be c9d7 e2bd 3b6f e33d
000002d0: ec19 81be 0337 9f3c 3350 02bc 06c8 843d
000002e0: 8399 38bd b385 833d 3df1 a23b 4bba 9e3c
000002f0: 4c7a cb3d 6e93 c8bd 0c5c 373c 57db 67be
00000300: 368e c3bd 8e47 463d c5ff 24be 5614 4abf
00000310: 1b96 a23d 86aa 8bbd a012 3f3a 4fd2 3ebe
00000320: 7ea9 0abe ecce 7e3e c90a 2e3d a46c 1d3e
00000330: 4238 19be 2fe4 fd3d 5dd2 d2be fbb9 f7be
00000340: e49e e9bc 1fd9 33be 2b40 1a3d 3a94 303d
00000350: 14d8 02bd 01ea bc3d c39b 48bc fb70 10be
00000360: 6ecc 753d 1e96 16be 22d6 26bc a8cd 4fbd
00000370: 4c5d 283f 7586 123c 50d8 d43d c2f1 08be
00000380: c56d 213c a9f6 723c 6604 d23b 57d6 31be
00000390: 42d8 01bc a564 28be 8df5 5bbd 56ce 62bd
000003a0: 1763 27be 55fe 05be 6c4a c53d 2a4e cb3d
000003b0: 8a2c 843d 665a 1d3e 139a 29be 0979 d0bd
000003c0: 0534 b13c 05b0 713d 850e c83b c29d 20be
000003d0: 341e 33bf 9b49 8dbc b7bd b5be 479c 2b3e
000003e0: cdcb 333e deca 0ebd 2de4 923d a0df 33bd
000003f0: fc1d ef3c 8d34 98be b5e4 ad3b 1ce3 5dbd
0.029286513 -0.0008539494 -0.055164315 0.2172511 -0.051658627 0.008016355 0.05813999 0.0142705
0.030428821 -0.04532779 0.23330693 0.03833678 0.02316313 -0.07847084 -0.38781008 0.18218455
0.05157835 0.016786484 -0.15298228 -0.30500823 -0.40788555 -0.99559534 -0.31101874 0.07494681
-0.043847483 -0.4621711 -0.16899586 0.23277591 -0.06699633 0.0025594623 -0.3546931 0.038814574
0.0478895 -0.0071496433 0.22950976 -0.026711749 -0.037863396 -0.008404777 0.31814742 0.0068742386
-0.030162655 -0.11117071 -0.7257561 -0.016877089 0.022540176 0.21976796 0.03115635 -0.17912261
0.0012277415 0.13896006 -0.0562378 -0.030584589 0.018435324 0.08128849 0.07589896 0.06745526
-0.44840914 -0.02954714 -0.7190337 -0.07139068 -0.012906284 -0.06926758 -0.06160187 -0.042122263
0.22760971 -0.028610216 -0.053007342 0.05097354 -0.7783133 -0.3450469 0.07590381 -0.20306723
-0.15800257 0.31804428 0.3603213 0.018567573 -0.05925365 -0.4303679 -0.24820754 0.23233841
-0.31330448 -0.35729423 -0.052735392 -0.019057594 -0.23535211 -0.115099154 -0.24805568 0.21850137
0.04310174 0.31625623 -0.12548311 -0.04504679 -0.019741073 0.05277442 0.002227151 -0.095716
0.39174867 0.063094474 0.060817815 0.004107413 -0.054415 -0.038117584 -0.047069356 0.06822618
-0.18110608 -0.21792744 -0.33084443 -0.1516081 -0.1278226 -0.1515348 0.08804783 -0.0007353532
0.060137525 -0.017075378 0.056516863 -0.040626474 0.07058475 -0.17026179 0.07138909 -0.012703079
-0.058385935 -0.06399994 0.33688682 -0.18991649 0.025309835 0.009227789 -0.0415939 0.106665485
0.045866773 0.05711763 0.056494497 0.13231206 0.016210798 0.0452422 -0.16700245 0.07520596
0.11840101 -0.14702077 -0.14847115 0.04469361 0.21133329 -0.09791446 -0.029348718 -0.13304704
0.041455407 -0.12893485 -0.35509956 0.18618715 -0.09786283 -0.10924534 0.19288339 -0.24656147
0.050637763 -0.038466357 -0.07903071 -0.12040699 0.055181034 -0.22868237 0.103786424 0.10311363
0.089257516 0.058469508 -0.056336213 0.036733612 0.059425827 -0.67463475 -0.03563615 -0.16464753
-0.05629172 -0.047093187 0.20509775 0.12754183 -0.12435326 -0.059266545 0.01611322 0.05243529
-0.0049953028 -0.19514649 -0.11076314 0.111052 -0.2521509 0.019435411 -0.007953691 0.06483464
-0.045068275 0.064219855 0.0049726055 0.01937594 0.09935436 -0.09793745 0.011191379 -0.22642265
-0.09548609 0.048408084 -0.16113193 -0.7893728 0.079387866 -0.06819634 0.0007288847 -0.18634914
-0.13541219 0.24883622 0.042490754 0.15373474 -0.14962867 0.12397038 -0.4117612 -0.4838408
-0.028518148 -0.17563294 0.03765885 0.04311011 -0.03194435 0.0922432 -0.012244168 -0.14105599
0.060009412 -0.14705703 -0.010182889 -0.05073324 0.6576736 0.00894319 0.10392821 -0.13373473
0.009852831 0.014829316 0.0064092157 -0.1736692 -0.007925095 -0.16444643 -0.053700972 -0.05537256
-0.16346394 -0.13085301 0.096333355 0.09927018 0.06453808 0.15366516 -0.16562681 -0.101793356
0.02163125 0.059005756 0.0061052465 -0.1568518 -0.6996796 -0.017247012 -0.35496303 0.16758834
0.17558213 -0.034861438 0.07172427 -0.043914437 0.029189102 -0.29727593 0.005306805 -0.054171667

fc3.bias f4 [2]
00000000: 754b 083d 69c3 5ebc
0.033275086 -0.013596394
