Unity-projects/Pro1.Navigation/dqn_model.pth (torch_old, 28407 bytes, 6 tensors)

fc1.weight f4 [64, 37]
0.032166425 0.18733014 -0.17165753 -0.18112244 -0.37074742 -0.34373924 0.00020880699 0.20485947
-0.025391808 0.09702521 0.37909704 -0.27691388 -0.54501617 -0.25557217 -2.2637308 -0.35352895
0.10840753 0.013799173 0.44130933 -0.10481925 -0.020985553 0.17680757 -0.105410956 0.23352821
-0.0936082 -0.20206234 0.13743469 -0.08954002 0.26455662 -0.103252076 -0.16623957 0.252268
-0.030920632 0.1718208 0.23626289 -0.10428308 -0.018538035 0.10385429 0.050677136 0.0130455615
0.004259525 -0.0017683288 -0.08261262 -0.10244697 -0.0297761 -0.27206942 -0.18112361 -0.004560371
-0.17127326 0.090439245 0.21524735 0.3308276 0.045203947 -0.10720057 0.063522 0.01569574
0.20211191 -0.1254978 -0.13568886 -0.15715823 -0.005294867 0.2610711 -0.15465024 0.067567244
0.0039600544 0.28002462 0.31647655 0.12321927 0.17327268 -0.09208632 -0.22414786 -0.44274327
0.35584265 0.087062865 0.1382668 0.06831162 0.11834181 0.18571353 -0.061173826 -1.0325663
0.3586194 0.5473538 -0.4206652 -1.8808329 0.14872007 -0.014988498 -0.006346272 -0.010517058
-0.0799135 -0.11174666 0.10003189 0.104050495 0.19490999 0.051909484 -0.117356785 -0.095100015
0.0818415 0.2913457 0.23076312 -0.03332579 0.22490925 0.22045632 -0.04374155 -0.37689745
-0.38491568 -0.021572873 0.045937788 -0.2726784 -0.59098685 0.003372784 0.027176488 0.034071248
-0.5783966 -0.019206518 0.41959974 -0.019148747 -0.67026985 -0.04970885 0.15809421 0.36451158
-0.72180986 0.27545238 -1.2897422 0.021957632 -0.5909051 -2.0274513 -0.39237165 0.295249
-0.043243334 -0.5445732 -0.28211638 -0.26008654 -0.08642121 0.18839039 -0.49130258 -1.6386515
-0.7068321 0.31345206 -0.2431603 0.5663231 -0.042882074 0.002939395 0.32278186 0.055305537
-0.9161895 -0.4815562 -0.2337083 0.015179116 0.063855074 -0.118784055 -0.006891825 -0.10298678
-0.17074631 0.49173415 -0.5019319 -0.49394175 -0.7244662 -2.4483218 0.1530809 -0.033560142
-0.08313969 -0.03274167 -0.23754092 0.007931175 0.0943643 -0.04060215 0.18170738 0.24605635
-0.045119844 -0.0034063093 0.04467867 0.13639356 0.22414114 0.026434595 -0.054668665 0.15141492
0.29642144 0.3223269 0.06324491 -0.07182253 0.079967864 0.23508509 0.35775512 0.0019150925
0.0010347147 -0.02690633 0.048641186 0.040058143 0.035075895 0.08958919 0.10617626 0.12431751
0.12983835 0.1621078 0.053991202 0.041962452 0.039923474 0.031618953 0.048802447 0.033083122
0.031138072 0.076263376 0.0989673 0.18838373 0.17125434 0.118367486 0.17646772 0.1545115
0.16336347 0.0431271 0.58262396 -1.2027113 -0.8620439 -1.1153617 -4.0679255 0.024690641
0.07231365 0.09097877 0.0977194 0.031972896 0.004780572 0.005979707 0.2538773 -0.08239868
-0.2525417 0.2855617 0.16015403 0.21987383 -0.40402505 0.038204364 -0.043992203 0.4432685
0.063470505 -0.10679465 0.25951865 0.215327 0.22647576 0.06497431 -0.1259079 -0.00810019
-0.0019342176 0.5127671 0.04373116 0.19280545 -0.13454254 -0.12062136 -0.28931564 -0.03422097
0.06071927 -0.10384171 -0.086677104 0.050423462 0.27588907 -0.01381254 -0.12949087 -0.13842534
00000000: f1c0 033d 79d3 3f3e fec6 2fbe 2978 39be
00000010: 9bd2 bdbe 97fe afbe 33f3 5a39 aec6 513e
00000020: 7b02 d0bc 27b5 c63d 0219 c23e a8c7 8dbe
00000030: 2e86 0bbf 5bda 82be f7e0 10c0 bf01 b5be
00000040: c404 de3d ed15 623c 4cf3 e13e 7aab d6bd
00000050: e5e9 abbc 0b0d 353e b3e1 d7bd 0522 6f3e
00000060: a8b5 bfbd 6ee9 4ebe aebb 0c3e c260 b7bd
00000070: f773 873e d375 d3bd b53a 2abe 4529 813e
00000080: 444d fdbc cbf1 2f3e e6ee 713e 5e92 d5bd
00000090: 14dd 97bc 8fb1 d43d d492 4f3d 0dbd 553c
000000a0: 7c93 8b3b 45c7 e7ba ce30 a9bd b8cf d1bd
000000b0: 02ed f3bc af4c 8bbe 7878 39be 2a6f 95bb
000000c0: 4262 2fbe 3638 b93d cd69 5c3e 3c62 a93e
000000d0: c627 393d f98b dbbd d317 823d 5a94 803c
000000e0: 6df6 4e3e 7f82 00be 05f2 0abe 16ee 20be
000000f0: 9080 adbb 1cab 853e a25c 1ebe b260 8a3d
00000100: 58c3 813b 635f 8f3e 3709 a23e 625a fc3d
00000110: 656e 313e c197 bcbd 0487 65be 3faf e2be
00000120: 0231 b63e 044e b23d d095 0d3e f6e6 8b3d
00000130: 315d f23d b02b 3e3e 6891 7abd 222b 84bf
00000140: f69c b73e 611f 0c3f 6e61 d7be 22bf f0bf
00000150: 134a 183e 5192 75bc 63f4 cfbb bd4f 2cbc
00000160: b0a9 a3bd 6fdb e4bd 85dd cc3d 6d18 d53d
00000170: 7c96 473e 0a9f 543d c158 f0bd ccc3 c2bd
00000180: 849c a73d 432b 953e 2b4d 6c3e a080 08bd
00000190: 9c4e 663e 4dbf 613e 572a 33bd b4f8 c0be
000001a0: ab13 c5be 98b9 b0bc 4329 3c3d 819c 8bbe
000001b0: ea4a 17bf ed09 5d3b 3aa1 de3c 4b8e 0b3d
000001c0: cd11 14bf fd56 9dbc c7d5 d63e d5dd 9cbc
000001d0: ce96 2bbf 829b 4bbd 73e3 213e 43a1 ba3e
000001e0: 88c8 38bf 1808 8d3e 4616 a5bf 7ee0 b33c
000001f0: 8e45 17bf c3c1 01c0 f0e4 c8be e02a 973e
00000200: ec1f 31bd 2669 0bbf 8f71 90be 102a 85be
00000210: 9afd b0bd 69e9 403e 038c fbbe 55bf d1bf
00000220: f3f2 34bf ca7c a03e 04ff 78be 8dfa 103f
00000230: 1da5 2fbd dda2 403b aa43 a53e 0f88 623d
00000240: 658b 6abf 898e f6be 3b51 6fbe d4b1 783c
00000250: 73c6 823d 0e45 f3bd d1d4 e1bb bcea d2bd
00000260: 1fd8 2ebe 94c4 fb3e 9c7e 00bf efe5 fcbe
00000270: 9e76 39bf 4eb1 1cc0 3dc1 1c3e 5c76 09bd
00000280: 2445 aabd 211c 06bd ed3d 73be c2f1 013c
00000290: 1242 c13d 714e 26bd 8011 3a3e 32f6 7b3e
000002a0: 96cf 38bd 633c 5fbb fb00 373d c1aa 0b3e
000002b0: 4185 653e 5d8d d83c 40ec 5fbd 830c 1b3e
000002c0: 8dc4 973e 0808 a53e 8c86 813d b117 93bd
000002d0: 31c6 a33d 25ba 703e ae2b b73e d703 fb3a
000002e0: 449f 873a aa6a dcbc fb3b 473d 0214 243d
000002f0: beab 0f3d 8a7a b73d f072 d93d 2e9a fe3d
00000300: 58f4 043e 96ff 253e e125 5d3d d2e0 2b3d
00000310: cc86 233d e082 013d 13e5 473d 2b82 073d
00000320: 4515 ff3c f92f 9c3d 5eaf ca3d aae7 403e
00000330: 4c5d 2f3e a76a f23d f4b3 343e 4338 1e3e
00000340: c148 273e 0ba6 303d d826 153f 72f2 99bf
00000350: e9ae 5cbf 2cc4 8ebf 722c 82c0 0744 ca3c
00000360: 2e19 943d 1453 ba3d 1c21 c83d 03f6 023d
00000370: 58a6 9c3b 6bf1 c33b 35fc 813e a4c0 a8bd
00000380: 254d 81be 2535 923e 6bff 233e 9b26 613e
00000390: 5fdc cebe 2e7c 1c3d 2b31 34bd 17f4 e23e
000003a0: d3fc 813d 27b7 dabd a1df 843e ae7e 5c3e
000003b0: 43e9 673e 4011 853d 00ee 00be a9b6 04bc
000003c0: 9385 fdba b444 033f 721f 333d cb6e 453e
000003d0: 85c5 09be 5508 f7bd 2e21 94be 4a2b 0cbd
000003e0: c5b4 783d f6aa d4bd c483 b1bd d588 4e3d
000003f0: 5541 8d3e fe4d 62bc 4199 04be 5fbf 0dbe

fc1.bias f4 [64]
0.09451298 -0.12502441 0.03834314 -0.032109953 0.24174498 0.085060775 -0.078360915 -0.14640509
-0.05063292 -0.2422737 0.10445076 0.067035995 0.16275254 -0.14555663 0.06655674 -0.05110085
0.008192794 -0.11917007 0.08673516 -0.41141766 -0.17921664 0.032252062 -0.017367681 -0.21953405
-0.015694339 0.24186656 -0.22619414 0.06889673 0.057494514 0.03848485 -0.17758831 -0.30435607
0.16017842 -0.16668503 -0.3281581 0.06440824 -0.124903776 -0.15073796 -0.07610472 -0.28723106
-0.16815767 -0.008226255 0.22079252 0.2584319 -0.075484626 -0.18574074 -0.1824391 -0.19414905
-0.32625777 0.06455161 -0.28169653 -0.019801583 -0.22929054 -0.23273714 -0.2772773 -0.2100971
-0.06612124 -0.057987206 -0.1990603 -0.16013934 -0.21505705 0.12150884 -0.20554926 -0.16922162
00000000: 0590 c13d 6606 00be b20d 1d3d ba85 03bd
00000010: ff8b 773e 5834 ae3d b07b a0bd 37eb 15be
00000020: 7764 4fbd 9916 78be 48ea d53d 2b4a 893d
00000030: 9aa8 263e cc0c 15be e64e 883d 204f 51bd
00000040: 123b 063c 700f f4bd 34a2 b13d 56a5 d2be
00000050: 9184 37be bd1a 043d ab46 8ebc 89cd 60be
00000060: 6a91 80bc deab 773e 709f 67be bb19 8d3d
00000070: 5e7f 6b3d 4aa2 1d3d b6d9 35be 8fd4 9bbe
00000080: d005 243e 7baf 2abe 5704 a8be 78e8 833d
00000090: 8dcd ffbd 0d5b 1abe cbdc 9bbd f30f 93be
000000a0: 8631 2cbe 6ac7 06bc 6f17 623e 3051 843e
000000b0: af97 9abd d232 3ebe 51d1 3abe 02cf 46be
000000c0: 420b a7be a233 843d 873a 90be ee36 a2bc
000000d0: 24cb 6abe a552 6ebe 4af7 8dbe b223 57be
000000e0: 936a 87bd fe83 6dbd 77d6 4bbe 91fb 23be
000000f0: ea37 5cbe a0d9 f83d 817b 52be 6f48 2dbe

fc2.weight f4 [64, 64]
-0.10341117 0.023777882 0.10730796 -0.13444841 -0.114990346 -0.6397317 -0.015847154 0.011752277
0.10306152 0.20027122 0.04296631 0.003096372 -0.16634554 0.041777276 -0.47452185 -0.06882797
-0.11546193 -0.20332308 0.89861983 0.037616167 0.055045523 0.09349665 0.093473285 -0.37081096
-0.5756848 -0.12799099 0.04623402 -0.3359936 0.11497149 0.015724426 -0.018035822 -0.1346836
-0.51660985 0.040546414 -0.23483709 -0.5450337 -0.28060097 0.42070746 -0.2932814 0.4210255
-0.015744874 0.059561897 -0.051087163 -0.0839727 0.040573783 -0.17510153 -0.050412193 -0.10884121
-0.16693065 0.051991943 -0.08495254 0.12650692 -0.18976164 -0.26546952 0.27104694 0.1621817
0.08080738 -0.049181577 -0.081038624 0.13495116 -0.10092011 0.1775835 0.08331691 0.089744925
0.03574907 0.059474718 -0.6763003 0.09655205 -0.2710218 0.05210423 -0.04343268 -0.020962438
-0.062153384 -0.4017804 0.055320453 -0.029496873 -0.6549244 0.04615349 0.37868893 0.1296262
0.18617484 0.034879725 -0.7858364 0.056714516 -0.47772938 -0.18180053 0.17131115 -0.49887472
-0.17620537 -0.015266769 -0.7608368 -0.18090142 0.05652269 -0.21987921 -0.041066803 -0.89961094
-0.67335063 0.16645621 0.010155331 -0.6137207 -0.29116893 -0.03252496 -0.12369515 -0.3211604
-0.7333545 -0.4574428 -0.15630014 -0.4860119 -0.37114638 -0.39770225 -0.23131232 -0.08660744
-0.36140448 -0.15756284 -0.70039123 -0.02088137 0.04286225 -0.49485266 -0.09228302 -0.05743831
0.24571832 -0.25662336 0.053373743 0.13381116 -0.4978578 0.014446904 0.09010172 0.036509883
0.101451606 0.009590989 0.27291715 -0.10475463 0.17038897 -0.5690878 -0.20286196 0.07114079
0.26844436 0.092066884 0.045641273 0.09759599 -0.974546 -0.065325655 -0.2625354 -0.00095961196
-0.28479967 -0.16088325 -0.27905315 -0.37404677 -0.11304424 0.11926865 -0.31871203 0.11307811
-0.32201862 0.48682883 0.3626374 -0.4062497 -0.17734759 -0.05231795 -0.19028705 -0.12643476
-0.061957877 -0.029066289 0.057283815 0.9928182 -0.08140593 -0.2004707 0.2813308 0.119408146
-0.025423829 -0.18611763 -0.15144955 0.006988406 -0.07300902 0.12730959 0.019401725 -0.1392324
-0.19669853 -0.06826757 -0.39247057 -0.10740435 -0.026676761 -0.35012543 -0.024114529 -0.3693661
0.18820293 -0.13178478 0.006991078 0.07252807 0.007748261 -0.15780428 -0.24616383 -0.051686738
-0.12921548 -0.028605632 -0.3412906 -0.27890858 -0.65608644 0.19494627 -0.1753923 -0.7723811
-0.23596357 -0.43996325 -0.8233916 -0.5531934 -0.54896003 -0.7622025 -0.05658012 0.014789318
-0.3213373 -0.024857624 -0.2362991 -0.16128093 -0.6943691 0.32172522 0.022278894 0.30138862
-0.08632555 -0.30234945 -0.14592418 -0.22490226 -0.28281453 -0.028749352 0.15224832 0.1774164
-0.2748342 -0.33265048 -1.09458 -0.033252224 -0.7552138 -0.356841 -0.64060384 -0.36143443
-0.63552755 0.00030815369 -0.51461154 -0.47704172 -0.5706045 0.0064796577 -0.6448102 -0.12833418
-0.11624181 0.039386164 -0.6243804 -0.9595418 -0.18794045 -0.2303657 -0.23659137 -0.36788762
-0.026208999 -0.34238067 -0.28378075 0.5582679 -0.61930984 0.26962358 -0.532711 -0.29861104
00000000: 3cc9 d3bd d5c9 c23c 47c4 db3d d8ac 09be
00000010: 0f80 ebbd 75c5 23bf e4d1 81bc 9f8c 403c
00000020: eb11 d33d e613 4d3e 71fd 2f3d 80ec 4a3b
00000030: 7c56 2abe a61e 2b3d 87f4 f2be aef5 8cbd
00000040: 4e77 ecbd ed33 50be f30b 663f 6913 1a3d
00000050: 6a77 613d 2c7b bf3d ec6e bf3d efda bdbe
00000060: 1460 13bf 1210 03be e25f 3d3d 5a07 acbe
00000070: 2c76 eb3d 83d0 803c dcbf 93bc 7fea 09be
00000080: 8b40 04bf ff13 263d 2279 70be 5487 0bbf
00000090: eeaa 8fbe f866 d73e fb28 96be a890 d73e
000000a0: 65fb 80bc 2df7 733d c640 51bd e1f9 abbd
000000b0: b230 263d d14d 33be 047d 4ebd 24e8 debd
000000c0: deef 2abe 81f5 543d 99fb adbd 088b 013e
000000d0: e050 42be 9feb 87be aac6 8a3e f612 263e
000000e0: 577e a53d 9f72 49bd 94f7 a5bd a330 0a3e
000000f0: 34af cebd 73d8 353e 0ea2 aa3d 30cc b73d
00000100: 9e6d 123d c39b 733d 0422 2dbf 15bd c53d
00000110: 5fc3 8abe 3f6b 553d 77e6 31bd 6bb9 abbc
00000120: 8c94 7ebd 29b6 cdbe b397 623d 6da3 f1bc
00000130: 20a9 27bf 710b 3d3d 84e3 c13e bbbc 043e
00000140: 9ea4 3e3e 0bde 0e3d 932c 49bf 7b4d 683d
00000150: f298 f4be eb29 3abe 316c 2f3e 826c ffbe
00000160: 2e6f 34be 7821 7abc 33c6 42bf 393e 39be
00000170: 5684 673d 0428 61be aa35 28bd e74c 66bf
00000180: b560 2cbf 7f73 2a3e 8c62 263c cd1c 1dbf
00000190: 1814 95be e438 05bd e253 fdbd 236f a4be
000001a0: 1fbd 3bbf f135 eabe 250d 20be 8dd6 f8be
000001b0: e606 bebe a19f cbbe 23dd 6cbe 3e5f b1bd
000001c0: 020a b9be 2758 21be d74c 33bf 680f abbc
000001d0: 5490 2f3d 545d fdbe e1fe bcbd 6f44 6bbd
000001e0: 959d 7b3e 2364 83be 6d9e 5a3d cb05 093e
000001f0: 38e7 febe b5b2 6c3c 4087 b83d 638b 153d
00000200: dcc5 cf3d 8623 1d3c ccbb 8b3e 9889 d6bd
00000210: 727a 2e3e bdaf 11bf 0cbb 4fbe 43b2 913d
00000220: 8a71 893e 908d bc3d 58f2 3a3d 68e0 c73d
00000230: d97b 79bf 75c9 85bd 0a6b 86be 788e 7bba
00000240: 43d1 91be 94be 24be 0ee0 8ebe 0f83 bfbe
00000250: bd83 e7bd 1f43 f43d 392e a3be 7f95 e73d
00000260: a0df a4be a141 f93e 9cab b93e f6ff cfbe
00000270: 9b9a 35be 594b 56bd 9cda 42be 1d78 01be
00000280: 8bc7 7dbd 6d1c eebc 6fa2 6a3d 5529 7e3f
00000290: 27b8 a6bd 3148 4dbe 970a 903e 428c f43d
000002a0: a245 d0bc 9f95 3ebe 9715 1bbe 00ff e43b
000002b0: c185 95bd 725d 023e 5ef0 9e3c f092 0ebe
000002c0: 576b 49be decf 8bbd e7f1 c8be d0f6 dbbd
000002d0: 3989 dabc a443 b3be d58b c5bc 8e1d bdbe
000002e0: 45b8 403e 97f2 06be 6a15 e53b 9989 943d
000002f0: 20e5 fd3b 7297 21be 5f12 7cbe 79b5 53bd
00000300: 1051 04be 5c56 eabc a4bd aebe 1bcd 8ebe
00000310: 48f5 27bf ff9f 473e 0a9a 33be c5ba 45bf
00000320: 6fa0 71be dd42 e1be cbc9 52bf 159e 0dbf
00000330: a588 0cbf b41f 43bf 8ec0 67bd e54e 723c
00000340: 5386 a4be 37a2 cbbc 64f8 71be d426 25be
00000350: 2cc2 31bf 2bb9 a43e 3a82 b63c 9c4f 9a3e
00000360: 73cb b0bd 8ccd 9abe 266d 15be c74c 66be
00000370: 11cd 90be c383 ebbc fce6 1b3e a5ac 353e
00000380: 11b7 8cbe 2a51 aabe 331b 8cbf 7c33 08bd
00000390: b155 41bf ddb3 b6be 9dfe 23bf ef0d b9be
000003a0: efb1 22bf b08f a139 95bd 03bf d03e f4be
000003b0: 2313 12bf 4f53 d43b 4812 25bf 096a 03be
000003c0: 3010 eebd 6353 213d 65d7 1fbf 88a4 75bf
000003d0: 7673 40be fce4 6bbe 0245 72be c45b bcbe
000003e0: 41b4 d6bc 854c afbe b64b 91be a5ea 0e3f
000003f0: 178b 1ebf 1a0c 8a3e c05f 08bf 8ce3 98be

fc2.bias f4 [64]
-0.031135274 -0.22072524 -0.16365786 -0.14062664 0.096191555 -0.42934456 -0.3855368 -0.3762755
-0.33690593 0.36501685 -0.007437395 -0.43197736 0.2227342 -0.32405084 -0.15785052 -0.23060916
0.45989034 -0.18220298 -0.15716133 0.36427316 0.5207562 0.8068166 -0.41652644 0.06782564
-0.14882517 -0.3469127 0.1622659 -0.2950696 -0.1658359 -0.092898674 -0.05021628 -0.14890799
-0.30295196 0.0635734 -0.016260605 0.017609334 -0.30680105 -0.0046815714 -0.0511675 0.27306125
-0.15728319 1.0563672 -0.16287768 -0.24342887 0.121489815 -0.124598555 -0.12455771 -0.43249765
0.049750455 -0.30407944 -0.109075606 0.03437103 -0.22594617 -0.18384995 -0.10758418 0.110730186
-0.36771232 -0.27648216 -0.059502993 -0.10195386 -0.14549252 0.15397756 -0.051382367 0.02481696
00000000: 670f ffbc cc05 62be ed95 27be 6e00 10be
00000010: 1400 c53d 0dd3 dbbe 1465 c5be 2fa7 c0be
00000020: ef7e acbe 7de3 ba3e 64b5 f3bb 232c ddbe
00000030: 6f14 643e fee9 a5be 91a3 21be cf24 6cbe
00000040: bf76 eb3e 6b93 3abe e6ee 20be 0382 ba3e
00000050: 4750 053f 888b 4e3f f442 d5be 2be8 8a3d
00000060: a065 18be 8b9e b1be 0829 263e 5d13 97be
00000070: e3d0 29be a941 bebd 96af 4dbd 567b 18be
00000080: 851c 9bbe c532 823d f634 85bc 7341 903c
00000090: 0715 9dbe de67 99bb 0395 51bd afce 8b3e
000000a0: d80e 21be 0a37 873f 68c9 26be 6b45 79be
000000b0: a7cf f83d 872d ffbd 1d18 ffbd 5570 ddbe
000000c0: 22c7 4b3d 4db0 9bbe 0863 dfbd a3c8 0c3d
000000d0: 6f5e 67be 2943 3cbe 1855 dcbd 82c6 e23d
000000e0: ca44 bcbe 128f 8dbe 69b9 73bd 2fcd d0bd
000000f0: fefb 14be 4bac 1d3e 5176 52bd f04c cb3c

fc3.weight f4 [4, 64]
0.20521536 0.03436799 0.27659515 -0.04009815 0.1007427 -0.2009289 -0.006744173 -0.17959562
0.02654092 0.13950068 0.3727095 -0.09032457 0.29844517 -0.16300736 0.1133171 -0.64172715
0.094191626 0.15253049 0.014348018 0.29879808 0.22736464 0.23193842 -0.0944787 0.07241967
0.3755424 0.07099312 0.10342376 0.0923766 0.08765833 0.070708945 -0.6460624 0.13482134
-0.32998097 0.019412026 0.12920664 -0.8330663 -0.06553415 0.30732748 0.0550061 0.06824947
-0.018632181 0.31542024 0.21130925 -0.11158191 0.13629542 -0.30262747 0.0871017 -0.14628677
0.0842127 -0.15300815 0.27864805 0.27485347 0.0015980924 -0.23632427 -0.03368325 0.03904974
-0.23771176 0.043269746 0.0010905786 0.24564108 -0.12516859 0.060625706 0.15190779 -0.097915724
0.30266118 0.24286906 0.39120275 0.37835705 0.08714195 -0.17077863 -0.06543376 -0.114168465
-0.20907226 0.1514501 0.34605163 -0.11652971 0.1867759 -0.07804155 -0.028003253 0.18605259
0.038664483 0.17292325 -0.015817815 0.20396571 0.19681649 0.25338233 0.0044440143 0.20587012
0.37614432 -0.20340781 0.28660545 -0.21130975 -0.14468452 0.09185936 0.13009678 0.38730368
-0.1129351 -0.5191747 0.3172575 -0.07297674 0.56349206 0.29609582 0.31731215 0.10921513
0.008076878 0.23490946 0.34871867 -0.16840972 0.18813835 -0.53371984 0.42539632 0.011725911
0.10512076 0.07081802 0.19908912 0.23411494 0.06652837 0.06754166 0.033768862 0.08868474
-0.19762632 -0.5591361 0.13767396 0.032398943 -0.09750609 -0.05803299 0.118899144 -0.02032069
0.061175026 0.5029823 0.46554875 0.53588516 0.39199406 -0.219936 0.3221341 -0.16457815
-0.023152519 0.111005045 0.2394954 -0.104214974 0.14195067 0.16367562 -0.017766522 -0.16783623
-0.048429854 -0.32164276 -0.074205615 0.043800965 0.07471971 0.22288436 -0.07680807 0.14415085
0.4629853 0.02718296 -0.12758715 -0.25385594 0.19813263 -0.2576267 -0.22062849 0.3903923
-0.10810598 -0.52076894 -0.23442261 0.20678669 0.09976622 0.26949507 -0.0937627 0.06157252
0.036868837 0.31129208 -0.1595132 -0.23271169 0.23690481 -0.33648616 0.4528401 -0.2425228
0.24097563 -0.23535305 0.21659638 0.21378252 0.75786245 0.18281786 0.185534 0.1580113
-0.20860566 -0.11451318 0.38738298 -0.115471065 -0.07287245 0.3216416 -0.0275083 -0.9186934
0.12458533 -0.34798464 -0.18529373 0.03450045 -0.97316885 -0.012978569 0.21894199 -0.14369094
0.47831774 0.2364309 0.37807196 -0.34716913 0.22625092 -0.02788925 0.07860329 0.27160814
0.13357271 -0.28290942 0.0140372515 0.036580715 0.13841039 0.27370778 -0.15602341 0.11864215
0.21374458 -0.5034925 -0.52647173 0.26234373 0.085863404 0.031073458 -0.12322347 0.46924767
-0.3420639 -0.32189897 0.1023708 -0.33487818 0.1865401 0.06487935 0.6991746 0.12831701
-0.017966378 0.31655723 0.47862428 0.1388613 0.16391605 -0.22980826 0.2891467 -0.13613538
0.37294504 -0.8276776 0.41605568 0.03955716 0.023152301 -0.3821928 0.10723263 0.26035058
-0.25578195 0.11708588 0.16192646 0.0033795007 0.0999809 -0.084858924 0.44020152 0.0203709
00000000: fa23 523e 73c5 0c3d e19d 8d3e f53d 24bd
00000010: 3052 ce3d 4ec0 4dbe 39fe dcbb eae7 37be
00000020: 586c d93c 44d9 0e3e c8d3 be3e 17fc b8bd
00000030: cecd 983e 67eb 26be cc12 e83d 3b48 24bf
00000040: 8ae7 c03d f430 1c3e f313 6b3c 10fc 983e
00000050: 47d2 683e 4481 6d3e 0c7e c1bd c450 943d
00000060: 1847 c03e d764 913d d6cf d33d f12f bd3d
00000070: 3686 b33d dacf 903d 5864 25bf 9b0e 0a3e
00000080: 44f3 a8be f805 9f3c bf4e 043e d543 55bf
00000090: c536 86bd 075a 9d3e 144e 613d 61c6 8b3d
000000a0: 84a2 98bc c37e a13e 7461 583e 0e85 e4bd
000000b0: 0791 0b3e fdf1 9abe 6062 b23d 33cc 15be
000000c0: b577 ac3d 2bae 1cbe f5aa 8e3e 98b9 8c3e
000000d0: 1577 d13a fdfe 71be 73f7 09bd 9ff2 1f3d
000000e0: b66a 73be 9e3b 313d bff1 8e3a 5689 7b3e
000000f0: 322c 00be a952 783d b78d 1b3e 0a88 c8bd
00000100: 68f6 9a3e abb2 783e ba4b c83e 04b8 c13e
00000110: 7b77 b23d 98e0 2ebe 2302 86bd 28d1 e9bd
00000120: 0a17 56be bc15 1b3e ae2d b13e 21a7 eebd
00000130: 2e42 3f3e 40d4 9fbd 1467 e5bc 9284 3e3e
00000140: a65e 1e3d cb12 313e 5d94 81bc 63dc 503e
00000150: 438a 493e 54bb 813e 189f 913b 9ecf 523e
00000160: fd95 c03e 234a 50be f3bd 923e 9561 58be
00000170: 2e28 14be c320 bc3d 1738 053e ab4c c63e
00000180: 854a e7bd a2e8 04bf 936f a23e d474 95bd
00000190: 0441 103f df99 973e bd76 a23e 2fac df3d
000001a0: e254 043c 1b8c 703e 418b b23e 9973 2cbe
000001b0: 57a7 403e dda1 08bf 8ccd d93e 091e 403c
000001c0: 8e49 d73d 0a09 913d 05de 4b3e d4bb 6f3e
000001d0: 0740 883d 4853 8a3d 3851 0a3d 58a0 b53d
000001e0: 8e5e 4abe 8b23 0fbf 67fa 0c3e c1b4 043d
000001f0: 46b1 c7bd 00b4 6dbd 6581 f33d 9377 a6bc
00000200: aa92 7a3d 73c3 003f 685c ee3e c52f 093f
00000210: 72b3 c83e e736 61be c3ee a43e 2d87 28be
00000220: 5aaa bdbc 9d56 e33d 483e 753e a96e d5bd
00000230: 845b 113e 959a 273e 198b 91bc 43dd 2bbe
00000240: 625e 46bd 5cae a4be 1df9 97bd a468 333d
00000250: a606 993d cc3b 643e 8d4d 9dbd 489c 133e
00000260: 690c ed3e cdae de3c 35a6 02be 68f9 81be
00000270: 48e3 4a3e a6e7 83be 6fec 61be 80e1 c73e
00000280: ab66 ddbd 1d51 05bf 7b0c 70be e4bf 533e
00000290: 3b52 cc3d 42fb 893e a906 c0bd 7733 7c3d
000002a0: c703 173d ad61 9f3e 6e57 23be f94b 6ebe
000002b0: 2d97 723e ea47 acbe a8da e73e e657 78be
000002c0: 51c2 763e 6400 71be 71cb 5d3e cee9 5a3e
000002d0: 4603 423f 9b34 3b3e a0fc 3d3e b7cd 213e
000002e0: b99c 55be e385 eabd 1057 c63e 187c ecbd
000002f0: 273e 95bd 35ae a43e 1659 e1bc 7e2f 6bbf
00000300: 9826 ff3d 0b2b b2be a4bd 3dbe 5850 0d3d
00000310: 9821 79bf 10a4 54bc 5432 603e b823 13be
00000320: 10e6 f43e f11a 723e a692 c13e 27c0 b1be
00000330: 52ae 673e ff77 e4bc c3fa a03d 3910 8b3e
00000340: 49c7 083e 81d9 90be 80fc 653c a9d5 153d
00000350: 74bb 0d3e 6d23 8c3e 9ac4 1fbe a8fa f23d
00000360: dcdf 5a3e e2e4 00bf dac6 06bf eb51 863e
00000370: 27d9 af3d c48d fe3c 965c fcbd 3b41 f03e
00000380: 0023 afbe f1cf a4be c8a7 d13d 2775 abbe
00000390: 5e04 3f3e 77df 843d 1bfd 323f 8965 033e
000003a0: 3a2e 93bc ca13 a23e 3e0e f53e a831 0e3e
000003b0: 9cd9 273e db52 6bbe 090b 943e 1367 0bbe
000003c0: a7f2 be3e aee2 53bf 4005 d53e b006 223d
000003d0: e5a9 bd3c c6ae c3be c89c db3d ac4c 853e
000003e0: daf5 82be b9ca ef3d 0dd0 253e 9d7a 5d3b
000003f0: c9c2 cc3d 84ca adbd 1862 e13e e0e0 a63c

fc3.bias f4 [4]
0.96012294 1.0192529 1.0291277 0.9049646
00000000: 9eca 753f e176 823f 75ba 833f c3ab 673f
