Unity-projects/Pro2.1_Reacher/checkpoint_actor.pth (torch_old, 307638 bytes, 10 tensors)

fc1.weight f4 [256, 33]
-0.3481102 0.002226964 -0.057946015 0.0040992624 0.27901664 -0.03499396 0.67182475 -0.08591091
0.26277575 0.064539164 -0.07410533 -0.15952541 0.10883579 0.25106204 0.11284914 0.041399065
0.061825447 0.26708695 -0.028648604 -0.21948138 0.063172325 -0.13928422 0.13010469 -0.078859806
0.014289475 -0.03779265 0.067577615 -0.058400612 0.06711547 -0.054793708 0.022882877 0.007644519
-0.32763812 -0.24792203 0.26829988 0.121868044 0.15111569 -0.24846762 0.6443481 -0.25658596
0.25059617 -0.2999328 -0.21432246 -0.13103528 0.08476289 0.09813043 0.0093878675 0.015959855
-0.065816656 -0.18206733 0.011414245 -0.008757662 -0.29036236 -0.17404751 0.10664701 -0.06100524
-0.016269973 0.021859424 -0.112593755 0.060124405 0.030361474 0.011386019 0.06148711 0.043502897
-0.03752155 -0.5257468 0.12697412 -0.05368604 -0.23986402 -0.10584425 0.3262549 -0.64111966
0.07874079 -0.052404303 0.031655364 0.14909351 -0.0036955753 -0.029932303 -0.040612288 -0.22405532
0.14593206 -0.008490583 -0.0892559 0.19950719 0.21348512 0.06740445 0.042279776 -0.031127479
-0.033238467 -0.005598652 0.006402045 -0.024664246 0.13828525 0.048056517 0.09194369 -0.038641304
-0.010157365 -0.05371222 0.61441463 -0.14672866 -0.47744197 -0.059687126 0.4285927 0.2572001
0.2503917 -0.05679716 0.14848396 -0.20271705 -0.116355896 0.108260706 0.002825371 -0.092574276
-0.0088240905 0.17632873 0.033526544 -0.3282664 0.10565899 -0.15733218 -0.15159582 -0.06836947
-0.10282989 0.026678603 -0.022292387 -0.08255521 0.03758169 0.17725392 0.060777556 0.12213025
0.052539773 0.012727543 0.05276212 -0.051151477 -0.07410538 -0.06904912 0.153717 -0.15304556
-0.11220575 0.18622556 -0.14142762 0.10524162 -0.07695625 0.085325845 -0.021975249 -0.006975515
0.00075887714 0.042819772 0.037565473 -0.23704503 -0.2605558 0.021386256 0.26697892 0.13430181
-0.0052078185 -0.016380679 0.060927443 0.018950175 -0.014688681 -0.05679514 -0.07887585 0.039602507
0.15558477 -0.01684779 0.042855356 -0.060623676 0.9830471 -0.16530967 -0.11037284 0.029572273
0.0019454748 -0.13310473 0.48663875 -0.10639727 0.0264796 0.13162966 -0.077080145 -0.08563108
-0.05611364 0.046326607 0.029639607 0.094638854 -0.10418593 0.28929636 -0.356012 0.22237974
-0.45915142 -0.122961596 0.0822731 0.024543902 0.10620802 0.0002108986 -0.059548717 0.13359109
0.057479434 0.033814054 0.041730486 -0.03779982 0.036587328 -0.7036053 -0.08461291 -0.03177023
0.00595326 0.33400777 0.52491015 -0.092512384 -0.32193398 0.03002007 -0.09348636 -0.052657902
-0.017219678 -0.12401733 -0.11996665 -0.03326456 -0.2784306 0.10663031 -0.30040607 0.3200097
0.18372448 -0.19248576 0.05429319 -0.15616746 0.014095164 0.037868723 -0.059133954 0.117695495
-0.28899238 0.055712976 0.02988261 0.031914413 -0.054221235 -0.019596279 -0.40151015 0.19631344
-0.2894088 0.081786774 0.063001074 0.32401612 -0.0733725 -0.058024935 0.09480673 0.36738154
-0.06564449 0.04431542 -0.07995132 0.029130246 -0.047867753 0.2624335 -0.2742044 0.13211413
0.036600232 -0.002488013 -0.013829975 -0.01182192 0.032009255 -0.08981998 -0.04896277 -0.040808104
00000000: 803b b2be 42f2 113b cd58 6dbd 1b53 863b
00000010: 45db 8e3e d455 0fbd b5fc 2b3f 0ff2 afbd
00000020: 8b8a 863e 1c2d 843d 89c4 97bd a15a 23be
00000030: 4ce5 de3d 348b 803e 731d e73d 1192 293d
00000040: ae3c 7d3d 9fbf 883e 7ab0 eabc babf 60be
00000050: 7e60 813d 86a0 0ebe 2a3a 053e 4081 a1bd
00000060: 671e 6a3c 77cc 1abd 2266 8a3d 7b35 6fbd
00000070: d673 893d 5e6f 60bd df74 bb3c e07e fa3b
00000080: 2fc0 a7be 46df 7dbe 9a5e 893e f495 f93d
00000090: 12be 1a3e 4c6e 7ebe fff3 243f 3c5f 83be
000000a0: 244e 803e cb90 99be 5977 5bbe 1d2e 06be
000000b0: 2b98 ad3d 9bf8 c83d 92cf 193c 3ebe 823c
000000c0: e2ca 86bd dc6f 3abe d002 3b3c 4c7c 0fbc
000000d0: 60aa 94be 8339 32be bf69 da3d a1e0 79bd
000000e0: 9b48 85bc 8912 b33c 8e97 e6bd 0245 763d
000000f0: a0b8 f83c 6d8c 3a3c e8d9 7b3d 1830 323d
00000100: 32b0 19bd 5897 06bf 8105 023e e5e5 5bbd
00000110: ea9e 75be dfc4 d8bd e20a a73e 6b20 24bf
00000120: da42 a13d e5a5 56bd 0ea9 013d f8ab 183e
00000130: 7731 72bb 9734 f5bc 1259 26bd c26e 65be
00000140: 376f 153e 161c 0bbc cccb b6bd 9d4b 4c3e
00000150: d89b 5a3e 580b 8a3d 8f2d 2d3d 0eff febc
00000160: 0f25 08bd e674 b7bb 3fc8 d13b ac0c cabc
00000170: a69a 0d3e e9d6 443d f94c bc3d 5846 1ebd
00000180: 146b 26bc 5801 5cbd 474a 1d3f 0a40 16be
00000190: 4673 f4be 7d7a 74bd 8170 db3e bbaf 833e
000001a0: 5733 803e 24a4 68bd 2e0c 183e 0f95 4fbe
000001b0: 004c eebd cab7 dd3d dc29 393b 9597 bdbd
000001c0: eb92 10bc 858f 343e 2153 093d 8912 a8be
000001d0: be63 d83d b01b 21be ef3b 1bbe 4b05 8cbd
000001e0: 7a98 d2bd 168d da3c 869e b6bc b512 a9bd
000001f0: 42ef 193d 0d82 353e e3f1 783d 6d1f fa3d
00000200: f233 573d 2f87 503c 181d 583d 3684 51bd
00000210: 90c4 97bd a069 8dbd fd67 1d3e fab7 1cbe
00000220: 21cc e5bd eab1 3e3e 67d2 10be eb88 d73d
00000230: 3d9b 9dbd 51bf ae3d 7005 b4bc dc92 e4bb
00000240: 62ef 463a c963 2f3d 41de 193d efbb 72be
00000250: 9267 85be 3b32 af3c 76b1 883e 6a86 093e
00000260: 59a6 aabb c630 86bc 0e8f 793d 663d 9b3c
00000270: cba8 70bc 05a2 68bd a989 a1bd 3d36 223d
00000280: 9d51 1f3e 6004 8abc 1989 2f3d 8850 78bd
00000290: faa8 7b3f f046 29be 280b e2bd 8d41 f23c
000002a0: 4dff fe3a 9b4c 08be b728 f93e d0e6 d9bd
000002b0: bfeb d83c edc9 063e 32dc 9dbd 595f afbd
000002c0: 6bd7 65bd f8c0 3d3d c3ce f23c 04d2 c13d
000002d0: 6f5f d5bd a71e 943e 3447 b6be 84b7 633e
000002e0: e515 ebbe 4ad3 fbbd cd7e a83d 4b10 c93c
000002f0: 9783 d93d a924 5d39 5be9 73bd 1acc 083e
00000300: 8e6f 6b3d 9b80 0a3d 96ed 2a3d fcd3 1abd
00000310: 98dc 153d 7a1f 34bf 8949 adbd 8021 02bd
00000320: 9113 c33b 1103 ab3e 8360 063f 2277 bdbd
00000330: 88d4 a4be a6ec f53c c775 bfbd d0af 57bd
00000340: 4810 8dbc ccfc fdbd 13b1 f5bd 6b40 08bd
00000350: 758e 8ebe fe60 da3d d3ce 99be 50d8 a33e
00000360: 4522 3c3e fd1a 45be 8962 5e3d 5dea 1fbe
00000370: 67ef 663c 3c1c 1b3d 7236 72bd 560a f13d
00000380: cff6 93be 4a33 643d 60cc f43c b0b8 023d
00000390: 1617 5ebd 6088 a0bc bd92 cdbe 6406 493e
000003a0: 642d 94be d37f a73d b506 813d 71e5 a53e
000003b0: 5244 96bd 8eab 6dbd 082a c23d 6f19 bc3e
000003c0: 9e70 86bd 1684 353d 85bd a3bd 8ea2 ee3c
000003d0: fa10 44bd af5d 863e 8564 8cbe ed48 073e
000003e0: 20ea 153d ee0d 23bb 1f97 62bc bab0 41bc
000003f0: 231c 033d 8af3 b7bd 2f8d 48bd 6626 27bd

fc1.bias f4 [256]
-0.028398471 -0.09140804 0.13549061 -0.053369913 0.076734416 -0.0057493453 -0.17268072 0.046984043
0.077226296 0.15353741 -0.14996897 0.12451121 -0.07057543 0.14437623 0.16957755 0.1634032
0.07725979 0.017007917 -0.087447315 -0.10302781 0.048494928 -0.0741484 0.03513585 0.15718128
-0.07862985 0.02251865 0.16733092 0.037223015 0.03223675 -0.08695985 -0.05891967 -0.034805097
0.04880262 -0.12367802 -0.09919116 0.12059183 -0.11735448 -0.11960709 0.15470998 0.064712085
-0.14297704 0.037886187 0.13392183 0.1565758 0.1477792 -0.029007858 0.11617101 -0.009371517
0.14427754 0.11124742 -0.12715426 0.08255479 -0.05425878 -0.013359788 -0.04769026 0.09277015
-0.028953489 0.082097284 -0.15805854 0.057086073 -0.056323618 -0.053410098 0.029237196 0.01689986
-0.048930153 -0.13346836 0.16384259 0.004301353 0.059484303 -0.07043918 0.1363161 -0.113092184
-0.16428751 0.088545464 0.07519594 0.09753993 -0.08943348 0.011681807 -0.113302566 0.042952478
0.16379482 0.043109577 -0.10472277 -0.00488293 0.07178919 0.097502425 -0.1740629 -0.07725188
-0.061451834 0.14370161 -0.015779348 0.08561203 0.07768822 0.14814718 0.0054907794 0.010348561
-0.028822575 -0.16023408 -0.026738737 0.098866545 0.0812447 0.08653236 0.046745133 0.0607409
0.042733543 -0.016347772 -0.067799285 0.036153167 0.014773866 0.00430511 0.16413021 -0.047989115
-0.15230475 -0.14802158 0.07623797 -0.0180456 -0.09955351 -0.072425805 0.12362703 -0.024212768
0.13693349 0.13176085 -0.0421193 0.12560128 0.16248913 0.0916872 -0.0975764 -0.06574385
-0.08053181 -0.16833644 -0.10701274 -0.1502297 0.13186567 -0.07655404 -0.041175697 0.055783622
0.019514969 -0.10871941 -0.07164445 -0.032091945 0.0044283234 -0.009042617 0.076347046 0.0009166569
-0.10127946 -0.06943895 -0.040205788 0.11847603 0.124429666 -0.14778379 -0.13419835 0.023783358
0.0776795 -0.03228668 0.057111885 0.0007070154 -0.08730782 0.08838716 -0.058358423 -0.112886496
-0.00432497 -0.07290786 0.09606861 0.15553637 0.10773099 -0.05390446 -0.085213386 -0.062634416
-0.099651225 -0.050956927 0.14673139 0.17233598 -0.0660582 0.056860857 0.01069662 0.044584744
-0.13476008 -0.09496725 -0.041001994 -0.054398604 -0.03759127 0.047800947 -0.005341161 -0.14336187
0.0073050763 0.03454162 0.12592463 -0.09394943 -0.09855308 0.122624554 -0.06392672 0.059710465
0.14199778 -0.031491023 -0.015427995 -0.10264245 0.08315972 0.08960201 -0.14706177 0.10500561
0.1695654 0.16100425 0.0632885 0.16772537 0.030607201 -0.08914181 -0.13687976 -0.13806069
0.06918265 0.07380581 -0.0880065 0.013397505 -0.07500508 0.07474289 -0.122924514 0.020776473
-0.0517504 -0.09916216 -0.062401548 0.17097072 0.039779197 -0.14083233 0.06577969 -0.14868435
0.13869159 -0.14598599 -0.056608666 -0.16237232 -0.060016006 0.12555154 0.07882298 0.0072731
-0.12127332 0.13246791 -0.017837927 -0.024257367 0.080871016 0.0891584 -0.12135065 0.00895398
-0.11705561 -0.1174751 0.0005289878 -0.0048276633 0.044615332 -0.11005985 0.046533447 0.1110226
0.014621069 0.1504781 0.0026223497 -0.12725568 -0.0774967 0.052730087 -0.11912046 -0.103563435
00000000: e9a3 e8bc 2334 bbbd 0dbe 0a3e 699a 5abd
00000010: ef26 9d3d 0165 bcbb 37d3 30be 5772 403d
00000020: d228 9e3d e938 1d3e 7791 19be bcff fe3d
00000030: da89 90bd 5dd7 133e bda5 2d3e 2b53 273e
00000040: 613a 9e3d 3054 8b3c 9417 b3bd 3f00 d3bd
00000050: 9ea2 463d 1edb 97bd 9cea 0f3d 21f4 203e
00000060: b008 a1bd 0879 b83c cc58 2b3e 2977 183d
00000070: af0a 043d 0118 b2bd c055 71bd ca8f 0ebd
00000080: 42e5 473d e74a fdbd bc24 cbbd d9f8 f63d
00000090: 8c57 f0bd 90f4 f4bd 4b6c 1e3e c587 843d
000000a0: 9368 12be 8c2e 1b3d ce22 093e 6855 203e
000000b0: 6e53 173e e3a1 edbc 11eb ed3d fe8a 19bc
000000c0: 7ebd 133e b0d5 e33d ba34 02be 7c12 a93d
000000d0: 743e 5ebd 03e3 5abc dd56 43bd 47fe bd3d
000000e0: de2f edbc 9f22 a83d 19da 21be 16d3 693d
000000f0: 98b3 66bd 8cc4 5abd d882 ef3c 9371 8a3c
00000100: fc6a 48bd eeab 08be 5ac6 273e 5df2 8c3b
00000110: d0a5 733d 6b42 90bd 7396 0b3e e09c e7bd
00000120: fc3a 28be 5357 b53d 5400 9a3d 04c3 c73d
00000130: e628 b7bd 0d65 3f3c 2d0b e8bd f0ee 2f3d
00000140: d4b9 273e ab93 303d e478 d6bd fc00 a0bb
00000150: 3606 933d 5aaf c73d 8b3d 32be 3c36 9ebd
00000160: ebb4 7bbd 8426 133e b143 81bc 5c55 af3d
00000170: 001b 9f3d e5b3 173e ffeb b33b 038d 293c
00000180: 521d ecbc 6714 24be 320b dbbc 8b7a ca3d
00000190: 9f63 a63d e137 b13d d377 3f3d 73cb 783d
000001a0: 5e09 2f3d c3eb 85bc 5ada 8abd 5815 143d
000001b0: 160e 723c e111 8d3b c011 283e 3c90 44bd
000001c0: c7f5 1bbe f892 17be a722 9c3d 5ed4 93bc
000001d0: b6e2 cbbd fb53 94bd 2b30 fd3d db59 c6bc
000001e0: 4b38 0c3e 51ec 063e 4a85 2cbd 9f9d 003e
000001f0: 8d63 263e 80c6 bb3d 23d6 c7bd b6a4 86bd
00000200: dded a4bd 6360 2cbe 7f29 dbbd d1d5 19be
00000210: cb07 073e 5dc8 9cbd d9a7 28bd 5e7d 643d
00000220: dbdd 9f3c 48a8 debd 53ba 92bd d872 03bd
00000230: 781b 913b 7c27 14bc d75b 9c3d ce4b 703a
00000240: 9b6b cfbd 0236 8ebd d3ae 24bd 90a3 f23d
00000250: fbd4 fe3d a254 17be 4b6b 09be 51d5 c23c
00000260: 6e16 9f3d 0a3f 04bd 27ee 693d 0057 393a
00000270: 71ce b2bd 5404 b53d 3e09 6fbd 0931 e7bd
00000280: 7ab8 8dbb b750 95bd 9fbf c43d ed44 1f3e
00000290: 11a2 dc3d ecca 5cbd 5b84 aebd 7946 80bd
000002a0: f115 ccbd 36b8 50bd c140 163e d878 303e
000002b0: 8649 87bd eee6 683d e040 2f3c 7e9e 363d
000002c0: 8cfe 09be 317e c2bd b5f1 27bd 12d1 5ebd
000002d0: 4ef9 19bd edca 433d e804 afbb 74cd 12be
000002e0: 6c5f ef3b 847b 0d3d 63f2 003e 8f68 c0bd
000002f0: 32d6 c9bd 9522 fb3d 03ec 82bd f692 743d
00000300: de67 113e bbfc 00bd b3c5 7cbc 3436 d2bd
00000310: a54f aa3d 4281 b73d 5c97 16be 2e0d d73d
00000320: 8da2 2d3e 4cde 243e 679d 813d 33c0 2b3e
00000330: f4bb fa3c fb8f b6bd 352a 0cbe c85f 0dbe
00000340: a2af 8d3d 8027 973d c03c b4bd 3581 5b3c
00000350: 439c 99bd cd12 993d d9bf fbbd 6c33 aa3c
00000360: 3af8 53bd 8815 cbbd c498 7fbd f312 2f3e
00000370: 83ef 223d 5a36 10be 81b7 863d b640 18be
00000380: 2b05 0e3e 5a7d 15be 7dde 67bd ee44 26be
00000390: 58d3 75bd 9590 003e f16d a13d 2f53 ee3b
000003a0: 255e f8bd aba5 073e d820 92bc 63b7 c6bc
000003b0: b49f a53d ae98 b63d b186 f8bd b7b3 123c
000003c0: daba efbd c996 f0bd c5ab 0a3a 6031 9ebb
000003d0: 91be 363d 0f67 e1bd db99 3e3d d15f e33d
000003e0: 358d 6f3c ee16 1a3e badb 2b3b 504f 02be
000003f0: 97b6 9ebd 81fb 573d 6df5 f3bd 1119 d4bd

fc2.weight f4 [256, 256]
-0.01926983 0.3224074 -0.10910973 -0.36735195 0.28621152 0.13857609 -0.105539426 0.31560692
-0.05615241 -0.36509538 0.12226492 0.0055960645 -0.12046713 -0.75853664 0.030337023 0.14585026
0.22372285 0.20486112 0.065986976 -0.26199052 0.057352137 -0.06286114 0.48819536 0.33750543
-0.06254221 -0.09242827 -0.1631012 -0.12125988 -0.5231221 -0.30715352 0.34526336 0.28886488
-0.04281354 0.1738425 0.015098308 -0.20563944 0.032420978 0.31613097 -0.087140694 0.42682993
-0.00083531166 0.06294036 0.10037341 -0.013692028 -0.17393756 0.123956576 -0.08390584 0.06590175
0.076641105 -0.29775235 -0.009649041 0.022333628 0.06575535 -0.036946926 0.055493563 -0.3027834
-0.3462952 -0.11152535 -0.24297407 -0.3332878 -0.5837683 0.017722256 0.12407153 0.21483792
-0.16353928 0.028391428 -0.17869507 0.06676017 0.029605206 -0.07051096 -0.19919574 -0.16516754
0.0044471533 0.0599798 0.28314227 -0.25924084 0.17723775 0.17094246 -0.019967085 -0.0361247
0.037303403 -0.092855565 -0.27596208 -0.15953568 -0.016179575 -0.4354019 0.23830454 -0.627426
-0.07125817 -0.07183076 -0.17130889 -0.23025814 -0.15906896 -0.505231 -0.22169933 0.44722328
0.10977574 0.391964 0.19915466 -0.19912297 0.10254738 -0.012026916 -0.17388396 -0.17053314
-0.41372225 -0.07169203 0.36928084 0.08760284 -0.23031668 -0.4303301 -0.07428343 -0.1264104
0.14607577 0.12804872 -0.0517347 0.17046851 0.044993084 0.26412997 0.21691768 -0.17704126
0.073965736 0.19392757 0.04411777 -0.15783139 0.29973716 0.05589464 -0.26126722 0.002557898
-0.0975223 -0.49955902 -0.08544172 -0.14954413 0.030053647 -0.047618873 -0.03987412 0.03240448
-0.21523224 -0.18772559 -0.13316754 -0.22513314 0.051048826 0.028234584 -0.43766177 0.2832367
0.22755213 -0.19529541 -0.087519705 -0.29748708 0.15464379 -0.57875556 -0.10686478 0.35475218
0.31751782 0.07042395 -0.18133982 -0.0153054185 -0.047095433 -0.28837022 -0.14022559 -0.25764337
0.2271192 0.22605082 0.17187218 0.64488053 0.265777 0.12383768 -0.11528965 -0.04411595
-0.07473402 -0.082939096 -0.08589016 -0.015977887 -0.24527784 -0.04014211 -0.05206146 0.050953686
-0.14368826 -0.32529747 -0.11608382 0.23138905 -0.10957657 0.2922068 0.061564893 0.22519933
0.008621988 0.106200725 -0.15507288 -0.053878315 -0.21134293 0.094333924 0.17143668 -0.25431323
0.33636633 0.27033383 0.17712152 0.29209456 -0.0645626 -0.348039 -0.060570475 -0.23873672
0.21358256 -0.19957791 -0.21972494 0.42340755 -0.0499859 0.06180035 -0.47150987 -4.73048e-06
-0.21066186 0.008018937 -0.16688675 -0.33623016 0.079070635 -0.25577205 -0.086463526 -0.11754674
-0.5117948 0.1629743 0.14009857 -0.16930223 -0.013085775 -0.16576101 0.009243805 0.058624607
0.11796057 -0.19537856 0.21340384 -0.060261283 0.074066855 -0.30062613 -0.00041386354 -0.00010387228
0.084958084 -0.6949401 0.12400689 0.19518688 -0.0850056 0.00831516 0.36339855 -0.044940613
-0.26112193 -0.42557868 -0.6094127 -0.43798402 -0.12712385 -0.19173971 -0.036671508 0.15722434
-0.28803366 -0.49986166 -0.0039539533 0.03098305 -0.2986652 -0.121753745 -0.07620544 -0.22022079
00000000: c3db 9dbc 9512 a53e ec74 dfbd 8e15 bcbe
00000010: 518a 923e e4e6 0d3e 0e25 d8bd 3b97 a13e
00000020: 1200 66bd c8ed babe 0866 fa3d 315f b73b
00000030: 78b7 f6bd 752f 42bf 5985 f83c c559 153e
00000040: 9a17 653e 1dc7 513e 2e24 873d 9f23 86be
00000050: 13ea 6a3d 57bd 80bd bef4 f93e 83cd ac3e
00000060: 2116 80bd 084b bdbd 0004 27be 1a57 f8bd
00000070: 54eb 05bf 3a43 9dbe 5cc6 b03e 19e6 933e
00000080: 405d 2fbd c503 323e e55e 773c 2593 52be
00000090: dccb 043d ebdb a13e d276 b2bd 7489 da3e
000000a0: d1f8 5aba e0e6 803d 9390 cd3d 8754 60bc
000000b0: b01c 32be f2dc fd3d d3d6 abbd 7ff7 863d
000000c0: 03f6 9c3d ff72 98be 0317 1ebc 03f5 b63c
000000d0: beaa 863d a955 17bd 384d 633d 6d06 9bbe
000000e0: 9b4d b1be 6767 e4bd 32ce 78be b3a4 aabe
000000f0: d771 15bf 442e 913c 3719 fe3d 79fe 5b3e
00000100: d776 27be 2495 e83c d7fb 36be 8eb9 883d
00000110: 9e86 f23c 0d68 90bd f8f9 4bbe ae21 29be
00000120: 6db9 913b 61ad 753d 06f8 903e 37bb 84be
00000130: d07d 353e 8a0b 2f3e 0392 a3bc 7ef7 13bd
00000140: 74cb 183d 0f2b bebd e74a 8dbe 525d 23be
00000150: 078b 84bc ffec debe 1b06 743e fe9e 20bf
00000160: ceef 91bd 011c 93bd 996b 2fbe cac8 6bbe
00000170: f9e2 22be d256 01bf 2605 63be 73fa e43e
00000180: 1ad2 e03d 81af c83e 33ef 4b3e e4e6 4bbe
00000190: 5c04 d23d 8b0c 45bc a30e 32be 3da0 2ebe
000001a0: 67d3 d3be 45d3 92bd 6112 bd3e 1e69 b33d
000001b0: 23d8 6bbe 3a54 dcbe e921 98bd ba71 01be
000001c0: e394 153e 341f 033e c4e7 53bd 4c8f 2e3e
000001d0: ab4a 383d 0b3c 873e ab1f 5e3e 4e4a 35be
000001e0: 597b 973d f394 463e d6b4 343d 8d9e 21be
000001f0: 2677 993e c7f1 643d d1c4 85be 68a2 273b
00000200: c6b9 c7bd 33c6 ffbe 12fc aebd 1922 19be
00000210: 1133 f63c 020c 43bd 0c53 23bd 8fba 043d
00000220: d765 5cbe 233b 40be 125d 08be 4d89 66be
00000230: 9318 513d 374c e73c 3415 e0be 6704 913e
00000240: 6d03 693e 85fb 47be 883d b3bd 3a50 98be
00000250: f15a 1e3e 5329 14bf ecdb dabd 14a2 b53e
00000260: b291 a23e 6f3a 903d 25b1 39be 94c3 7abc
00000270: 24e7 40bd 43a5 93be 4c97 0fbe d5e9 83be
00000280: f091 683e de79 673e 43ff 2f3e e416 253f
00000290: ec13 883e 9c9e fd3d fb1c ecbd edb2 34bd
000002a0: 260e 99bd f9db a9bd 2ee7 afbd 0fe4 82bc
000002b0: 1d2a 7bbe 0e6c 24bd 663e 55bd d0b4 503d
000002c0: 0423 13be 648d a6be 5bbd edbd 40f1 6c3e
000002d0: ae69 e0bd 219c 953e 782b 7c3d a79a 663e
000002e0: 3d43 0d3c c47f d93d 6dcb 1ebe 82af 5cbd
000002f0: 486a 58be 2532 c13d 198d 2f3e 5835 82be
00000300: 3538 ac3e 3269 8a3e 585f 353e 6b8d 953e
00000310: 6539 84bd 2b32 b2be bf18 78bd 6677 74be
00000320: 63b5 5a3e 275e 4cbe 93ff 60be e0c8 d83e
00000330: 04be 4cbd 5d22 7d3d be69 f1be 84ba 9eb6
00000340: beb7 57be dc61 033c 5ce4 2abe 5c26 acbe
00000350: c9ef a13d 8ef4 82be ca13 b1bd 58bc f0bd
00000360: fc04 03bf bce2 263e 0076 0f3e 905d 2dbe
00000370: b865 56bc 41bd 29be 5473 173c 5b20 703d
00000380: 5095 f13d 5111 48be 8986 5a3e 89d4 76bd
00000390: 5db0 973d abeb 99be d3fb d8b9 01d6 d9b8
000003a0: 81fe ad3d 98e7 31bf 53f7 fd3d 12df 473e
000003b0: 6a17 aebd 4f3c 083c 600f ba3e a613 38bd
000003c0: c6b1 85be 73e5 d9be 7902 1cbf 713f e0be
000003d0: c12c 02be 6a57 44be dd34 16bd 6bff 203e
000003e0: 2679 93be deed ffbe 2a90 81bb 2ad0 fd3c
000003f0: a5ea 98be 075a f9bd 9911 9cbd 8f81 61be

fc2.bias f4 [256]
-0.00045838783 0.0114380205 -0.015573113 -0.28139827 -0.7813055 -0.008947267 -0.01514253 0.023041584
-0.04016495 0.051185984 -0.08592232 0.07992958 0.13055892 0.0034799974 -0.06313816 -0.031409174
-0.10411038 -0.048022866 -0.0114362715 -0.12466149 -0.023109287 0.06724915 0.16556637 -0.07941406
0.008256878 0.021712357 -0.28459644 0.08591557 0.040677223 0.025720429 0.035899952 0.0025992342
-0.14513591 0.07455373 0.047890343 -0.0983108 -0.022724606 0.02257456 -0.13391905 -0.054827735
-0.11446292 -0.13576186 -0.12921521 0.09646097 -0.13602519 -0.046130836 -0.002586994 -0.12961407
0.017633913 0.04309746 -0.19376929 -0.06180486 -0.08046493 -0.09742637 -0.18512933 -0.07473993
0.12843193 -0.18138404 -0.07602042 -0.039199118 0.0681376 0.015158622 -0.056987997 -0.042840827
0.065364115 0.105380975 0.018470116 0.038018536 0.04006003 -0.13082947 -0.03384841 -0.3397065
-0.020764444 0.079917885 -0.04775624 -0.14237155 -0.035892207 -0.07757823 -0.07220268 0.11342412
0.10754337 0.06770763 -0.09538228 -0.018606428 -0.2031604 -0.08725753 -0.079075694 -0.22677107
0.09781526 0.011958729 0.038322233 -0.004090141 0.003993107 0.0016057362 -0.08631196 -0.13824987
0.028514784 -0.0237565 -0.16677992 -0.10625155 -0.020070842 -0.0711173 -0.0036927767 0.113270506
0.03845951 -0.010968259 0.027322622 -0.13688965 -0.13140725 -0.15717937 0.03244326 -0.04805636
-0.020653859 -0.011376366 -0.11226634 -0.21093456 -0.18193047 0.04090973 0.02967009 -0.11250977
0.007900849 0.028610755 -0.06825085 -0.043522976 0.020773822 0.04158853 0.06391649 -0.007958085
-0.0047708056 0.06939574 0.064302705 -0.025151338 -0.15384139 0.13061108 0.14583725 -0.2177545
-0.19465302 0.15388046 0.212623 0.05698507 -0.15865463 0.08523159 -0.035128333 -0.21813415
0.023339206 0.09223858 -0.08266085 -0.060999285 0.015057143 0.025396127 -0.031438492 -0.059039786
-0.042891044 0.17648366 -0.17753036 -0.09594161 -0.016375452 -0.013028698 -0.22281899 0.094062865
0.10968419 -0.040474184 0.082382746 -0.2930041 -0.009010384 0.009659514 0.053153645 0.01618439
0.06948878 -0.015557627 -0.118590765 -0.2698168 -0.1181959 -0.020467058 0.12897491 0.060360868
0.012871212 0.0182305 -0.004845789 0.02979575 0.19849914 -0.10270298 -0.052456778 -0.23427355
-0.26353627 -0.10481958 -0.084702924 -0.113071345 -0.03820751 -0.025828958 0.03726917 0.08287706
-0.20988461 0.021833388 0.026274689 -0.037748758 -0.10769132 0.08385896 0.19104849 0.009438439
-0.22058217 0.010243257 -0.21173498 -0.0716536 0.036175422 -0.0066601727 0.014040767 -0.0038202694
-0.019152852 -0.0758103 0.049354 0.05855313 -0.1642116 0.114018895 -0.11478466 -0.005160805
0.06343898 -0.08597848 -0.062125828 0.13985892 0.116937794 -0.033153996 0.123654254 -0.009067928
-0.07273854 0.0078788 -0.06693765 -0.16129829 -0.02954283 -0.024287293 -0.18906206 -0.024067642
-0.2572355 0.044476047 0.1321347 0.0041988296 0.08217272 -0.018945733 0.10104769 -0.018278612
0.044422064 -0.030205216 0.16257623 -0.111137375 -0.0689324 -0.11925598 -0.0110007785 0.086970896
-0.022290405 0.041183133 -0.009096006 -0.085951 0.014038829 0.13080937 -0.053883556 -0.0024422335
00000000: c653 f0b9 8966 3b3c 5f26 7fbc 6f13 90be
00000010: a303 48bf 8f97 12bc 6018 78bc b4c1 bc3c
00000020: 0184 24bd 65a8 513d 0bf8 afbd 1fb2 a33d
00000030: 3db1 053e ab10 643b 944e 81bd e8a6 00bd
00000040: d337 d5bd a0b3 44bd 335f 3bbc 864e ffbd
00000050: b04f bdbc ecb9 893d 3b8a 293e d7a3 a2bd
00000060: db47 073c 1dde b13c a0b6 91be 81f4 af3d
00000070: 299d 263d a6b3 d23c d40b 133d ea57 2a3b
00000080: 829e 14be a0af 983d aa28 443d 2c57 c9bd
00000090: f428 babc 49ee b83c 1322 09be 0c93 60bd
000000a0: 896b eabd 2805 0bbe fe50 04be 548d c53d
000000b0: 304a 0bbe b0f3 3cbd 8f8a 29bb 8db9 04be
000000c0: ff74 903c f686 303d 756b 46be 1827 7dbd
000000d0: ccca a4bd 7a87 c7bd 8b92 3dbe 4011 99bd
000000e0: a983 033e bdbc 39be 98b0 9bbd 418f 20bd
000000f0: ba8b 8b3d de5b 783c 3f6c 69bd dd79 2fbd
00000100: 9fdd 853d fbd1 d73d a44e 973c 53b9 1b3d
00000110: fc15 243d 29f8 05be a1a4 0abd 03ee adbe
00000120: 321a aabc fdab a33d 0c9c 43bd d9c9 11be
00000130: b503 13bd 56e1 9ebd 00df 93bd e84a e83d
00000140: b33f dc3d 4caa 8a3d c957 c3bd 826c 98bc
00000150: 4809 50be 13b4 b2bd 70f2 a1bd ad36 68be
00000160: 5e53 c83d 8bee 433c c6f7 1c3d 9706 86bb
00000170: 9cd8 823b 9177 d23a 53c4 b0bd 6091 0dbe
00000180: d697 e93c fe9c c2bc 5bc8 2abe 6a9a d9bd
00000190: 9b6b a4bc f2a5 91bd 8302 72bb 5efa e73d
000001a0: b887 1d3d 36b4 33bc b1d3 df3c cd2c 0cbe
000001b0: 9f8f 06be a1f3 20be 39e3 043d bfd6 44bd
000001c0: 4832 a9bc f063 3abc e5eb e5bd 3bff 57be
000001d0: fb4b 3abe f690 273d b00e f33c 866b e6bd
000001e0: 9072 013c 1a61 ea3c 1ac7 8bbd 2645 32bd
000001f0: dd2d aa3c bc58 2a3d a6e6 823d a162 02bc
00000200: 6b54 9cbb 5b1f 8e3d 23b1 833d 2e0a cebc
00000210: 9988 1dbe e9be 053e 5c56 153e 09fb 5ebe
00000220: 1f53 47be d792 1d3e d8b9 593e 2d69 693d
00000230: 5c76 22be e68d ae3d bae2 0fbd 8f5e 5fbe
00000240: dd31 bf3c 95e7 bc3d 174a a9bd 63da 79bd
00000250: 3cb2 763c 8a0b d03c a6c5 00bd b4d3 71bd
00000260: 85ae 2fbd 22b8 343e 85ca 35be 097d c4bd
00000270: d025 86bc 5276 55bc a92a 64be 08a4 c03d
00000280: 1ba2 e03d 42c8 25bd 49b8 a83d a204 96be
00000290: 4aa0 13bc f042 1e3c a3b7 593d 2095 843c
000002a0: 2250 8e3d 6be5 7ebc b7df f2bd 6d25 8abe
000002b0: b110 f2bd 88aa a7bc 0012 043e f53c 773d
000002c0: c7e1 523c 2158 953c 6dc9 9ebb 3716 f43c
000002d0: 5c43 4b3e f155 d2bd ebdc 56bd 68e5 6fbe
000002e0: 3aee 86be a6ab d6bd ba78 adbd f391 e7bd
000002f0: 7a7f 1cbd 4097 d3bc 8fa7 183d 73bb a93d
00000300: feeb 56be efdb b23c 043e d73c 719e 1abd
00000310: 448d dcbd 3fbe ab3d 37a2 433e afa3 1a3c
00000320: 4be0 61be 55d3 273c 0ed1 58be 1fbf 92bd
00000330: ae2c 143d 943d dabb 3f0b 663c 7c5d 7abb
00000340: 71e6 9cbc 6e42 9bbd 6b27 4a3d 68d5 6f3d
00000350: 1627 28be bd82 e93d 3814 ebbd f81b a9bb
00000360: 4cec 813d 7c15 b0bd a777 7ebd 2d37 0f3e
00000370: 157d ef3d 7ccc 07bd 713e fd3d a691 14bc
00000380: f2f7 94bd 1516 013c 9b16 89bd 612b 25be
00000390: ce03 f2bc 25f6 c6bc 7c99 41be 8129 c5bc
000003a0: 5fb4 83be 842c 363d 524e 073e 5696 893b
000003b0: 2c4a a83d 1534 9bbc 17f2 ce3d 07bd 95bc
000003c0: e9f3 353d ee70 f7bc 627a 263e fe9b e3bd
000003d0: 6e2c 8dbd 7b3c f4bd 9c3c 34bc cc1d b23d
000003e0: 5e9a b6bc a5af 283d 6a07 15bc 1407 b0bd
000003f0: 1e03 663c e4f2 053e 01b5 5cbd e10d 20bb

fc3.weight f4 [4, 256]
0.520545 -0.7595834 -0.70257187 -0.20004778 -0.08129394 -0.8648875 0.8724838 -1.1411037
0.1217961 -0.92201054 1.0881686 -0.034282714 0.59489715 0.36172986 -0.5669658 -0.8399994
1.0129154 0.33153835 -0.17316492 0.55127674 0.12874047 -1.0676862 0.5652406 -1.0147516
0.08958701 -0.45307457 -1.3606303 0.10129418 0.08215319 -0.5614613 0.5001393 -0.37635222
0.4427148 -0.24603398 -0.5956935 -0.8733283 -1.2510704 0.43431726 0.92755306 -0.6558402
0.415194 0.44549215 -0.37813413 -0.53582305 0.22273071 0.31494686 -0.09430083 -0.37161288
1.075925 0.7315825 -0.76959556 0.10419817 -0.40570527 -1.1096542 1.4190073 0.10119681
-0.61741114 1.2741348 -1.0453267 -1.1153127 -0.35584477 0.11332132 -0.22356036 -0.016752232
-0.44101632 0.406482 -0.031347528 0.47215462 0.03525319 -0.48303467 -0.47651535 -1.06476
0.48009977 -0.5365938 -1.3039398 0.10610713 -0.91755754 1.4937106 -0.6375692 0.9873834
-0.414036 0.35555172 0.08660063 -0.58070976 -0.48202512 0.090375505 -0.76638824 0.98342866
-0.42223236 -0.66803306 0.20346937 0.47727457 -0.69141555 -0.21965069 1.0567192 -0.16777351
-0.959129 0.71533006 0.617897 -0.2799087 0.3431037 -1.1910015 0.20426777 0.3063503
-0.16861731 -0.29206097 0.08967053 -0.014328534 -0.1791089 0.13892677 -0.4312312 -0.3481214
-0.6919175 0.7060403 -0.27505732 -1.1116436 -0.08396646 -0.7274531 -0.6731676 -1.1626351
0.47935876 -0.059380062 -0.9637766 -0.5917129 0.09565731 0.8259147 0.11619374 -0.042284295
-1.11013 1.0539668 0.80614245 -0.12680152 -1.8609916 0.6352977 1.2376883 -1.4501232
0.05213906 0.24869257 0.98097295 0.20067646 -0.34561214 0.51808536 0.27416778 -0.25905147
0.37680036 0.40766215 0.18897158 -0.22948664 0.059567165 -1.2636875 0.00056533236 0.7195666
-1.3525045 0.5977022 -1.1853253 -0.9814882 0.6683388 -0.61593294 -0.8329405 -0.025312299
0.3890413 0.6366383 0.0406965 -0.76241684 0.14533795 0.44022363 -0.17370255 -0.101078324
0.62111634 -0.26635596 -0.7823 -0.60024893 -0.37228265 -1.1942898 -0.40998626 0.48471442
0.1763599 0.75662374 0.84981954 1.4863712 0.6674305 -0.36615294 0.51323617 -0.74196446
-0.32532907 -0.2951798 -0.13844477 -0.9310322 -0.43483272 -0.9277525 0.47846514 0.3321678
0.04348907 -1.2388597 -0.058709055 0.08322901 -0.13473773 1.2555164 -0.49740344 0.4079411
-0.3677466 -0.5980439 -0.15586163 0.3016529 -0.34739047 -0.12203525 -0.038288016 0.26251695
-1.1724701 0.22660623 0.21550544 0.76869637 0.07809595 -0.4609709 -0.20893516 -0.09737956
0.14624219 0.107866235 1.8364521 0.20345406 -0.122095205 -0.62231535 0.16236551 -0.0076193186
0.47488162 0.7333745 0.22535776 -1.159135 0.5844723 0.35571727 -0.24704324 0.14184636
-0.11032678 -0.47478735 0.4268016 -0.7482354 0.88791245 0.80301946 0.29235107 -0.4041513
1.232792 0.8313011 -0.16305457 -0.06250917 -1.5272423 0.6128687 0.66565 0.3455345
0.59291595 -1.4201835 -0.37390465 0.44891462 -0.17799246 0.27167743 0.25407693 -0.999705
00000000: 7042 053f 0f74 42bf c0db 33bf 53d9 4cbe
00000010: 707d a6bd 4469 5dbf 195b 5f3f b00f 92bf
00000020: 3c70 f93d e208 6cbf 1c49 8b3f 086c 0cbd
00000030: 2e4b 183f a834 b93e ac24 11bf 330a 57bf
00000040: 36a7 813f 65bf a93e 2552 31be 7920 0d3f
00000050: 8bd4 033e f1a9 88bf 9cb3 103f 61e3 81bf
00000060: 6579 b73d 64f9 e7be 2229 aebf 5373 cf3d
00000070: ef3f a83d eebb 0fbf 2109 003f 3db1 c0be
00000080: 84ab e23e 55f0 7bbe 5f7f 18bf 7292 5fbf
00000090: 1323 a0bf d55e de3e 1e74 6d3f 25e5 27bf
000000a0: 4f94 d43e 8c17 e43e cc9a c1be b32b 09bf
000000b0: 8513 643e b740 a13e cb20 c1bd 0b44 bebe
000000c0: e9b7 893f fe48 3b3f 3704 45bf da65 d53d
000000d0: 9ab8 cfbe 2609 8ebf 08a2 b53f 4640 cf3d
000000e0: a80e 1ebf d916 a33f 44cd 85bf 91c2 8ebf
000000f0: 4931 b6be 0215 e83d 02ed 64be fa3b 89bc
00000100: e4cc e1be 691e d03e 4466 00bd 40be f13e
00000110: a665 103d 5250 f7be d2f9 f3be 0e4a 88bf
00000120: a3cf f53e 365e 09bf 80e7 a6bf b24e d93d
00000130: 0de5 6abf e931 bf3f bc37 23bf 29c5 7c3f
00000140: 87fc d3be e00a b63e ac5b b13d 65a9 14bf
00000150: ffcb f6be cb16 b93d 0532 44bf fbc1 7b3f
00000160: d72e d8be 3704 2bbf 465a 503e 555d f43e
00000170: 9c00 31bf 1cec 60be 9342 873f d2cc 2bbe
00000180: 7a89 75bf df1f 373f 7f2e 1e3f 3150 8fbe
00000190: 4aab af3e bd72 98bf 922b 513e f2d9 9c3e
000001a0: 04aa 2cbe 0489 95be 2fa5 b73d 3ac2 6abc
000001b0: 5368 37be d242 0e3e 56ca dcbe f83c b2be
000001c0: 8121 31bf 0fbf 343f 50d4 8cbe 564a 8ebf
000001d0: 9bf6 abbd 5e3a 3abf b654 2cbf 3ad1 94bf
000001e0: 836e f53e 8238 73bd 10ba 76bf 7f7a 17bf
000001f0: fbe7 c33d 256f 533f fcf6 ed3d 4c32 2dbd
00000200: bd18 8ebf 62e8 863f 5a5f 4e3f 42d8 01be
00000210: f934 eebf dfa2 223f 926c 9e3f a39d b9bf
00000220: c48f 553d 44a9 7e3e 0b21 7b3f 217e 4d3e
00000230: 13f4 b0be 3ea1 043f b85f 8c3e 65a2 84be
00000240: faeb c03e 18b9 d03e c481 413e 8cfe 6abe
00000250: b3fc 733d 83c0 a1bf d032 143a 8435 383f
00000260: de1e adbf 0303 193f bdb8 97bf d042 7bbf
00000270: 4018 2b3f c8ad 1dbf 973b 55bf bd5b cfbc
00000280: 6c30 c73e bafa 223f 60b1 263d c02d 43bf
00000290: 79d3 143e fe64 e13e 15df 31be 2702 cfbd
000002a0: 7b01 1f3f cf5f 88be d044 48bf eaa9 19bf
000002b0: d59b bebe 7dde 98bf b8e9 d1be 7d2c f83e
000002c0: b197 343e 18b2 413f c68d 593f 6941 be3f
000002d0: badc 2a3f 6678 bbbe 7263 033f 62f1 3dbf
000002e0: 8891 a6be cf21 97be 77c4 0dbe 2058 6ebf
000002f0: 65a2 debe 3081 6dbf 62f9 f43e e611 aa3e
00000300: 9821 323d f492 9ebf e878 70bd f973 aa3d
00000310: b0f8 09be c3b4 a03f aaab febe a8dd d03e
00000320: 4849 bcbe 6819 19bf 319a 1fbe 4072 9a3e
00000330: 2add b1be 9eed f9bd e5d3 1cbd 9f68 863e
00000340: 8013 96bf 770b 683e 75ad 5c3e 49c9 443f
00000350: c5f0 9f3d 6104 ecbe 19f3 55be ef6e c7bd
00000360: 83c0 153e f9e8 dc3d dd10 eb3f 4356 503e
00000370: 0d0d fabd 0f50 1fbf 2543 263e 7aab f9bb
00000380: af23 f33e 6ebe 3b3f 2fc4 663e 895e 94bf
00000390: fa9f 153f 9320 b63e e7f8 7cbe 2c40 113e
000003a0: 02f3 e1bd 5417 f3be bd85 da3e 5b8c 3fbf
000003b0: 3b4e 633f af92 4d3f 0aaf 953e ebec cebe
000003c0: 21cc 9d3f 26d0 543f c7f7 26be cf04 80bd
000003d0: ad7c c3bf f7e4 1c3f 0a68 2a3f e6e9 b03e
000003e0: 57c9 173f 93c8 b5bf 6e70 bfbe 23d8 e53e
000003f0: a843 36be 4e19 8b3e 5f16 823e abec 7fbf

fc3.bias f4 [4]
-0.046357293 0.17470406 -0.035466503 0.016338876
00000000: 25e1 3dbd 9fe5 323e 5345 11bd 1bd9 853c

bn1.weight f4 [256]
0.80495054 0.6996006 1.080216 0.74432856 1.4747488 0.99711496 1.0025231 1.1673926
1.1522512 1.107362 0.6313855 0.77080184 0.91969055 1.5557544 0.83072877 0.93966365
0.89229816 0.92537785 1.0470768 0.77682465 0.7745531 0.8916192 0.85909975 1.2249116
1.1841176 1.0590206 0.63142985 0.74627686 2.0780804 1.091046 0.76034313 1.0844074
0.613978 1.3470203 1.1482897 0.5428032 1.315183 1.3534784 1.3515048 1.2524916
0.9571914 0.7914906 0.85038626 1.0947288 0.7903823 0.87510353 1.4498134 0.65044785
1.8867425 1.158684 1.281029 1.1765457 1.2886351 1.416444 1.4973439 1.0458587
1.2922677 0.84053683 1.1042596 0.7456175 0.8127101 1.6650363 1.1498827 1.2508878
1.1083171 0.0009636681 0.8400516 1.3299154 0.5905098 1.0880948 0.8898704 0.9132374
0.6075469 0.98169756 1.8648859 0.90274787 1.1070317 1.0054461 1.0176423 1.1572455
0.6229409 1.1089216 1.0086645 0.83088505 0.7159955 1.0592072 0.8596724 1.2597787
0.6949332 0.69746274 0.9403126 0.92195314 0.9866327 1.0228565 1.0162097 1.1720768
2.1538587 1.5234518 0.7793254 1.2819102 1.2089761 1.0998026 1.0919595 1.1504737
0.96581185 0.75352633 0.86966866 1.1091387 0.5234796 0.7849449 1.3543122 0.7516214
0.81032914 0.9596021 0.59410155 1.0317925 0.8491707 0.79616916 1.2497286 0.88082474
0.77673167 0.9646173 1.8950362 0.828254 0.8983126 0.9968223 1.0462241 0.79639924
0.70700705 0.9051323 1.00048 1.1381127 0.7941768 0.9975597 1.067986 0.7346736
0.8873819 1.1850053 1.1940457 1.9227111 0.5991683 0.96896106 0.5260868 0.85751015
0.8462887 1.199854 0.75951195 1.3171595 1.1794244 0.76600367 1.2365382 1.6251143
1.0112107 0.97933054 0.60307515 0.00040122363 0.95758355 0.71428555 0.69748664 1.2428638
0.9841925 0.7622835 0.9631558 2.3630004 0.8005351 0.67994106 0.89674157 1.2981081
1.4780164 0.75551194 1.2146423 0.4344042 0.7579551 0.7254422 1.2139174 0.7180926
1.1456895 0.64720577 0.9709667 0.7077213 1.1548238 1.1184251 0.7534259 0.63228947
0.67010206 1.4412202 0.93336743 0.7675371 1.0991384 0.8489177 0.67695755 1.0695705
1.0333174 0.9986415 1.4361418 0.7163207 0.7013927 0.8386264 0.78055894 1.275321
1.0136968 0.6548546 0.824064 1.0745785 0.31147566 0.8126607 1.4733857 0.95569956
1.6059225 1.6238207 0.515906 0.6741801 1.1224464 1.02355 0.7937099 0.920493
1.4197085 1.117614 0.7691901 0.6262115 0.9098959 0.8327421 0.8822553 1.0876312
0.687497 0.78785384 0.8903814 0.958221 1.0003744 0.90549326 0.57710475 1.0340161
0.83437157 1.0392057 1.1400602 1.0070598 0.93317837 1.1719157 0.66690594 0.97211856
1.0968696 0.72353053 0.6531597 0.68577105 0.9847174 1.1113659 1.0623295 1.3970685
1.1152784 0.999927 0.88992745 0.70872015 1.2150373 0.87106377 1.2641428 1.1175451
00000000: 3d11 4e3f 0619 333f 8544 8a3f 518c 3e3f
00000010: 92c4 bc3f ed42 7f3f ad52 803f 1f6d 953f
00000020: f87c 933f 0abe 8d3f 7ba2 213f 4553 453f
00000030: d770 6b3f f622 c73f a4aa 543f cc8d 703f
00000040: a76d 643f 90e5 6c3f 9d06 863f fbdd 463f
00000050: 1d49 463f 2841 643f f6ed 5b3f e7c9 9c3f
00000060: 2a91 973f fd8d 873f 63a5 213f 000c 3f3f
00000070: 45ff 0440 65a7 8b3f d9a5 423f ddcd 8a3f
00000080: aa2d 1d3f 296b ac3f 28fb 923f 27f5 0a3f
00000090: eb57 a83f c83e ad3f 1cfe ac3f a551 a03f
000000a0: 7f0a 753f 219f 4a3f eab2 593f 1320 8c3f
000000b0: 7f56 4a3f c906 603f 7c93 b93f c083 263f
000000c0: c780 f13f c24f 943f c2f8 a33f 0d99 963f
000000d0: fff1 a43f 094e b53f f7a8 bf3f b3de 853f
000000e0: 0769 a53f 6c2d 573f 6158 8d3f cae0 3e3f
000000f0: c50d 503f e91f d53f 5b2f 933f 171d a03f
00000100: 56dd 8d3f ac9e 7c3a 9f0d 573f ab3a aa3f
00000110: a62b 173f b146 8b3f 8cce 633f edc9 693f
00000120: 3288 1b3f 8850 7b3f 95b4 ee3f 7c1a 673f
00000130: 37b3 8d3f 75b2 803f 1a42 823f 9f20 943f
00000140: 0e79 1f3f 25f1 8d3f eb1b 813f e2b4 543f
00000150: 7b4b 373f 1a94 873f 7e13 5c3f 6e40 a13f
00000160: 24e7 313f eb8c 323f 54b8 703f 1f05 6c3f
00000170: f693 7c3f f6ec 823f 2913 823f 9d06 963f
00000180: d2d8 0940 7800 c33f df81 473f a215 a43f
00000190: bbbf 9a3f 55c6 8c3f 54c5 8b3f b942 933f
000001a0: 723f 773f 1ae7 403f 9ba2 5e3f 42f8 8d3f
000001b0: c202 063f 26f2 483f 1a5a ad3f 436a 403f
000001c0: bb71 4f3f 7ca8 753f 0a17 183f c711 843f
000001d0: 4063 593f bed1 4b3f 1bf7 9f3f bb7d 613f
000001e0: e3d7 463f 29f1 763f 8c90 f23f 7408 543f
000001f0: d1f7 653f bf2f 7f3f acea 853f d2e0 4b3f
00000200: 6afe 343f c0b6 673f bb0f 803f adad 913f
00000210: 2c4f 4b3f 1360 7f3f c4b3 883f 9213 3c3f
00000220: 762b 633f 41ae 973f 7dd6 983f 661b f63f
00000230: 1863 193f d50d 783f a0ad 063f c985 5b3f
00000240: 60a6 583f d194 993f 606f 423f af98 a83f
00000250: 61f7 963f d118 443f e246 9e3f bf03 d03f
00000260: 5a6f 813f 68b5 7a3f 2263 1a3f 535b d239
00000270: 3224 753f 6bdb 363f 7c8e 323f 2916 9f3f
00000280: 0af4 7b3f 0325 433f 6191 763f 663b 1740
00000290: deef 4c3f 9e10 2e3f db90 653f 6828 a63f
000002a0: a42f bd3f 3b69 413f 6679 9b3f 3a6a de3e
000002b0: 5809 423f 94b6 393f a561 9b3f ebd4 373f
000002c0: f4a5 923f 47af 253f 4691 783f 392d 353f
000002d0: 44d1 933f 8e28 8f3f 85e0 403f b9dd 213f
000002e0: cf8b 2b3f e779 b83f 2bf1 6e3f 507d 443f
000002f0: 91b0 8c3f ac52 593f 174d 2d3f b0e7 883f
00000300: bf43 843f f8a6 7f3f 7fd3 b73f cb60 373f
00000310: 798e 333f 38b0 563f b6d2 473f b83d a33f
00000320: d1c0 813f 8da4 273f dcf5 523f ca8b 893f
00000330: bd79 9f3e 880a 503f e797 bc3f baa8 743f
00000340: de8e cd3f 5bd9 cf3f 6a12 043f 1197 2c3f
00000350: 53ac 8f3f b003 833f 9230 4b3f 6ea5 6b3f
00000360: 02b9 b53f fa0d 8f3f a4e9 443f 664f 203f
00000370: f0ee 683f 962e 553f 7cdb 613f 8037 8b3f
00000380: ceff 2f3f cab0 493f 09f0 633f f94d 753f
00000390: 450c 803f 68ce 673f 23bd 133f a45a 843f
000003a0: 6099 553f b104 853f 7eed 913f 56e7 803f
000003b0: c7e4 6e3f 5501 963f 59ba 2a3f c3dc 783f
000003c0: 3966 8c3f 4c39 393f 7935 273f b18e 2f3f
000003d0: 7116 7c3f 3d41 8e3f 6afa 873f 24d3 b23f
000003e0: 71c1 8e3f 37fb 7f3f 49d2 633f af6e 353f
000003f0: 5886 9b3f 09fe 5e3f 6ecf a13f b80b 8f3f

bn1.bias f4 [256]
-0.15689327 -0.06816859 -0.30400398 0.11531298 -0.4226508 -0.21932667 0.12967288 -0.4522513
-0.24814433 -0.35556066 -0.00676099 -0.12056445 -0.13760957 -0.16367632 -0.22309871 0.061545245
-0.078785494 -0.14150588 -0.09029301 -0.031730767 -0.051228408 -0.059478864 -0.21179365 -0.5520584
-0.30800295 -0.103857405 -0.09683995 -0.04299614 -0.27034363 -0.6315072 -0.15837668 -0.32902783
-0.050914843 -0.31711692 -0.19923292 -0.07817236 -0.25311577 -0.3835741 -0.23767343 -0.1857229
-0.086786464 0.020094229 -0.1856945 -0.06783889 -0.102940835 0.081701875 -0.15154071 -0.13743897
-0.87584186 -0.16063201 -0.3623831 -0.41997686 -0.22137706 -0.42464742 -0.30443993 -0.6021121
-0.504611 -0.26241776 -0.3616641 -0.12688027 -0.08243647 -0.6517961 -0.20856652 -0.32999814
-0.19321385 -0.0074017 5.1518695e-05 -0.5940002 -0.069142 -0.39283615 -0.10883711 -0.19917195
0.01749795 -0.43592072 -0.14770538 -0.21973923 -0.18421502 -0.22275211 -0.26275083 -0.46544617
0.019874062 -0.41937613 0.06717463 -0.18939476 -0.17900233 -0.3127542 -0.3751199 -0.32670552
-0.16194217 0.07674479 -0.27702823 -0.13280514 -0.03012332 -0.22291814 0.07290882 -0.2930193
-0.63769823 -0.5486222 -0.18800035 -0.37421614 -0.13453227 -0.09120565 -0.20914096 -0.1927183
-0.019987889 0.012612337 -0.20408459 -0.36988938 -0.08754383 -0.28488255 -0.4569855 -0.15781777
-0.07967179 -0.10148922 -0.06554758 -0.24616773 -0.31728452 0.032785233 -0.0609831 -0.123977676
-0.15524024 -0.27945676 -0.31410134 -0.43163034 -0.3304552 -0.08058912 -0.60072315 0.016973479
-0.06355736 -0.12695028 -0.21373624 -0.088565685 -0.2364203 -0.2779497 0.04465261 0.11485184
-0.19042 -0.083418004 -0.04932876 -0.7315441 -0.2892071 -0.036240775 0.21483798 -0.20307533
-0.25135073 -0.23971407 -0.21874595 -0.47763893 -0.32026768 -0.048468746 -0.26309413 -0.80371016
-0.34474108 -0.022683492 0.15939398 -0.0031622322 0.0015511523 -0.0495124 -0.14828175 -0.06910756
-0.3031883 -0.0583389 -0.115952976 -0.75721455 0.088940576 0.15411264 -0.30019066 -0.23979121
-0.27533334 -0.1200065 -0.23392025 -0.025960734 -0.26136518 -0.14403199 -0.3441546 0.085101664
-0.5042659 -0.013063097 -0.103164166 -0.19705926 -0.11151716 -0.2931854 -0.11932659 -0.1590785
-0.13724756 -0.48861334 -0.16270235 -0.2867406 -0.40336838 -0.37911746 -0.28686273 -0.2907399
-0.28962952 -0.09468937 -0.2000494 0.15696098 0.101455 0.06656824 -0.052144185 -0.058466867
-0.29714397 0.026087942 0.028277831 -0.40650198 0.057861567 -0.01702804 -0.36343205 -0.06717215
-0.576541 -0.35348803 0.06553313 0.2677279 -0.32955992 -0.23374476 0.11726849 -0.10259315
-0.4712851 -0.44705343 -0.035310984 -0.017901827 -0.25007915 -0.16912189 -0.18854113 -0.28245106
-0.015948476 -0.14305542 -0.33375153 -0.32590306 -0.17584983 -0.42264098 0.18448149 -0.2716565
-0.16853751 -0.010678308 -0.49419335 -0.16729268 0.08315924 -0.5042089 -0.15438981 -0.16730097
-0.09189555 -0.12495081 0.03103482 -0.22166343 -0.035896853 -0.4138853 -0.18241632 -0.4938693
-0.32182407 0.062623024 -0.49255756 0.09030634 -0.26633275 -0.18680204 0.005811252 -0.41066518
00000000: a1a8 20be f99b 8bbd 69a6 9bbe 3629 ec3d
00000010: b065 d8be 2c97 60be f8c8 043e 7b8d e7be
00000020: 8c19 7ebe 0c0c b6be 4b8b ddbb 7fea f6bd
00000030: 86e9 0cbe c49a 27be fd73 64be de16 7c3d
00000040: 4a5a a1bd ebe6 10be 8beb b8bd 1ff8 01bd
00000050: e1d4 51bd 1ca0 73bd 6fe0 58be b353 0dbf
00000060: 90b2 9dbe 31b3 d4bd 0654 c6bd b81c 30bd
00000070: 7b6a 8abe 75aa 21bf 7f2d 22be 5676 a8be
00000080: 158c 50bd 265d a2be b703 4cbe d518 a0bd
00000090: 6498 81be d363 c4be aa60 73be 252e 3ebe
000000a0: 1abd b1bd a79c a43c b326 3ebe 1eef 8abd
000000b0: a5d2 d2bd 5053 a73d 7d2d 1bbe cdbc 0cbe
000000c0: 2c37 60bf b87c 24be 478a b9be 3507 d7be
000000d0: abb0 62be 636b d9be 8ddf 9bbe 0524 1abf
000000e0: 302e 01bf 9f5b 86be 092c b9be e7ec 01be
000000f0: 74d4 a8bd 1cdc 26bf 7692 55be 84f5 a8be
00000100: dad9 45be f689 f2bb c715 5838 6610 18bf
00000110: 529a 8dbd d221 c9be fee5 debd bbf3 4bbe
00000120: dc57 8f3c 0031 dfbe 1440 17be 5203 61be
00000130: dda2 3cbe 2119 64be 4787 86be f64e eebe
00000140: eece a23c 78b8 d6be da92 893d b3f0 41be
00000150: 634c 37be 5221 a0be b70f c0be f245 a7be
00000160: 2bd4 25be 5f2c 9d3d a5d6 8dbe 12fe 07be
00000170: 2ec5 f6bc a744 64be 3851 953d a006 96be
00000180: 3140 23bf 8172 0cbf 2a83 40be 4299 bfbe
00000190: d4c2 09be 07ca babd 0c29 56be f257 45be
000001a0: a4bd a3bc faa3 4e3c 8dfb 50be 2462 bdbe
000001b0: 2e4a b3bd 20dc 91be 01fa e9be fb9a 21be
000001c0: f72a a3bd 95d9 cfbd cf3d 86bd 6513 7cbe
000001d0: 1e73 a2be cf49 063d 6ac9 79bd 02e8 fdbd
000001e0: 4cf7 1ebe f514 8fbe e4d1 a0be a7fe dcbe
000001f0: 6d31 a9be e90b a5bd fec8 19bf f70b 8b3c
00000200: 5c2a 82bd 41ff 01be acdd 5abe ed61 b5bd
00000210: 2a18 72be 6c4f 8ebe a8e5 363d 7137 eb3d
00000220: 76fd 42be 0fd7 aabd f40c 4abd 7946 3bbf
00000230: f412 94be 3571 14bd 7dfe 5b3e fbf2 4fbe
00000240: 0bb1 80be 9b77 75be f0fe 5fbe 178d f4be
00000250: 20fa a3be 2a87 46bd 46b4 86be f3bf 4dbf
00000260: e781 b0be bbd2 b9bc 2d38 233e 743d 4fbb
00000270: 0950 cb3a 84cd 4abd 2cd7 17be 4488 8dbd
00000280: 7f3b 9bbe c5f4 6ebd c178 edbd d0d8 41bf
00000290: 7a26 b63d b4cf 1d3e 97b2 99be d48b 75be
000002a0: 7ef8 8cbe f8c5 f5bd ca88 6fbe 9bab d4bc
000002b0: a8d1 85be 1f7d 13be 0835 b0be c849 ae3d
000002c0: 9217 01bf 9a06 56bc bc47 d3bd e7c9 49be
000002d0: 1c63 e4bd 661c 96be 8061 f4bd 79e5 22be
000002e0: a08a 0cbe 872b fabe 729b 26be aacf 92be
000002f0: 4d86 cebe af1b c2be acdf 92be dcdb 94be
00000300: 524a 94be 80ec c1bd c0d9 4cbe 61ba 203e
00000310: a4c7 cf3d ee54 883d 2495 55bd f47a 6fbd
00000320: 4123 98be 61b6 d53c e9a6 e73c 0721 d0be
00000330: 4000 6d3d 637e 8bbc c413 babe 8d91 89bd
00000340: 3198 13bf 62fc b4be 3c36 863d a213 893e
00000350: 14bc a8be c95a 6fbe 762a f03d 5c1c d2bd
00000360: 484c f1be 30e4 e4be 40a2 10bd daa6 92bc
00000370: 600a 80be 4a2e 2dbe ed10 41be 6d9d 90be
00000380: 61a6 82bc 1f7d 12be 7be1 aabe c4dc a6be
00000390: fa11 34be 6664 d8be b7e8 3c3e 9016 8bbe
000003a0: 1995 2cbe 12f4 2ebc e906 fdbe c64e 2bbe
000003b0: 644f aa3d d613 01bf 5d18 1ebe f250 2bbe
000003c0: bc33 bcbd 36e6 ffbd bc3c fe3c bdfb 62be
000003d0: 9408 13bd c6e8 d3be 58cb 3abe 70dc fcbe
000003e0: 20c6 a4be 8040 803d 8130 fcbe 88f2 b83d
000003f0: c45c 88be 0949 3fbe 516c be3b b542 d2be

bn1.running_mean f4 [256]
-0.13337593 -0.900484 -0.24641824 0.09922343 0.16234812 -0.34462747 0.45304793 0.020062318
0.33064604 -0.43518928 -0.16040213 0.12961084 -0.47652557 0.46931234 -0.40805864 0.41054204
-0.28103143 -0.5056228 -0.14447983 -0.27477622 0.22171323 -0.32915115 0.058432057 -0.515627
-0.30512995 0.22072297 0.36409304 0.11454194 0.4602772 -0.18240418 -0.19828932 -0.6570379
0.6287723 -0.67340416 0.4636627 0.77547246 0.617999 -0.2144874 0.26955467 0.70761853
-0.4421938 0.64468277 -0.36477587 0.77374196 -0.043523666 0.24782568 0.25863284 -0.66347754
-0.15131328 0.62487787 -1.2959608 -0.5313581 -0.7087616 -0.24050105 0.07489397 -0.027689034
-0.5155259 -0.52492565 0.21962705 0.012064539 0.31671563 -0.5626134 0.19761883 -0.31445435
-0.34264812 -0.008341153 0.67330146 -0.108286835 -0.62185746 -0.46474174 0.76157624 -0.08583027
-0.00020332604 -0.66926336 0.37723777 0.51312155 0.40052074 0.75592506 -0.56455684 -0.32314998
0.1824007 -0.22450823 -0.53619885 -0.47059482 0.03256505 0.28506765 0.33036935 -0.81163937
-0.39043668 0.45509246 -0.31541818 0.38943893 0.612958 0.34689024 0.30029923 -0.4313519
0.098711774 -0.17407188 -0.5171261 0.5480138 0.5445549 -0.058448825 0.08307635 -0.3137305
0.20299317 -0.023290586 -0.23961967 -0.48697507 -0.6901627 0.34908348 0.27253878 0.081722476
-0.4232582 -0.41309273 0.22611122 -0.39762068 0.6900709 -0.12303794 -0.7936455 -0.31299278
-0.04845295 -0.46273175 0.12684733 0.32301 0.43031916 0.05870174 0.05370077 0.6690825
0.34429497 -0.051729057 -0.3916232 0.027045375 1.1932184 -0.5468618 0.5277736 -0.24351689
-0.031388275 -0.19922948 0.45976567 -0.22920965 -1.1500704 -0.065592214 0.6337745 0.71005154
-0.39783728 0.0059607835 0.45822635 -0.13551047 -0.5854308 -0.15430717 0.47501528 -0.260781
-0.25962555 0.6949844 -0.10753402 0.20417006 0.4698402 -0.62165624 0.62914234 0.60506034
0.22640349 -0.111159325 -0.39553368 0.041852843 0.8257376 -0.020854058 -0.30995 -0.15800759
0.38429594 -0.06580656 -0.10384177 -0.117496215 -0.32318264 -0.21826248 -0.534031 0.2122813
-0.6741952 0.08305955 -0.03117061 0.017880805 0.14239438 0.12965713 1.2334753 -0.14812869
-0.43498755 0.06901093 0.2401101 0.8199919 -0.6644265 -0.44840252 0.30664566 0.10552845
-0.36176074 0.03581136 -0.70741487 0.5554403 0.78376573 0.33670446 -0.45925528 0.5508156
0.03633378 0.0033373453 -0.7416802 0.042356856 0.5911518 -0.3812685 0.26215127 0.41262248
0.39780962 0.16235833 0.65059936 0.12564792 -0.31852856 0.06474191 0.8359866 0.8571866
-0.5780626 -0.68217707 -0.20519161 0.2805215 0.25997257 -0.2111166 -0.42422822 0.17724808
-0.2873189 -0.291756 -0.9063562 0.53024995 -0.4949335 -0.0139621105 -0.08980304 -0.40226263
0.31005976 0.74375325 -1.1523777 -0.56650513 0.03168686 0.4400273 0.5922162 -0.79158825
0.10587149 -0.11111754 -0.47525403 0.15599202 -0.32341978 -0.74631876 -0.40505216 -0.3453055
0.50023127 -0.55371416 -0.27095982 -1.0174773 -0.31606048 0.009712684 0.44476214 -0.1462751
00000000: b393 08be 1f86 66bf 1055 7cbe a735 cb3d
00000010: 963e 263e 0373 b0be e6f5 e73e bb59 a43c
00000020: 704a a93e 21d1 debe 7540 24be b4b8 043e
00000030: 29fb f3be b549 f03e 10ed d0be 9132 d23e
00000040: 5ae3 8fbe 7f70 01bf 85f2 13be 78af 8cbe
00000050: cb08 633e 8086 a8be 7456 6f3d 2200 04bf
00000060: fe39 9cbe 3405 623e 676a ba3e f794 ea3d
00000070: 74a9 eb3e 29c8 3abe 5b0c 4bbe a333 28bf
00000080: 39f7 203f 3764 2cbf 3365 ed3e 5d85 463f
00000090: 2f35 1e3f 96a2 5bbe 1203 8a3e 7d26 353f
000000a0: 3a67 e2be ee09 253f e7c3 babe f413 463f
000000b0: df45 32bd 04c6 7d3e 866b 843e aad9 29bf
000000c0: def1 1abe fff7 1f3f 0be2 a5bf 1607 08bf
000000d0: 6671 35bf e845 76be 0262 993d 1dd4 e2bc
000000e0: 81f9 03bf 8761 06bf eae5 603e 58aa 453c
000000f0: 8d28 a23e 6f07 10bf 975c 4a3e 2900 a1be
00000100: 936f afbe 55a9 08bc 7c5d 2c3f 7dc5 ddbd
00000110: 0d32 1fbf a1f2 edbe a9f6 423f c8c7 afbd
00000120: eb33 55b9 d854 2bbf 4f25 c13e ef5b 033f
00000130: 0e11 cd3e 4e84 413f cc86 10bf ea73 a5be
00000140: 40c7 3a3e 7ce5 65be 5444 09bf cef1 f0be
00000150: ee62 053d 63f4 913e 2c26 a93e 99c7 4fbf
00000160: 51e7 c7be e101 e93e 7e7e a1be 8a64 c73e
00000170: d1ea 1c3f 999b b13e d2c0 993e 28da dcbe
00000180: 6629 ca3d e63f 32be 6062 04bf a24a 0c3f
00000190: f367 0b3f 0968 6fbd ef23 aa3d 49a1 a0be
000001a0: 71dd 4f3e e6cb bebc dc5e 75be cc54 f9be
000001b0: 81ae 30bf 12bb b23e 348a 8b3e 1d5e a73d
000001c0: 4cb5 d8be e480 d3be b389 673e f094 cbbe
000001d0: 7da8 303f 51fb fbbd 5a2c 4bbf 9740 a0be
000001e0: 9a76 46bd 2deb ecbe 44e4 013e 9161 a53e
000001f0: cb52 dc3e 3c71 703d 57f5 5b3d fe48 2b3f
00000200: 6e47 b03e d9e1 53bd d682 c8be 438e dd3c
00000210: 61bb 983f 23ff 0bbf 2c1c 073f 7e5c 79be
00000220: fe90 00bd d002 4cbe 6866 eb3e efb5 6abe
00000230: 8235 93bf 3655 86bd 0c3f 223f f0c5 353f
00000240: 54b1 cbbe ad52 c33b a59c ea3e 42c3 0abe
00000250: cbde 15bf b302 1ebe 3435 f33e 1685 85be
00000260: a4ed 84be 7fea 313f cc3a dcbd f511 513e
00000270: e58e f03e dd24 1fbf 790f 213f 3ce5 1a3f
00000280: 51d6 673e 80a7 e3bd 6483 cabe e36d 2b3d
00000290: 8a63 533f 21d6 aabc c4b1 9ebe becc 21be
000002a0: 70c2 c43e 97c5 86bd feaa d4bd dba1 f0bd
000002b0: 3278 a5be 3380 5fbe 41b6 08bf 4560 593e
000002c0: 0e98 2cbf 201b aa3d 8259 ffbc c47a 923c
000002d0: d5cf 113e d7c4 043e 85e2 9d3f 0caf 17be
000002e0: b0b6 debe 9a55 8d3d 6cdf 753e fdea 513f
000002f0: db17 2abf 0495 e5be a900 9d3e 4d1f d83d
00000300: b438 b9be efae 123d 2419 35bf 5631 0e3f
00000310: dfa4 483f 8764 ac3e 8223 ebbe 4002 0d3f
00000320: bbd2 143d 5db7 5a3b c1de 3dbf 627e 2d3d
00000330: b955 173f a035 c3be b138 863e 4143 d33e
00000340: b4ad cb3e 4341 263e ae8d 263f d9a9 003e
00000350: 2d16 a3be 6897 843d 3803 563f 9570 5b3f
00000360: e9fb 13bf 28a3 2ebf c01d 52be 84a0 8f3e
00000370: 201b 853e f32e 58be 7134 d9be 8580 353e
00000380: 761b 93be 0b61 95be f606 68bf 76be 073f
00000390: ec67 fdbe 56c1 64bc a8ea b7bd 5ef5 cdbe
000003a0: 27c0 9e3e 9d66 3e3f 1d81 93bf 7b06 11bf
000003b0: 15ca 013d 424b e13e 7b9b 173f 87a5 4abf
000003c0: 27d3 d83d 9891 e3bd 7f54 f3be 5fbc 1f3e
000003d0: 4797 a5be bf0e 3fbf ff62 cfbe e2cb b0be
000003e0: 280f 003f 36c0 0dbf 3fbb 8abe b23c 82bf
000003f0: aed2 a1be f321 1f3c ddb7 e33e 24c9 15be
